<?xml version="1.0"?>
<net name="Model54" version="11">
	<layers>
		<layer id="0" name="x" type="Parameter" version="opset1">
			<data shape="?,?,?,?" element_type="f32" />
			<output>
				<port id="0" precision="FP32" names="126,input.1,x">
					<dim>-1</dim>
					<dim>-1</dim>
					<dim>-1</dim>
					<dim>-1</dim>
				</port>
			</output>
		</layer>
		<layer id="1" name="self.cls_token_compressed" type="Const" version="opset1">
			<data element_type="f16" shape="1, 1, 1024" offset="0" size="2048" />
			<output>
				<port id="0" precision="FP16" names="self.cls_token">
					<dim>1</dim>
					<dim>1</dim>
					<dim>1024</dim>
				</port>
			</output>
		</layer>
		<layer id="2" name="self.cls_token" type="Convert" version="opset1">
			<data destination_type="f32" />
			<rt_info>
				<attribute name="decompression" version="0" />
			</rt_info>
			<input>
				<port id="0" precision="FP16">
					<dim>1</dim>
					<dim>1</dim>
					<dim>1024</dim>
				</port>
			</input>
			<output>
				<port id="1" precision="FP32">
					<dim>1</dim>
					<dim>1</dim>
					<dim>1024</dim>
				</port>
			</output>
		</layer>
		<layer id="3" name="self.patch_embed.proj.weight_compressed" type="Const" version="opset1">
			<data element_type="f16" shape="1024, 3, 14, 14" offset="2048" size="1204224" />
			<output>
				<port id="0" precision="FP16" names="self.patch_embed.proj.weight">
					<dim>1024</dim>
					<dim>3</dim>
					<dim>14</dim>
					<dim>14</dim>
				</port>
			</output>
		</layer>
		<layer id="4" name="self.patch_embed.proj.weight" type="Convert" version="opset1">
			<data destination_type="f32" />
			<rt_info>
				<attribute name="decompression" version="0" />
			</rt_info>
			<input>
				<port id="0" precision="FP16">
					<dim>1024</dim>
					<dim>3</dim>
					<dim>14</dim>
					<dim>14</dim>
				</port>
			</input>
			<output>
				<port id="1" precision="FP32">
					<dim>1024</dim>
					<dim>3</dim>
					<dim>14</dim>
					<dim>14</dim>
				</port>
			</output>
		</layer>
		<layer id="5" name="__module.patch_embed.proj/aten::_convolution/Convolution" type="Convolution" version="opset1">
			<data strides="14, 14" dilations="1, 1" pads_begin="0, 0" pads_end="0, 0" auto_pad="explicit" />
			<input>
				<port id="0" precision="FP32">
					<dim>-1</dim>
					<dim>-1</dim>
					<dim>-1</dim>
					<dim>-1</dim>
				</port>
				<port id="1" precision="FP32">
					<dim>1024</dim>
					<dim>3</dim>
					<dim>14</dim>
					<dim>14</dim>
				</port>
			</input>
			<output>
				<port id="2" precision="FP32">
					<dim>-1</dim>
					<dim>1024</dim>
					<dim>-1</dim>
					<dim>-1</dim>
				</port>
			</output>
		</layer>
		<layer id="6" name="__module.patch_embed.proj/aten::_convolution/Reshape_compressed" type="Const" version="opset1">
			<data element_type="f16" shape="1, 1024, 1, 1" offset="1206272" size="2048" />
			<output>
				<port id="0" precision="FP16">
					<dim>1</dim>
					<dim>1024</dim>
					<dim>1</dim>
					<dim>1</dim>
				</port>
			</output>
		</layer>
		<layer id="7" name="__module.patch_embed.proj/aten::_convolution/Reshape" type="Convert" version="opset1">
			<data destination_type="f32" />
			<rt_info>
				<attribute name="decompression" version="0" />
			</rt_info>
			<input>
				<port id="0" precision="FP16">
					<dim>1</dim>
					<dim>1024</dim>
					<dim>1</dim>
					<dim>1</dim>
				</port>
			</input>
			<output>
				<port id="1" precision="FP32">
					<dim>1</dim>
					<dim>1024</dim>
					<dim>1</dim>
					<dim>1</dim>
				</port>
			</output>
		</layer>
		<layer id="8" name="__module.patch_embed.proj/aten::_convolution/Add" type="Add" version="opset1">
			<data auto_broadcast="numpy" />
			<input>
				<port id="0" precision="FP32">
					<dim>-1</dim>
					<dim>1024</dim>
					<dim>-1</dim>
					<dim>-1</dim>
				</port>
				<port id="1" precision="FP32">
					<dim>1</dim>
					<dim>1024</dim>
					<dim>1</dim>
					<dim>1</dim>
				</port>
			</input>
			<output>
				<port id="2" precision="FP32" names="133">
					<dim>-1</dim>
					<dim>1024</dim>
					<dim>-1</dim>
					<dim>-1</dim>
				</port>
			</output>
		</layer>
		<layer id="9" name="ShapeOf_908929" type="ShapeOf" version="opset3">
			<data output_type="i64" />
			<input>
				<port id="0" precision="FP32">
					<dim>-1</dim>
					<dim>1024</dim>
					<dim>-1</dim>
					<dim>-1</dim>
				</port>
			</input>
			<output>
				<port id="1" precision="I64">
					<dim>4</dim>
				</port>
			</output>
		</layer>
		<layer id="10" name="Constant_908930" type="Const" version="opset1">
			<data element_type="i64" shape="1" offset="1208320" size="8" />
			<rt_info>
				<attribute name="precise" version="0" />
			</rt_info>
			<output>
				<port id="0" precision="I64">
					<dim>1</dim>
				</port>
			</output>
		</layer>
		<layer id="11" name="Constant_908931" type="Const" version="opset1">
			<data element_type="i64" shape="" offset="1208320" size="8" />
			<rt_info>
				<attribute name="precise" version="0" />
			</rt_info>
			<output>
				<port id="0" precision="I64" />
			</output>
		</layer>
		<layer id="12" name="Gather_908932" type="Gather" version="opset8">
			<data batch_dims="0" />
			<input>
				<port id="0" precision="I64">
					<dim>4</dim>
				</port>
				<port id="1" precision="I64">
					<dim>1</dim>
				</port>
				<port id="2" precision="I64" />
			</input>
			<output>
				<port id="3" precision="I64" names="1000,1022,1072,1205,1227,1277,1410,1432,1482,1615,1637,1687,180,1820,1842,1892,202,2025,2047,2097,2230,2252,2302,2435,2457,2507,252,2640,2662,2712,2845,2867,2917,3050,3072,3122,3255,3277,3327,3460,3482,3532,3665,3687,3737,385,3870,3892,3942,407,4075,4097,4147,4280,4302,4352,4485,4507,4557,457,4690,4712,4762,4895,4917,4967,590,612,662,67,69,795,817,867">
					<dim>1</dim>
				</port>
			</output>
		</layer>
		<layer id="13" name="Constant_879701" type="Const" version="opset1">
			<data element_type="i64" shape="1" offset="1208328" size="8" />
			<rt_info>
				<attribute name="precise" version="0" />
			</rt_info>
			<output>
				<port id="0" precision="I64">
					<dim>1</dim>
				</port>
			</output>
		</layer>
		<layer id="14" name="Constant_879703" type="Const" version="opset1">
			<data element_type="i64" shape="1" offset="1208328" size="8" />
			<rt_info>
				<attribute name="precise" version="0" />
			</rt_info>
			<output>
				<port id="0" precision="I64">
					<dim>1</dim>
				</port>
			</output>
		</layer>
		<layer id="15" name="prim::ListConstruct" type="Concat" version="opset1">
			<data axis="0" />
			<input>
				<port id="0" precision="I64">
					<dim>1</dim>
				</port>
				<port id="1" precision="I64">
					<dim>1</dim>
				</port>
				<port id="2" precision="I64">
					<dim>1</dim>
				</port>
			</input>
			<output>
				<port id="3" precision="I64">
					<dim>3</dim>
				</port>
			</output>
		</layer>
		<layer id="16" name="aten::expand/Broadcast" type="Broadcast" version="opset3">
			<data mode="bidirectional" />
			<input>
				<port id="0" precision="FP32">
					<dim>1</dim>
					<dim>1</dim>
					<dim>1024</dim>
				</port>
				<port id="1" precision="I64">
					<dim>3</dim>
				</port>
			</input>
			<output>
				<port id="2" precision="FP32" names="74,cls_tokens">
					<dim>-1</dim>
					<dim>1</dim>
					<dim>1024</dim>
				</port>
			</output>
		</layer>
		<layer id="17" name="Constant_909559" type="Const" version="opset1">
			<data element_type="i64" shape="3" offset="1208336" size="24" />
			<rt_info>
				<attribute name="precise" version="0" />
			</rt_info>
			<output>
				<port id="0" precision="I64">
					<dim>3</dim>
				</port>
			</output>
		</layer>
		<layer id="18" name="__module.patch_embed/aten::flatten/Reshape" type="Reshape" version="opset1">
			<data special_zero="true" />
			<input>
				<port id="0" precision="FP32">
					<dim>-1</dim>
					<dim>1024</dim>
					<dim>-1</dim>
					<dim>-1</dim>
				</port>
				<port id="1" precision="I64">
					<dim>3</dim>
				</port>
			</input>
			<output>
				<port id="2" precision="FP32" names="134">
					<dim>-1</dim>
					<dim>1024</dim>
					<dim>-1</dim>
				</port>
			</output>
		</layer>
		<layer id="19" name="__module.patch_embed/aten::transpose/Constant" type="Const" version="opset1">
			<data element_type="i32" shape="3" offset="1208360" size="12" />
			<output>
				<port id="0" precision="I32">
					<dim>3</dim>
				</port>
			</output>
		</layer>
		<layer id="20" name="__module.patch_embed/aten::transpose/Transpose" type="Transpose" version="opset1">
			<input>
				<port id="0" precision="FP32">
					<dim>-1</dim>
					<dim>1024</dim>
					<dim>-1</dim>
				</port>
				<port id="1" precision="I32">
					<dim>3</dim>
				</port>
			</input>
			<output>
				<port id="2" precision="FP32" names="135,x.3">
					<dim>-1</dim>
					<dim>-1</dim>
					<dim>1024</dim>
				</port>
			</output>
		</layer>
		<layer id="21" name="aten::cat/Concat" type="Concat" version="opset1">
			<data axis="1" />
			<input>
				<port id="0" precision="FP32">
					<dim>-1</dim>
					<dim>1</dim>
					<dim>1024</dim>
				</port>
				<port id="1" precision="FP32">
					<dim>-1</dim>
					<dim>-1</dim>
					<dim>1024</dim>
				</port>
			</input>
			<output>
				<port id="2" precision="FP32" names="77,x.5">
					<dim>-1</dim>
					<dim>-1</dim>
					<dim>1024</dim>
				</port>
			</output>
		</layer>
		<layer id="22" name="aten::add/Multiply_compressed" type="Const" version="opset1">
			<data element_type="f16" shape="1, 1297, 1024" offset="1208372" size="2656256" />
			<output>
				<port id="0" precision="FP16">
					<dim>1</dim>
					<dim>1297</dim>
					<dim>1024</dim>
				</port>
			</output>
		</layer>
		<layer id="23" name="aten::add/Multiply" type="Convert" version="opset1">
			<data destination_type="f32" />
			<rt_info>
				<attribute name="decompression" version="0" />
			</rt_info>
			<input>
				<port id="0" precision="FP16">
					<dim>1</dim>
					<dim>1297</dim>
					<dim>1024</dim>
				</port>
			</input>
			<output>
				<port id="1" precision="FP32">
					<dim>1</dim>
					<dim>1297</dim>
					<dim>1024</dim>
				</port>
			</output>
		</layer>
		<layer id="24" name="aten::add/Add" type="Add" version="opset1">
			<data auto_broadcast="numpy" />
			<input>
				<port id="0" precision="FP32">
					<dim>-1</dim>
					<dim>-1</dim>
					<dim>1024</dim>
				</port>
				<port id="1" precision="FP32">
					<dim>1</dim>
					<dim>1297</dim>
					<dim>1024</dim>
				</port>
			</input>
			<output>
				<port id="2" precision="FP32" names="79,input.3">
					<dim>-1</dim>
					<dim>1297</dim>
					<dim>1024</dim>
				</port>
			</output>
		</layer>
		<layer id="25" name="__module.blocks.0.norm1/aten::layer_norm/Multiply" type="Const" version="opset1">
			<data element_type="i32" shape="1" offset="3864628" size="4" />
			<output>
				<port id="0" precision="I32">
					<dim>1</dim>
				</port>
			</output>
		</layer>
		<layer id="26" name="__module.blocks.0.norm1/aten::layer_norm/MVN" type="MVN" version="opset6">
			<data eps="9.9999999747524271e-07" normalize_variance="true" eps_mode="INSIDE_SQRT" />
			<input>
				<port id="0" precision="FP32">
					<dim>-1</dim>
					<dim>1297</dim>
					<dim>1024</dim>
				</port>
				<port id="1" precision="I32">
					<dim>1</dim>
				</port>
			</input>
			<output>
				<port id="2" precision="FP32">
					<dim>-1</dim>
					<dim>1297</dim>
					<dim>1024</dim>
				</port>
			</output>
		</layer>
		<layer id="27" name="Constant_905594_compressed" type="Const" version="opset1">
			<data element_type="f16" shape="1, 1, 1024" offset="3864632" size="2048" />
			<output>
				<port id="0" precision="FP16">
					<dim>1</dim>
					<dim>1</dim>
					<dim>1024</dim>
				</port>
			</output>
		</layer>
		<layer id="28" name="Constant_905594" type="Convert" version="opset1">
			<data destination_type="f32" />
			<rt_info>
				<attribute name="decompression" version="0" />
			</rt_info>
			<input>
				<port id="0" precision="FP16">
					<dim>1</dim>
					<dim>1</dim>
					<dim>1024</dim>
				</port>
			</input>
			<output>
				<port id="1" precision="FP32">
					<dim>1</dim>
					<dim>1</dim>
					<dim>1024</dim>
				</port>
			</output>
		</layer>
		<layer id="29" name="__module.blocks.0.norm1/aten::layer_norm/Multiply_1" type="Multiply" version="opset1">
			<data auto_broadcast="numpy" />
			<input>
				<port id="0" precision="FP32">
					<dim>-1</dim>
					<dim>1297</dim>
					<dim>1024</dim>
				</port>
				<port id="1" precision="FP32">
					<dim>1</dim>
					<dim>1</dim>
					<dim>1024</dim>
				</port>
			</input>
			<output>
				<port id="2" precision="FP32">
					<dim>-1</dim>
					<dim>1297</dim>
					<dim>1024</dim>
				</port>
			</output>
		</layer>
		<layer id="30" name="Constant_905595_compressed" type="Const" version="opset1">
			<data element_type="f16" shape="1, 1, 1024" offset="3866680" size="2048" />
			<output>
				<port id="0" precision="FP16">
					<dim>1</dim>
					<dim>1</dim>
					<dim>1024</dim>
				</port>
			</output>
		</layer>
		<layer id="31" name="Constant_905595" type="Convert" version="opset1">
			<data destination_type="f32" />
			<rt_info>
				<attribute name="decompression" version="0" />
			</rt_info>
			<input>
				<port id="0" precision="FP16">
					<dim>1</dim>
					<dim>1</dim>
					<dim>1024</dim>
				</port>
			</input>
			<output>
				<port id="1" precision="FP32">
					<dim>1</dim>
					<dim>1</dim>
					<dim>1024</dim>
				</port>
			</output>
		</layer>
		<layer id="32" name="__module.blocks.0.norm1/aten::layer_norm/Add" type="Add" version="opset1">
			<data auto_broadcast="numpy" />
			<input>
				<port id="0" precision="FP32">
					<dim>-1</dim>
					<dim>1297</dim>
					<dim>1024</dim>
				</port>
				<port id="1" precision="FP32">
					<dim>1</dim>
					<dim>1</dim>
					<dim>1024</dim>
				</port>
			</input>
			<output>
				<port id="2" precision="FP32" names="168,169,x.7,x.9">
					<dim>-1</dim>
					<dim>1297</dim>
					<dim>1024</dim>
				</port>
			</output>
		</layer>
		<layer id="33" name="self.blocks.0.attn.q_proj.weight_compressed" type="Const" version="opset1">
			<data element_type="f16" shape="1024, 1024" offset="3868728" size="2097152" />
			<output>
				<port id="0" precision="FP16" names="self.blocks.0.attn.q_proj.weight">
					<dim>1024</dim>
					<dim>1024</dim>
				</port>
			</output>
		</layer>
		<layer id="34" name="self.blocks.0.attn.q_proj.weight" type="Convert" version="opset1">
			<data destination_type="f32" />
			<rt_info>
				<attribute name="decompression" version="0" />
			</rt_info>
			<input>
				<port id="0" precision="FP16">
					<dim>1024</dim>
					<dim>1024</dim>
				</port>
			</input>
			<output>
				<port id="1" precision="FP32">
					<dim>1024</dim>
					<dim>1024</dim>
				</port>
			</output>
		</layer>
		<layer id="35" name="__module.blocks.0.attn/aten::linear/MatMul" type="MatMul" version="opset1">
			<data transpose_a="false" transpose_b="true" />
			<input>
				<port id="0" precision="FP32">
					<dim>-1</dim>
					<dim>1297</dim>
					<dim>1024</dim>
				</port>
				<port id="1" precision="FP32">
					<dim>1024</dim>
					<dim>1024</dim>
				</port>
			</input>
			<output>
				<port id="2" precision="FP32">
					<dim>-1</dim>
					<dim>1297</dim>
					<dim>1024</dim>
				</port>
			</output>
		</layer>
		<layer id="36" name="Constant_905596_compressed" type="Const" version="opset1">
			<data element_type="f16" shape="1, 1, 1024" offset="5965880" size="2048" />
			<output>
				<port id="0" precision="FP16">
					<dim>1</dim>
					<dim>1</dim>
					<dim>1024</dim>
				</port>
			</output>
		</layer>
		<layer id="37" name="Constant_905596" type="Convert" version="opset1">
			<data destination_type="f32" />
			<rt_info>
				<attribute name="decompression" version="0" />
			</rt_info>
			<input>
				<port id="0" precision="FP16">
					<dim>1</dim>
					<dim>1</dim>
					<dim>1024</dim>
				</port>
			</input>
			<output>
				<port id="1" precision="FP32">
					<dim>1</dim>
					<dim>1</dim>
					<dim>1024</dim>
				</port>
			</output>
		</layer>
		<layer id="38" name="__module.blocks.0.attn/aten::linear/Add" type="Add" version="opset1">
			<data auto_broadcast="numpy" />
			<input>
				<port id="0" precision="FP32">
					<dim>-1</dim>
					<dim>1297</dim>
					<dim>1024</dim>
				</port>
				<port id="1" precision="FP32">
					<dim>1</dim>
					<dim>1</dim>
					<dim>1024</dim>
				</port>
			</input>
			<output>
				<port id="2" precision="FP32" names="182,q.1">
					<dim>-1</dim>
					<dim>1297</dim>
					<dim>1024</dim>
				</port>
			</output>
		</layer>
		<layer id="39" name="Constant_909560" type="Const" version="opset1">
			<data element_type="i64" shape="4" offset="5967928" size="32" />
			<rt_info>
				<attribute name="precise" version="0" />
			</rt_info>
			<output>
				<port id="0" precision="I64">
					<dim>4</dim>
				</port>
			</output>
		</layer>
		<layer id="40" name="__module.blocks.0.attn/aten::reshape/Reshape" type="Reshape" version="opset1">
			<data special_zero="true" />
			<input>
				<port id="0" precision="FP32">
					<dim>-1</dim>
					<dim>1297</dim>
					<dim>1024</dim>
				</port>
				<port id="1" precision="I64">
					<dim>4</dim>
				</port>
			</input>
			<output>
				<port id="2" precision="FP32" names="186">
					<dim>-1</dim>
					<dim>1297</dim>
					<dim>16</dim>
					<dim>64</dim>
				</port>
			</output>
		</layer>
		<layer id="41" name="Constant_682933" type="Const" version="opset1">
			<data element_type="i64" shape="4" offset="5967960" size="32" />
			<output>
				<port id="0" precision="I64" names="187">
					<dim>4</dim>
				</port>
			</output>
		</layer>
		<layer id="42" name="__module.blocks.0.attn/aten::permute/Transpose" type="Transpose" version="opset1">
			<input>
				<port id="0" precision="FP32">
					<dim>-1</dim>
					<dim>1297</dim>
					<dim>16</dim>
					<dim>64</dim>
				</port>
				<port id="1" precision="I64">
					<dim>4</dim>
				</port>
			</input>
			<output>
				<port id="2" precision="FP32" names="188,197,198,240,241,q.3">
					<dim>-1</dim>
					<dim>16</dim>
					<dim>1297</dim>
					<dim>64</dim>
				</port>
			</output>
		</layer>
		<layer id="43" name="Constant_683900" type="Const" version="opset1">
			<data element_type="i64" shape="1" offset="1208320" size="8" />
			<output>
				<port id="0" precision="I64">
					<dim>1</dim>
				</port>
			</output>
		</layer>
		<layer id="44" name="Constant_683902" type="Const" version="opset1">
			<data element_type="i64" shape="1" offset="1208328" size="8" />
			<output>
				<port id="0" precision="I64">
					<dim>1</dim>
				</port>
			</output>
		</layer>
		<layer id="45" name="Constant_683904" type="Const" version="opset1">
			<data element_type="i64" shape="1" offset="1208328" size="8" />
			<output>
				<port id="0" precision="I64">
					<dim>1</dim>
				</port>
			</output>
		</layer>
		<layer id="46" name="Constant_683898" type="Const" version="opset1">
			<data element_type="i64" shape="1" offset="5967992" size="8" />
			<output>
				<port id="0" precision="I64">
					<dim>1</dim>
				</port>
			</output>
		</layer>
		<layer id="47" name="__module.blocks.0.attn/aten::slice/Slice_2" type="Slice" version="opset8">
			<input>
				<port id="0" precision="FP32">
					<dim>-1</dim>
					<dim>16</dim>
					<dim>1297</dim>
					<dim>64</dim>
				</port>
				<port id="1" precision="I64">
					<dim>1</dim>
				</port>
				<port id="2" precision="I64">
					<dim>1</dim>
				</port>
				<port id="3" precision="I64">
					<dim>1</dim>
				</port>
				<port id="4" precision="I64">
					<dim>1</dim>
				</port>
			</input>
			<output>
				<port id="5" precision="FP32" names="242,243">
					<dim>-1</dim>
					<dim>16</dim>
					<dim>1</dim>
					<dim>64</dim>
				</port>
			</output>
		</layer>
		<layer id="48" name="Constant_683008" type="Const" version="opset1">
			<data element_type="i64" shape="1" offset="1208328" size="8" />
			<output>
				<port id="0" precision="I64">
					<dim>1</dim>
				</port>
			</output>
		</layer>
		<layer id="49" name="Constant_683010" type="Const" version="opset1">
			<data element_type="i64" shape="1" offset="5968000" size="8" />
			<output>
				<port id="0" precision="I64">
					<dim>1</dim>
				</port>
			</output>
		</layer>
		<layer id="50" name="Constant_683012" type="Const" version="opset1">
			<data element_type="i64" shape="1" offset="1208328" size="8" />
			<output>
				<port id="0" precision="I64">
					<dim>1</dim>
				</port>
			</output>
		</layer>
		<layer id="51" name="Constant_683006" type="Const" version="opset1">
			<data element_type="i64" shape="1" offset="5967992" size="8" />
			<output>
				<port id="0" precision="I64">
					<dim>1</dim>
				</port>
			</output>
		</layer>
		<layer id="52" name="__module.blocks.0.attn/aten::slice/Slice_6" type="Slice" version="opset8">
			<input>
				<port id="0" precision="FP32">
					<dim>-1</dim>
					<dim>16</dim>
					<dim>1297</dim>
					<dim>64</dim>
				</port>
				<port id="1" precision="I64">
					<dim>1</dim>
				</port>
				<port id="2" precision="I64">
					<dim>1</dim>
				</port>
				<port id="3" precision="I64">
					<dim>1</dim>
				</port>
				<port id="4" precision="I64">
					<dim>1</dim>
				</port>
			</input>
			<output>
				<port id="5" precision="FP32" names="199,200,t.1">
					<dim>-1</dim>
					<dim>16</dim>
					<dim>1296</dim>
					<dim>64</dim>
				</port>
			</output>
		</layer>
		<layer id="53" name="Constant_905597_compressed" type="Const" version="opset1">
			<data element_type="f16" shape="1, 1, 1296, 64" offset="5968008" size="165888" />
			<output>
				<port id="0" precision="FP16">
					<dim>1</dim>
					<dim>1</dim>
					<dim>1296</dim>
					<dim>64</dim>
				</port>
			</output>
		</layer>
		<layer id="54" name="Constant_905597" type="Convert" version="opset1">
			<data destination_type="f32" />
			<rt_info>
				<attribute name="decompression" version="0" />
			</rt_info>
			<input>
				<port id="0" precision="FP16">
					<dim>1</dim>
					<dim>1</dim>
					<dim>1296</dim>
					<dim>64</dim>
				</port>
			</input>
			<output>
				<port id="1" precision="FP32">
					<dim>1</dim>
					<dim>1</dim>
					<dim>1296</dim>
					<dim>64</dim>
				</port>
			</output>
		</layer>
		<layer id="55" name="__module.blocks.23.attn.rope/aten::mul/Multiply" type="Multiply" version="opset1">
			<data auto_broadcast="numpy" />
			<input>
				<port id="0" precision="FP32">
					<dim>-1</dim>
					<dim>16</dim>
					<dim>1296</dim>
					<dim>64</dim>
				</port>
				<port id="1" precision="FP32">
					<dim>1</dim>
					<dim>1</dim>
					<dim>1296</dim>
					<dim>64</dim>
				</port>
			</input>
			<output>
				<port id="2" precision="FP32" names="201">
					<dim>-1</dim>
					<dim>16</dim>
					<dim>1296</dim>
					<dim>64</dim>
				</port>
			</output>
		</layer>
		<layer id="56" name="Constant_909561" type="Const" version="opset1">
			<data element_type="i64" shape="5" offset="6133896" size="40" />
			<rt_info>
				<attribute name="precise" version="0" />
			</rt_info>
			<output>
				<port id="0" precision="I64">
					<dim>5</dim>
				</port>
			</output>
		</layer>
		<layer id="57" name="__module.blocks.23.attn.rope/aten::reshape/Reshape" type="Reshape" version="opset1">
			<data special_zero="true" />
			<input>
				<port id="0" precision="FP32">
					<dim>-1</dim>
					<dim>16</dim>
					<dim>1296</dim>
					<dim>64</dim>
				</port>
				<port id="1" precision="I64">
					<dim>5</dim>
				</port>
			</input>
			<output>
				<port id="2" precision="FP32" names="210,x.11">
					<dim>-1</dim>
					<dim>16</dim>
					<dim>1296</dim>
					<dim>32</dim>
					<dim>2</dim>
				</port>
			</output>
		</layer>
		<layer id="58" name="144" type="Const" version="opset1">
			<data element_type="i64" shape="" offset="6133936" size="8" />
			<output>
				<port id="0" precision="I64" names="144" />
			</output>
		</layer>
		<layer id="59" name="__module.blocks.23.attn.rope/prim::ListUnpack/Split" type="Split" version="opset1">
			<data num_splits="2" />
			<input>
				<port id="0" precision="FP32">
					<dim>-1</dim>
					<dim>16</dim>
					<dim>1296</dim>
					<dim>32</dim>
					<dim>2</dim>
				</port>
				<port id="1" precision="I64" />
			</input>
			<output>
				<port id="2" precision="FP32">
					<dim>-1</dim>
					<dim>16</dim>
					<dim>1296</dim>
					<dim>32</dim>
					<dim>1</dim>
				</port>
				<port id="3" precision="FP32">
					<dim>-1</dim>
					<dim>16</dim>
					<dim>1296</dim>
					<dim>32</dim>
					<dim>1</dim>
				</port>
			</output>
		</layer>
		<layer id="60" name="__module.blocks.23.attn.rope/prim::ListUnpack/Squeeze_0" type="Squeeze" version="opset1">
			<input>
				<port id="0" precision="FP32">
					<dim>-1</dim>
					<dim>16</dim>
					<dim>1296</dim>
					<dim>32</dim>
					<dim>1</dim>
				</port>
				<port id="1" precision="I64" />
			</input>
			<output>
				<port id="2" precision="FP32" names="213,x2.1">
					<dim>-1</dim>
					<dim>16</dim>
					<dim>1296</dim>
					<dim>32</dim>
				</port>
			</output>
		</layer>
		<layer id="61" name="Constant_905598_compressed" type="Const" version="opset1">
			<data element_type="f16" shape="1, 1, 1, 1" offset="6133944" size="2" />
			<output>
				<port id="0" precision="FP16">
					<dim>1</dim>
					<dim>1</dim>
					<dim>1</dim>
					<dim>1</dim>
				</port>
			</output>
		</layer>
		<layer id="62" name="Constant_905598" type="Convert" version="opset1">
			<data destination_type="f32" />
			<rt_info>
				<attribute name="decompression" version="0" />
			</rt_info>
			<input>
				<port id="0" precision="FP16">
					<dim>1</dim>
					<dim>1</dim>
					<dim>1</dim>
					<dim>1</dim>
				</port>
			</input>
			<output>
				<port id="1" precision="FP32">
					<dim>1</dim>
					<dim>1</dim>
					<dim>1</dim>
					<dim>1</dim>
				</port>
			</output>
		</layer>
		<layer id="63" name="__module.blocks.23.attn.rope/aten::neg/Multiply" type="Multiply" version="opset1">
			<data auto_broadcast="numpy" />
			<input>
				<port id="0" precision="FP32">
					<dim>-1</dim>
					<dim>16</dim>
					<dim>1296</dim>
					<dim>32</dim>
				</port>
				<port id="1" precision="FP32">
					<dim>1</dim>
					<dim>1</dim>
					<dim>1</dim>
					<dim>1</dim>
				</port>
			</input>
			<output>
				<port id="2" precision="FP32" names="214">
					<dim>-1</dim>
					<dim>16</dim>
					<dim>1296</dim>
					<dim>32</dim>
				</port>
			</output>
		</layer>
		<layer id="64" name="Unsqueeze_737060" type="Unsqueeze" version="opset1">
			<input>
				<port id="0" precision="FP32">
					<dim>-1</dim>
					<dim>16</dim>
					<dim>1296</dim>
					<dim>32</dim>
				</port>
				<port id="1" precision="I64" />
			</input>
			<output>
				<port id="2" precision="FP32">
					<dim>-1</dim>
					<dim>16</dim>
					<dim>1296</dim>
					<dim>32</dim>
					<dim>1</dim>
				</port>
			</output>
		</layer>
		<layer id="65" name="__module.blocks.23.attn.rope/prim::ListUnpack/Squeeze" type="Squeeze" version="opset1">
			<input>
				<port id="0" precision="FP32">
					<dim>-1</dim>
					<dim>16</dim>
					<dim>1296</dim>
					<dim>32</dim>
					<dim>1</dim>
				</port>
				<port id="1" precision="I64" />
			</input>
			<output>
				<port id="2" precision="FP32" names="212,x1.1">
					<dim>-1</dim>
					<dim>16</dim>
					<dim>1296</dim>
					<dim>32</dim>
				</port>
			</output>
		</layer>
		<layer id="66" name="Unsqueeze_737061" type="Unsqueeze" version="opset1">
			<input>
				<port id="0" precision="FP32">
					<dim>-1</dim>
					<dim>16</dim>
					<dim>1296</dim>
					<dim>32</dim>
				</port>
				<port id="1" precision="I64" />
			</input>
			<output>
				<port id="2" precision="FP32">
					<dim>-1</dim>
					<dim>16</dim>
					<dim>1296</dim>
					<dim>32</dim>
					<dim>1</dim>
				</port>
			</output>
		</layer>
		<layer id="67" name="__module.blocks.23.attn.rope/aten::stack" type="Concat" version="opset1">
			<data axis="-1" />
			<input>
				<port id="0" precision="FP32">
					<dim>-1</dim>
					<dim>16</dim>
					<dim>1296</dim>
					<dim>32</dim>
					<dim>1</dim>
				</port>
				<port id="1" precision="FP32">
					<dim>-1</dim>
					<dim>16</dim>
					<dim>1296</dim>
					<dim>32</dim>
					<dim>1</dim>
				</port>
			</input>
			<output>
				<port id="2" precision="FP32" names="216,x.13">
					<dim>-1</dim>
					<dim>16</dim>
					<dim>1296</dim>
					<dim>32</dim>
					<dim>2</dim>
				</port>
			</output>
		</layer>
		<layer id="68" name="Constant_909562" type="Const" version="opset1">
			<data element_type="i64" shape="4" offset="6133946" size="32" />
			<rt_info>
				<attribute name="precise" version="0" />
			</rt_info>
			<output>
				<port id="0" precision="I64">
					<dim>4</dim>
				</port>
			</output>
		</layer>
		<layer id="69" name="__module.blocks.23.attn.rope/aten::reshape/Reshape_1" type="Reshape" version="opset1">
			<data special_zero="true" />
			<input>
				<port id="0" precision="FP32">
					<dim>-1</dim>
					<dim>16</dim>
					<dim>1296</dim>
					<dim>32</dim>
					<dim>2</dim>
				</port>
				<port id="1" precision="I64">
					<dim>4</dim>
				</port>
			</input>
			<output>
				<port id="2" precision="FP32" names="237">
					<dim>-1</dim>
					<dim>16</dim>
					<dim>1296</dim>
					<dim>64</dim>
				</port>
			</output>
		</layer>
		<layer id="70" name="Constant_905599_compressed" type="Const" version="opset1">
			<data element_type="f16" shape="1, 1, 1296, 64" offset="6133978" size="165888" />
			<output>
				<port id="0" precision="FP16">
					<dim>1</dim>
					<dim>1</dim>
					<dim>1296</dim>
					<dim>64</dim>
				</port>
			</output>
		</layer>
		<layer id="71" name="Constant_905599" type="Convert" version="opset1">
			<data destination_type="f32" />
			<rt_info>
				<attribute name="decompression" version="0" />
			</rt_info>
			<input>
				<port id="0" precision="FP16">
					<dim>1</dim>
					<dim>1</dim>
					<dim>1296</dim>
					<dim>64</dim>
				</port>
			</input>
			<output>
				<port id="1" precision="FP32">
					<dim>1</dim>
					<dim>1</dim>
					<dim>1296</dim>
					<dim>64</dim>
				</port>
			</output>
		</layer>
		<layer id="72" name="__module.blocks.23.attn.rope/aten::mul/Multiply_5" type="Multiply" version="opset1">
			<data auto_broadcast="numpy" />
			<input>
				<port id="0" precision="FP32">
					<dim>-1</dim>
					<dim>16</dim>
					<dim>1296</dim>
					<dim>64</dim>
				</port>
				<port id="1" precision="FP32">
					<dim>1</dim>
					<dim>1</dim>
					<dim>1296</dim>
					<dim>64</dim>
				</port>
			</input>
			<output>
				<port id="2" precision="FP32" names="238">
					<dim>-1</dim>
					<dim>16</dim>
					<dim>1296</dim>
					<dim>64</dim>
				</port>
			</output>
		</layer>
		<layer id="73" name="__module.blocks.23.attn.rope/aten::add/Add" type="Add" version="opset1">
			<data auto_broadcast="numpy" />
			<input>
				<port id="0" precision="FP32">
					<dim>-1</dim>
					<dim>16</dim>
					<dim>1296</dim>
					<dim>64</dim>
				</port>
				<port id="1" precision="FP32">
					<dim>-1</dim>
					<dim>16</dim>
					<dim>1296</dim>
					<dim>64</dim>
				</port>
			</input>
			<output>
				<port id="2" precision="FP32" names="239,ro_q_t.1">
					<dim>-1</dim>
					<dim>16</dim>
					<dim>1296</dim>
					<dim>64</dim>
				</port>
			</output>
		</layer>
		<layer id="74" name="__module.blocks.0.attn/aten::cat/Concat" type="Concat" version="opset1">
			<data axis="-2" />
			<input>
				<port id="0" precision="FP32">
					<dim>-1</dim>
					<dim>16</dim>
					<dim>1</dim>
					<dim>64</dim>
				</port>
				<port id="1" precision="FP32">
					<dim>-1</dim>
					<dim>16</dim>
					<dim>1296</dim>
					<dim>64</dim>
				</port>
			</input>
			<output>
				<port id="2" precision="FP32" names="245,246,q.5">
					<dim>-1</dim>
					<dim>16</dim>
					<dim>1297</dim>
					<dim>64</dim>
				</port>
			</output>
		</layer>
		<layer id="75" name="Constant_905600_compressed" type="Const" version="opset1">
			<data element_type="f16" shape="1, 1, 1, 1" offset="6299866" size="2" />
			<output>
				<port id="0" precision="FP16">
					<dim>1</dim>
					<dim>1</dim>
					<dim>1</dim>
					<dim>1</dim>
				</port>
			</output>
		</layer>
		<layer id="76" name="Constant_905600" type="Convert" version="opset1">
			<data destination_type="f32" />
			<rt_info>
				<attribute name="decompression" version="0" />
			</rt_info>
			<input>
				<port id="0" precision="FP16">
					<dim>1</dim>
					<dim>1</dim>
					<dim>1</dim>
					<dim>1</dim>
				</port>
			</input>
			<output>
				<port id="1" precision="FP32">
					<dim>1</dim>
					<dim>1</dim>
					<dim>1</dim>
					<dim>1</dim>
				</port>
			</output>
		</layer>
		<layer id="77" name="__module.blocks.0.attn/aten::mul/Multiply" type="Multiply" version="opset1">
			<data auto_broadcast="numpy" />
			<input>
				<port id="0" precision="FP32">
					<dim>-1</dim>
					<dim>16</dim>
					<dim>1297</dim>
					<dim>64</dim>
				</port>
				<port id="1" precision="FP32">
					<dim>1</dim>
					<dim>1</dim>
					<dim>1</dim>
					<dim>1</dim>
				</port>
			</input>
			<output>
				<port id="2" precision="FP32" names="297,q.7">
					<dim>-1</dim>
					<dim>16</dim>
					<dim>1297</dim>
					<dim>64</dim>
				</port>
			</output>
		</layer>
		<layer id="78" name="self.blocks.0.attn.k_proj.weight_compressed" type="Const" version="opset1">
			<data element_type="f16" shape="1024, 1024" offset="6299868" size="2097152" />
			<output>
				<port id="0" precision="FP16" names="self.blocks.0.attn.k_proj.weight">
					<dim>1024</dim>
					<dim>1024</dim>
				</port>
			</output>
		</layer>
		<layer id="79" name="self.blocks.0.attn.k_proj.weight" type="Convert" version="opset1">
			<data destination_type="f32" />
			<rt_info>
				<attribute name="decompression" version="0" />
			</rt_info>
			<input>
				<port id="0" precision="FP16">
					<dim>1024</dim>
					<dim>1024</dim>
				</port>
			</input>
			<output>
				<port id="1" precision="FP32">
					<dim>1024</dim>
					<dim>1024</dim>
				</port>
			</output>
		</layer>
		<layer id="80" name="__module.blocks.0.attn/aten::linear/MatMul_1" type="MatMul" version="opset1">
			<data transpose_a="false" transpose_b="true" />
			<input>
				<port id="0" precision="FP32">
					<dim>-1</dim>
					<dim>1297</dim>
					<dim>1024</dim>
				</port>
				<port id="1" precision="FP32">
					<dim>1024</dim>
					<dim>1024</dim>
				</port>
			</input>
			<output>
				<port id="2" precision="FP32" names="183,k.1">
					<dim>-1</dim>
					<dim>1297</dim>
					<dim>1024</dim>
				</port>
			</output>
		</layer>
		<layer id="81" name="Constant_909563" type="Const" version="opset1">
			<data element_type="i64" shape="4" offset="5967928" size="32" />
			<rt_info>
				<attribute name="precise" version="0" />
			</rt_info>
			<output>
				<port id="0" precision="I64">
					<dim>4</dim>
				</port>
			</output>
		</layer>
		<layer id="82" name="__module.blocks.0.attn/aten::reshape/Reshape_1" type="Reshape" version="opset1">
			<data special_zero="true" />
			<input>
				<port id="0" precision="FP32">
					<dim>-1</dim>
					<dim>1297</dim>
					<dim>1024</dim>
				</port>
				<port id="1" precision="I64">
					<dim>4</dim>
				</port>
			</input>
			<output>
				<port id="2" precision="FP32" names="190">
					<dim>-1</dim>
					<dim>1297</dim>
					<dim>16</dim>
					<dim>64</dim>
				</port>
			</output>
		</layer>
		<layer id="83" name="Constant_682956" type="Const" version="opset1">
			<data element_type="i64" shape="4" offset="5967960" size="32" />
			<output>
				<port id="0" precision="I64" names="191">
					<dim>4</dim>
				</port>
			</output>
		</layer>
		<layer id="84" name="__module.blocks.0.attn/aten::permute/Transpose_1" type="Transpose" version="opset1">
			<input>
				<port id="0" precision="FP32">
					<dim>-1</dim>
					<dim>1297</dim>
					<dim>16</dim>
					<dim>64</dim>
				</port>
				<port id="1" precision="I64">
					<dim>4</dim>
				</port>
			</input>
			<output>
				<port id="2" precision="FP32" names="192,247,248,290,291,k.3">
					<dim>-1</dim>
					<dim>16</dim>
					<dim>1297</dim>
					<dim>64</dim>
				</port>
			</output>
		</layer>
		<layer id="85" name="Constant_684837" type="Const" version="opset1">
			<data element_type="i64" shape="1" offset="1208320" size="8" />
			<output>
				<port id="0" precision="I64">
					<dim>1</dim>
				</port>
			</output>
		</layer>
		<layer id="86" name="Constant_684839" type="Const" version="opset1">
			<data element_type="i64" shape="1" offset="1208328" size="8" />
			<output>
				<port id="0" precision="I64">
					<dim>1</dim>
				</port>
			</output>
		</layer>
		<layer id="87" name="Constant_684841" type="Const" version="opset1">
			<data element_type="i64" shape="1" offset="1208328" size="8" />
			<output>
				<port id="0" precision="I64">
					<dim>1</dim>
				</port>
			</output>
		</layer>
		<layer id="88" name="Constant_684835" type="Const" version="opset1">
			<data element_type="i64" shape="1" offset="5967992" size="8" />
			<output>
				<port id="0" precision="I64">
					<dim>1</dim>
				</port>
			</output>
		</layer>
		<layer id="89" name="__module.blocks.0.attn/aten::slice/Slice_10" type="Slice" version="opset8">
			<input>
				<port id="0" precision="FP32">
					<dim>-1</dim>
					<dim>16</dim>
					<dim>1297</dim>
					<dim>64</dim>
				</port>
				<port id="1" precision="I64">
					<dim>1</dim>
				</port>
				<port id="2" precision="I64">
					<dim>1</dim>
				</port>
				<port id="3" precision="I64">
					<dim>1</dim>
				</port>
				<port id="4" precision="I64">
					<dim>1</dim>
				</port>
			</input>
			<output>
				<port id="5" precision="FP32" names="292,293">
					<dim>-1</dim>
					<dim>16</dim>
					<dim>1</dim>
					<dim>64</dim>
				</port>
			</output>
		</layer>
		<layer id="90" name="Constant_683945" type="Const" version="opset1">
			<data element_type="i64" shape="1" offset="1208328" size="8" />
			<output>
				<port id="0" precision="I64">
					<dim>1</dim>
				</port>
			</output>
		</layer>
		<layer id="91" name="Constant_683947" type="Const" version="opset1">
			<data element_type="i64" shape="1" offset="5968000" size="8" />
			<output>
				<port id="0" precision="I64">
					<dim>1</dim>
				</port>
			</output>
		</layer>
		<layer id="92" name="Constant_683949" type="Const" version="opset1">
			<data element_type="i64" shape="1" offset="1208328" size="8" />
			<output>
				<port id="0" precision="I64">
					<dim>1</dim>
				</port>
			</output>
		</layer>
		<layer id="93" name="Constant_683943" type="Const" version="opset1">
			<data element_type="i64" shape="1" offset="5967992" size="8" />
			<output>
				<port id="0" precision="I64">
					<dim>1</dim>
				</port>
			</output>
		</layer>
		<layer id="94" name="__module.blocks.0.attn/aten::slice/Slice_14" type="Slice" version="opset8">
			<input>
				<port id="0" precision="FP32">
					<dim>-1</dim>
					<dim>16</dim>
					<dim>1297</dim>
					<dim>64</dim>
				</port>
				<port id="1" precision="I64">
					<dim>1</dim>
				</port>
				<port id="2" precision="I64">
					<dim>1</dim>
				</port>
				<port id="3" precision="I64">
					<dim>1</dim>
				</port>
				<port id="4" precision="I64">
					<dim>1</dim>
				</port>
			</input>
			<output>
				<port id="5" precision="FP32" names="249,250,t.3">
					<dim>-1</dim>
					<dim>16</dim>
					<dim>1296</dim>
					<dim>64</dim>
				</port>
			</output>
		</layer>
		<layer id="95" name="Constant_905601_compressed" type="Const" version="opset1">
			<data element_type="f16" shape="1, 1, 1296, 64" offset="5968008" size="165888" />
			<output>
				<port id="0" precision="FP16">
					<dim>1</dim>
					<dim>1</dim>
					<dim>1296</dim>
					<dim>64</dim>
				</port>
			</output>
		</layer>
		<layer id="96" name="Constant_905601" type="Convert" version="opset1">
			<data destination_type="f32" />
			<rt_info>
				<attribute name="decompression" version="0" />
			</rt_info>
			<input>
				<port id="0" precision="FP16">
					<dim>1</dim>
					<dim>1</dim>
					<dim>1296</dim>
					<dim>64</dim>
				</port>
			</input>
			<output>
				<port id="1" precision="FP32">
					<dim>1</dim>
					<dim>1</dim>
					<dim>1296</dim>
					<dim>64</dim>
				</port>
			</output>
		</layer>
		<layer id="97" name="__module.blocks.23.attn.rope/aten::mul/Multiply_6" type="Multiply" version="opset1">
			<data auto_broadcast="numpy" />
			<input>
				<port id="0" precision="FP32">
					<dim>-1</dim>
					<dim>16</dim>
					<dim>1296</dim>
					<dim>64</dim>
				</port>
				<port id="1" precision="FP32">
					<dim>1</dim>
					<dim>1</dim>
					<dim>1296</dim>
					<dim>64</dim>
				</port>
			</input>
			<output>
				<port id="2" precision="FP32" names="251">
					<dim>-1</dim>
					<dim>16</dim>
					<dim>1296</dim>
					<dim>64</dim>
				</port>
			</output>
		</layer>
		<layer id="98" name="Constant_909564" type="Const" version="opset1">
			<data element_type="i64" shape="5" offset="6133896" size="40" />
			<rt_info>
				<attribute name="precise" version="0" />
			</rt_info>
			<output>
				<port id="0" precision="I64">
					<dim>5</dim>
				</port>
			</output>
		</layer>
		<layer id="99" name="__module.blocks.23.attn.rope/aten::reshape/Reshape_2" type="Reshape" version="opset1">
			<data special_zero="true" />
			<input>
				<port id="0" precision="FP32">
					<dim>-1</dim>
					<dim>16</dim>
					<dim>1296</dim>
					<dim>64</dim>
				</port>
				<port id="1" precision="I64">
					<dim>5</dim>
				</port>
			</input>
			<output>
				<port id="2" precision="FP32" names="260,x.15">
					<dim>-1</dim>
					<dim>16</dim>
					<dim>1296</dim>
					<dim>32</dim>
					<dim>2</dim>
				</port>
			</output>
		</layer>
		<layer id="100" name="__module.blocks.23.attn.rope/prim::ListUnpack/Split_1" type="Split" version="opset1">
			<data num_splits="2" />
			<input>
				<port id="0" precision="FP32">
					<dim>-1</dim>
					<dim>16</dim>
					<dim>1296</dim>
					<dim>32</dim>
					<dim>2</dim>
				</port>
				<port id="1" precision="I64" />
			</input>
			<output>
				<port id="2" precision="FP32">
					<dim>-1</dim>
					<dim>16</dim>
					<dim>1296</dim>
					<dim>32</dim>
					<dim>1</dim>
				</port>
				<port id="3" precision="FP32">
					<dim>-1</dim>
					<dim>16</dim>
					<dim>1296</dim>
					<dim>32</dim>
					<dim>1</dim>
				</port>
			</output>
		</layer>
		<layer id="101" name="__module.blocks.23.attn.rope/prim::ListUnpack/Squeeze_0_1" type="Squeeze" version="opset1">
			<input>
				<port id="0" precision="FP32">
					<dim>-1</dim>
					<dim>16</dim>
					<dim>1296</dim>
					<dim>32</dim>
					<dim>1</dim>
				</port>
				<port id="1" precision="I64" />
			</input>
			<output>
				<port id="2" precision="FP32" names="263,x2.3">
					<dim>-1</dim>
					<dim>16</dim>
					<dim>1296</dim>
					<dim>32</dim>
				</port>
			</output>
		</layer>
		<layer id="102" name="Constant_905602_compressed" type="Const" version="opset1">
			<data element_type="f16" shape="1, 1, 1, 1" offset="6133944" size="2" />
			<output>
				<port id="0" precision="FP16">
					<dim>1</dim>
					<dim>1</dim>
					<dim>1</dim>
					<dim>1</dim>
				</port>
			</output>
		</layer>
		<layer id="103" name="Constant_905602" type="Convert" version="opset1">
			<data destination_type="f32" />
			<rt_info>
				<attribute name="decompression" version="0" />
			</rt_info>
			<input>
				<port id="0" precision="FP16">
					<dim>1</dim>
					<dim>1</dim>
					<dim>1</dim>
					<dim>1</dim>
				</port>
			</input>
			<output>
				<port id="1" precision="FP32">
					<dim>1</dim>
					<dim>1</dim>
					<dim>1</dim>
					<dim>1</dim>
				</port>
			</output>
		</layer>
		<layer id="104" name="__module.blocks.23.attn.rope/aten::neg/Multiply_1" type="Multiply" version="opset1">
			<data auto_broadcast="numpy" />
			<input>
				<port id="0" precision="FP32">
					<dim>-1</dim>
					<dim>16</dim>
					<dim>1296</dim>
					<dim>32</dim>
				</port>
				<port id="1" precision="FP32">
					<dim>1</dim>
					<dim>1</dim>
					<dim>1</dim>
					<dim>1</dim>
				</port>
			</input>
			<output>
				<port id="2" precision="FP32" names="264">
					<dim>-1</dim>
					<dim>16</dim>
					<dim>1296</dim>
					<dim>32</dim>
				</port>
			</output>
		</layer>
		<layer id="105" name="Unsqueeze_737063" type="Unsqueeze" version="opset1">
			<input>
				<port id="0" precision="FP32">
					<dim>-1</dim>
					<dim>16</dim>
					<dim>1296</dim>
					<dim>32</dim>
				</port>
				<port id="1" precision="I64" />
			</input>
			<output>
				<port id="2" precision="FP32">
					<dim>-1</dim>
					<dim>16</dim>
					<dim>1296</dim>
					<dim>32</dim>
					<dim>1</dim>
				</port>
			</output>
		</layer>
		<layer id="106" name="__module.blocks.23.attn.rope/prim::ListUnpack/Squeeze_1" type="Squeeze" version="opset1">
			<input>
				<port id="0" precision="FP32">
					<dim>-1</dim>
					<dim>16</dim>
					<dim>1296</dim>
					<dim>32</dim>
					<dim>1</dim>
				</port>
				<port id="1" precision="I64" />
			</input>
			<output>
				<port id="2" precision="FP32" names="262,x1.3">
					<dim>-1</dim>
					<dim>16</dim>
					<dim>1296</dim>
					<dim>32</dim>
				</port>
			</output>
		</layer>
		<layer id="107" name="Unsqueeze_737064" type="Unsqueeze" version="opset1">
			<input>
				<port id="0" precision="FP32">
					<dim>-1</dim>
					<dim>16</dim>
					<dim>1296</dim>
					<dim>32</dim>
				</port>
				<port id="1" precision="I64" />
			</input>
			<output>
				<port id="2" precision="FP32">
					<dim>-1</dim>
					<dim>16</dim>
					<dim>1296</dim>
					<dim>32</dim>
					<dim>1</dim>
				</port>
			</output>
		</layer>
		<layer id="108" name="__module.blocks.23.attn.rope/aten::stack_1" type="Concat" version="opset1">
			<data axis="-1" />
			<input>
				<port id="0" precision="FP32">
					<dim>-1</dim>
					<dim>16</dim>
					<dim>1296</dim>
					<dim>32</dim>
					<dim>1</dim>
				</port>
				<port id="1" precision="FP32">
					<dim>-1</dim>
					<dim>16</dim>
					<dim>1296</dim>
					<dim>32</dim>
					<dim>1</dim>
				</port>
			</input>
			<output>
				<port id="2" precision="FP32" names="266,x.17">
					<dim>-1</dim>
					<dim>16</dim>
					<dim>1296</dim>
					<dim>32</dim>
					<dim>2</dim>
				</port>
			</output>
		</layer>
		<layer id="109" name="Constant_909565" type="Const" version="opset1">
			<data element_type="i64" shape="4" offset="6133946" size="32" />
			<rt_info>
				<attribute name="precise" version="0" />
			</rt_info>
			<output>
				<port id="0" precision="I64">
					<dim>4</dim>
				</port>
			</output>
		</layer>
		<layer id="110" name="__module.blocks.23.attn.rope/aten::reshape/Reshape_3" type="Reshape" version="opset1">
			<data special_zero="true" />
			<input>
				<port id="0" precision="FP32">
					<dim>-1</dim>
					<dim>16</dim>
					<dim>1296</dim>
					<dim>32</dim>
					<dim>2</dim>
				</port>
				<port id="1" precision="I64">
					<dim>4</dim>
				</port>
			</input>
			<output>
				<port id="2" precision="FP32" names="287">
					<dim>-1</dim>
					<dim>16</dim>
					<dim>1296</dim>
					<dim>64</dim>
				</port>
			</output>
		</layer>
		<layer id="111" name="Constant_905603_compressed" type="Const" version="opset1">
			<data element_type="f16" shape="1, 1, 1296, 64" offset="6133978" size="165888" />
			<output>
				<port id="0" precision="FP16">
					<dim>1</dim>
					<dim>1</dim>
					<dim>1296</dim>
					<dim>64</dim>
				</port>
			</output>
		</layer>
		<layer id="112" name="Constant_905603" type="Convert" version="opset1">
			<data destination_type="f32" />
			<rt_info>
				<attribute name="decompression" version="0" />
			</rt_info>
			<input>
				<port id="0" precision="FP16">
					<dim>1</dim>
					<dim>1</dim>
					<dim>1296</dim>
					<dim>64</dim>
				</port>
			</input>
			<output>
				<port id="1" precision="FP32">
					<dim>1</dim>
					<dim>1</dim>
					<dim>1296</dim>
					<dim>64</dim>
				</port>
			</output>
		</layer>
		<layer id="113" name="__module.blocks.23.attn.rope/aten::mul/Multiply_11" type="Multiply" version="opset1">
			<data auto_broadcast="numpy" />
			<input>
				<port id="0" precision="FP32">
					<dim>-1</dim>
					<dim>16</dim>
					<dim>1296</dim>
					<dim>64</dim>
				</port>
				<port id="1" precision="FP32">
					<dim>1</dim>
					<dim>1</dim>
					<dim>1296</dim>
					<dim>64</dim>
				</port>
			</input>
			<output>
				<port id="2" precision="FP32" names="288">
					<dim>-1</dim>
					<dim>16</dim>
					<dim>1296</dim>
					<dim>64</dim>
				</port>
			</output>
		</layer>
		<layer id="114" name="__module.blocks.23.attn.rope/aten::add/Add_1" type="Add" version="opset1">
			<data auto_broadcast="numpy" />
			<input>
				<port id="0" precision="FP32">
					<dim>-1</dim>
					<dim>16</dim>
					<dim>1296</dim>
					<dim>64</dim>
				</port>
				<port id="1" precision="FP32">
					<dim>-1</dim>
					<dim>16</dim>
					<dim>1296</dim>
					<dim>64</dim>
				</port>
			</input>
			<output>
				<port id="2" precision="FP32" names="289,ro_k_t.1">
					<dim>-1</dim>
					<dim>16</dim>
					<dim>1296</dim>
					<dim>64</dim>
				</port>
			</output>
		</layer>
		<layer id="115" name="__module.blocks.0.attn/aten::cat/Concat_1" type="Concat" version="opset1">
			<data axis="-2" />
			<input>
				<port id="0" precision="FP32">
					<dim>-1</dim>
					<dim>16</dim>
					<dim>1</dim>
					<dim>64</dim>
				</port>
				<port id="1" precision="FP32">
					<dim>-1</dim>
					<dim>16</dim>
					<dim>1296</dim>
					<dim>64</dim>
				</port>
			</input>
			<output>
				<port id="2" precision="FP32" names="295,296,k.5">
					<dim>-1</dim>
					<dim>16</dim>
					<dim>1297</dim>
					<dim>64</dim>
				</port>
			</output>
		</layer>
		<layer id="116" name="self.blocks.0.attn.v_proj.weight_compressed" type="Const" version="opset1">
			<data element_type="f16" shape="1024, 1024" offset="8397020" size="2097152" />
			<output>
				<port id="0" precision="FP16" names="self.blocks.0.attn.v_proj.weight">
					<dim>1024</dim>
					<dim>1024</dim>
				</port>
			</output>
		</layer>
		<layer id="117" name="self.blocks.0.attn.v_proj.weight" type="Convert" version="opset1">
			<data destination_type="f32" />
			<rt_info>
				<attribute name="decompression" version="0" />
			</rt_info>
			<input>
				<port id="0" precision="FP16">
					<dim>1024</dim>
					<dim>1024</dim>
				</port>
			</input>
			<output>
				<port id="1" precision="FP32">
					<dim>1024</dim>
					<dim>1024</dim>
				</port>
			</output>
		</layer>
		<layer id="118" name="__module.blocks.0.attn/aten::linear/MatMul_2" type="MatMul" version="opset1">
			<data transpose_a="false" transpose_b="true" />
			<input>
				<port id="0" precision="FP32">
					<dim>-1</dim>
					<dim>1297</dim>
					<dim>1024</dim>
				</port>
				<port id="1" precision="FP32">
					<dim>1024</dim>
					<dim>1024</dim>
				</port>
			</input>
			<output>
				<port id="2" precision="FP32">
					<dim>-1</dim>
					<dim>1297</dim>
					<dim>1024</dim>
				</port>
			</output>
		</layer>
		<layer id="119" name="Constant_905604_compressed" type="Const" version="opset1">
			<data element_type="f16" shape="1, 1, 1024" offset="10494172" size="2048" />
			<output>
				<port id="0" precision="FP16">
					<dim>1</dim>
					<dim>1</dim>
					<dim>1024</dim>
				</port>
			</output>
		</layer>
		<layer id="120" name="Constant_905604" type="Convert" version="opset1">
			<data destination_type="f32" />
			<rt_info>
				<attribute name="decompression" version="0" />
			</rt_info>
			<input>
				<port id="0" precision="FP16">
					<dim>1</dim>
					<dim>1</dim>
					<dim>1024</dim>
				</port>
			</input>
			<output>
				<port id="1" precision="FP32">
					<dim>1</dim>
					<dim>1</dim>
					<dim>1024</dim>
				</port>
			</output>
		</layer>
		<layer id="121" name="__module.blocks.0.attn/aten::linear/Add_1" type="Add" version="opset1">
			<data auto_broadcast="numpy" />
			<input>
				<port id="0" precision="FP32">
					<dim>-1</dim>
					<dim>1297</dim>
					<dim>1024</dim>
				</port>
				<port id="1" precision="FP32">
					<dim>1</dim>
					<dim>1</dim>
					<dim>1024</dim>
				</port>
			</input>
			<output>
				<port id="2" precision="FP32" names="184,v.1">
					<dim>-1</dim>
					<dim>1297</dim>
					<dim>1024</dim>
				</port>
			</output>
		</layer>
		<layer id="122" name="Constant_909566" type="Const" version="opset1">
			<data element_type="i64" shape="4" offset="5967928" size="32" />
			<rt_info>
				<attribute name="precise" version="0" />
			</rt_info>
			<output>
				<port id="0" precision="I64">
					<dim>4</dim>
				</port>
			</output>
		</layer>
		<layer id="123" name="__module.blocks.0.attn/aten::reshape/Reshape_2" type="Reshape" version="opset1">
			<data special_zero="true" />
			<input>
				<port id="0" precision="FP32">
					<dim>-1</dim>
					<dim>1297</dim>
					<dim>1024</dim>
				</port>
				<port id="1" precision="I64">
					<dim>4</dim>
				</port>
			</input>
			<output>
				<port id="2" precision="FP32" names="194">
					<dim>-1</dim>
					<dim>1297</dim>
					<dim>16</dim>
					<dim>64</dim>
				</port>
			</output>
		</layer>
		<layer id="124" name="Constant_682979" type="Const" version="opset1">
			<data element_type="i64" shape="4" offset="5967960" size="32" />
			<output>
				<port id="0" precision="I64" names="195">
					<dim>4</dim>
				</port>
			</output>
		</layer>
		<layer id="125" name="__module.blocks.0.attn/aten::permute/Transpose_2" type="Transpose" version="opset1">
			<input>
				<port id="0" precision="FP32">
					<dim>-1</dim>
					<dim>1297</dim>
					<dim>16</dim>
					<dim>64</dim>
				</port>
				<port id="1" precision="I64">
					<dim>4</dim>
				</port>
			</input>
			<output>
				<port id="2" precision="FP32" names="196,v.3">
					<dim>-1</dim>
					<dim>16</dim>
					<dim>1297</dim>
					<dim>64</dim>
				</port>
			</output>
		</layer>
		<layer id="126" name="Constant_903157_compressed" type="Const" version="opset1">
			<data element_type="f16" shape="" offset="10496220" size="2" />
			<output>
				<port id="0" precision="FP16" />
			</output>
		</layer>
		<layer id="127" name="Constant_903157" type="Convert" version="opset1">
			<data destination_type="f32" />
			<rt_info>
				<attribute name="decompression" version="0" />
			</rt_info>
			<input>
				<port id="0" precision="FP16" />
			</input>
			<output>
				<port id="1" precision="FP32" />
			</output>
		</layer>
		<layer id="128" name="Constant_903158_compressed" type="Const" version="opset1">
			<data element_type="f16" shape="" offset="10496222" size="2" />
			<output>
				<port id="0" precision="FP16" />
			</output>
		</layer>
		<layer id="129" name="Constant_903158" type="Convert" version="opset1">
			<data destination_type="f32" />
			<rt_info>
				<attribute name="decompression" version="0" />
			</rt_info>
			<input>
				<port id="0" precision="FP16" />
			</input>
			<output>
				<port id="1" precision="FP32" />
			</output>
		</layer>
		<layer id="130" name="__module.blocks.0.attn/aten::matmul/MatMul_1" type="ScaledDotProductAttention" version="opset13">
			<data causal="false" />
			<input>
				<port id="0" precision="FP32">
					<dim>-1</dim>
					<dim>16</dim>
					<dim>1297</dim>
					<dim>64</dim>
				</port>
				<port id="1" precision="FP32">
					<dim>-1</dim>
					<dim>16</dim>
					<dim>1297</dim>
					<dim>64</dim>
				</port>
				<port id="2" precision="FP32">
					<dim>-1</dim>
					<dim>16</dim>
					<dim>1297</dim>
					<dim>64</dim>
				</port>
				<port id="3" precision="FP32" />
				<port id="4" precision="FP32" />
			</input>
			<output>
				<port id="5" precision="FP32" names="302">
					<dim>-1</dim>
					<dim>16</dim>
					<dim>1297</dim>
					<dim>64</dim>
				</port>
			</output>
		</layer>
		<layer id="131" name="__module.blocks.0.attn/aten::transpose/Constant_1" type="Const" version="opset1">
			<data element_type="i32" shape="4" offset="10496224" size="16" />
			<output>
				<port id="0" precision="I32">
					<dim>4</dim>
				</port>
			</output>
		</layer>
		<layer id="132" name="__module.blocks.0.attn/aten::transpose/Transpose_1" type="Transpose" version="opset1">
			<input>
				<port id="0" precision="FP32">
					<dim>-1</dim>
					<dim>16</dim>
					<dim>1297</dim>
					<dim>64</dim>
				</port>
				<port id="1" precision="I32">
					<dim>4</dim>
				</port>
			</input>
			<output>
				<port id="2" precision="FP32" names="303">
					<dim>-1</dim>
					<dim>1297</dim>
					<dim>16</dim>
					<dim>64</dim>
				</port>
			</output>
		</layer>
		<layer id="133" name="Constant_909567" type="Const" version="opset1">
			<data element_type="i64" shape="3" offset="10496240" size="24" />
			<rt_info>
				<attribute name="precise" version="0" />
			</rt_info>
			<output>
				<port id="0" precision="I64">
					<dim>3</dim>
				</port>
			</output>
		</layer>
		<layer id="134" name="__module.blocks.0.attn/aten::reshape/Reshape_3" type="Reshape" version="opset1">
			<data special_zero="true" />
			<input>
				<port id="0" precision="FP32">
					<dim>-1</dim>
					<dim>1297</dim>
					<dim>16</dim>
					<dim>64</dim>
				</port>
				<port id="1" precision="I64">
					<dim>3</dim>
				</port>
			</input>
			<output>
				<port id="2" precision="FP32" names="305,input.9">
					<dim>-1</dim>
					<dim>1297</dim>
					<dim>1024</dim>
				</port>
			</output>
		</layer>
		<layer id="135" name="__module.blocks.0.attn.inner_attn_ln/aten::layer_norm/Multiply" type="Const" version="opset1">
			<data element_type="i32" shape="1" offset="3864628" size="4" />
			<output>
				<port id="0" precision="I32">
					<dim>1</dim>
				</port>
			</output>
		</layer>
		<layer id="136" name="__module.blocks.0.attn.inner_attn_ln/aten::layer_norm/MVN" type="MVN" version="opset6">
			<data eps="9.9999999747524271e-07" normalize_variance="true" eps_mode="INSIDE_SQRT" />
			<input>
				<port id="0" precision="FP32">
					<dim>-1</dim>
					<dim>1297</dim>
					<dim>1024</dim>
				</port>
				<port id="1" precision="I32">
					<dim>1</dim>
				</port>
			</input>
			<output>
				<port id="2" precision="FP32">
					<dim>-1</dim>
					<dim>1297</dim>
					<dim>1024</dim>
				</port>
			</output>
		</layer>
		<layer id="137" name="Constant_905605_compressed" type="Const" version="opset1">
			<data element_type="f16" shape="1, 1, 1024" offset="10496264" size="2048" />
			<output>
				<port id="0" precision="FP16">
					<dim>1</dim>
					<dim>1</dim>
					<dim>1024</dim>
				</port>
			</output>
		</layer>
		<layer id="138" name="Constant_905605" type="Convert" version="opset1">
			<data destination_type="f32" />
			<rt_info>
				<attribute name="decompression" version="0" />
			</rt_info>
			<input>
				<port id="0" precision="FP16">
					<dim>1</dim>
					<dim>1</dim>
					<dim>1024</dim>
				</port>
			</input>
			<output>
				<port id="1" precision="FP32">
					<dim>1</dim>
					<dim>1</dim>
					<dim>1024</dim>
				</port>
			</output>
		</layer>
		<layer id="139" name="__module.blocks.0.attn.inner_attn_ln/aten::layer_norm/Multiply_1" type="Multiply" version="opset1">
			<data auto_broadcast="numpy" />
			<input>
				<port id="0" precision="FP32">
					<dim>-1</dim>
					<dim>1297</dim>
					<dim>1024</dim>
				</port>
				<port id="1" precision="FP32">
					<dim>1</dim>
					<dim>1</dim>
					<dim>1024</dim>
				</port>
			</input>
			<output>
				<port id="2" precision="FP32">
					<dim>-1</dim>
					<dim>1297</dim>
					<dim>1024</dim>
				</port>
			</output>
		</layer>
		<layer id="140" name="Constant_905606_compressed" type="Const" version="opset1">
			<data element_type="f16" shape="1, 1, 1024" offset="10498312" size="2048" />
			<output>
				<port id="0" precision="FP16">
					<dim>1</dim>
					<dim>1</dim>
					<dim>1024</dim>
				</port>
			</output>
		</layer>
		<layer id="141" name="Constant_905606" type="Convert" version="opset1">
			<data destination_type="f32" />
			<rt_info>
				<attribute name="decompression" version="0" />
			</rt_info>
			<input>
				<port id="0" precision="FP16">
					<dim>1</dim>
					<dim>1</dim>
					<dim>1024</dim>
				</port>
			</input>
			<output>
				<port id="1" precision="FP32">
					<dim>1</dim>
					<dim>1</dim>
					<dim>1024</dim>
				</port>
			</output>
		</layer>
		<layer id="142" name="__module.blocks.0.attn.inner_attn_ln/aten::layer_norm/Add" type="Add" version="opset1">
			<data auto_broadcast="numpy" />
			<input>
				<port id="0" precision="FP32">
					<dim>-1</dim>
					<dim>1297</dim>
					<dim>1024</dim>
				</port>
				<port id="1" precision="FP32">
					<dim>1</dim>
					<dim>1</dim>
					<dim>1024</dim>
				</port>
			</input>
			<output>
				<port id="2" precision="FP32" names="309,310,input.11,x.19">
					<dim>-1</dim>
					<dim>1297</dim>
					<dim>1024</dim>
				</port>
			</output>
		</layer>
		<layer id="143" name="self.blocks.0.attn.proj.weight_compressed" type="Const" version="opset1">
			<data element_type="f16" shape="1024, 1024" offset="10500360" size="2097152" />
			<output>
				<port id="0" precision="FP16" names="self.blocks.0.attn.proj.weight">
					<dim>1024</dim>
					<dim>1024</dim>
				</port>
			</output>
		</layer>
		<layer id="144" name="self.blocks.0.attn.proj.weight" type="Convert" version="opset1">
			<data destination_type="f32" />
			<rt_info>
				<attribute name="decompression" version="0" />
			</rt_info>
			<input>
				<port id="0" precision="FP16">
					<dim>1024</dim>
					<dim>1024</dim>
				</port>
			</input>
			<output>
				<port id="1" precision="FP32">
					<dim>1024</dim>
					<dim>1024</dim>
				</port>
			</output>
		</layer>
		<layer id="145" name="__module.blocks.0.attn.proj/aten::linear/MatMul" type="MatMul" version="opset1">
			<data transpose_a="false" transpose_b="true" />
			<input>
				<port id="0" precision="FP32">
					<dim>-1</dim>
					<dim>1297</dim>
					<dim>1024</dim>
				</port>
				<port id="1" precision="FP32">
					<dim>1024</dim>
					<dim>1024</dim>
				</port>
			</input>
			<output>
				<port id="2" precision="FP32">
					<dim>-1</dim>
					<dim>1297</dim>
					<dim>1024</dim>
				</port>
			</output>
		</layer>
		<layer id="146" name="Constant_905607_compressed" type="Const" version="opset1">
			<data element_type="f16" shape="1, 1, 1024" offset="12597512" size="2048" />
			<output>
				<port id="0" precision="FP16">
					<dim>1</dim>
					<dim>1</dim>
					<dim>1024</dim>
				</port>
			</output>
		</layer>
		<layer id="147" name="Constant_905607" type="Convert" version="opset1">
			<data destination_type="f32" />
			<rt_info>
				<attribute name="decompression" version="0" />
			</rt_info>
			<input>
				<port id="0" precision="FP16">
					<dim>1</dim>
					<dim>1</dim>
					<dim>1024</dim>
				</port>
			</input>
			<output>
				<port id="1" precision="FP32">
					<dim>1</dim>
					<dim>1</dim>
					<dim>1024</dim>
				</port>
			</output>
		</layer>
		<layer id="148" name="__module.blocks.0.attn.proj/aten::linear/Add" type="Add" version="opset1">
			<data auto_broadcast="numpy" />
			<input>
				<port id="0" precision="FP32">
					<dim>-1</dim>
					<dim>1297</dim>
					<dim>1024</dim>
				</port>
				<port id="1" precision="FP32">
					<dim>1</dim>
					<dim>1</dim>
					<dim>1024</dim>
				</port>
			</input>
			<output>
				<port id="2" precision="FP32" names="313,input.13">
					<dim>-1</dim>
					<dim>1297</dim>
					<dim>1024</dim>
				</port>
			</output>
		</layer>
		<layer id="149" name="__module.blocks.0/aten::add/Add" type="Add" version="opset1">
			<data auto_broadcast="numpy" />
			<input>
				<port id="0" precision="FP32">
					<dim>-1</dim>
					<dim>1297</dim>
					<dim>1024</dim>
				</port>
				<port id="1" precision="FP32">
					<dim>-1</dim>
					<dim>1297</dim>
					<dim>1024</dim>
				</port>
			</input>
			<output>
				<port id="2" precision="FP32" names="315,input.15">
					<dim>-1</dim>
					<dim>1297</dim>
					<dim>1024</dim>
				</port>
			</output>
		</layer>
		<layer id="150" name="__module.blocks.0.norm2/aten::layer_norm/Multiply" type="Const" version="opset1">
			<data element_type="i32" shape="1" offset="3864628" size="4" />
			<output>
				<port id="0" precision="I32">
					<dim>1</dim>
				</port>
			</output>
		</layer>
		<layer id="151" name="__module.blocks.0.norm2/aten::layer_norm/MVN" type="MVN" version="opset6">
			<data eps="9.9999999747524271e-07" normalize_variance="true" eps_mode="INSIDE_SQRT" />
			<input>
				<port id="0" precision="FP32">
					<dim>-1</dim>
					<dim>1297</dim>
					<dim>1024</dim>
				</port>
				<port id="1" precision="I32">
					<dim>1</dim>
				</port>
			</input>
			<output>
				<port id="2" precision="FP32">
					<dim>-1</dim>
					<dim>1297</dim>
					<dim>1024</dim>
				</port>
			</output>
		</layer>
		<layer id="152" name="Constant_905608_compressed" type="Const" version="opset1">
			<data element_type="f16" shape="1, 1, 1024" offset="12599560" size="2048" />
			<output>
				<port id="0" precision="FP16">
					<dim>1</dim>
					<dim>1</dim>
					<dim>1024</dim>
				</port>
			</output>
		</layer>
		<layer id="153" name="Constant_905608" type="Convert" version="opset1">
			<data destination_type="f32" />
			<rt_info>
				<attribute name="decompression" version="0" />
			</rt_info>
			<input>
				<port id="0" precision="FP16">
					<dim>1</dim>
					<dim>1</dim>
					<dim>1024</dim>
				</port>
			</input>
			<output>
				<port id="1" precision="FP32">
					<dim>1</dim>
					<dim>1</dim>
					<dim>1024</dim>
				</port>
			</output>
		</layer>
		<layer id="154" name="__module.blocks.0.norm2/aten::layer_norm/Multiply_1" type="Multiply" version="opset1">
			<data auto_broadcast="numpy" />
			<input>
				<port id="0" precision="FP32">
					<dim>-1</dim>
					<dim>1297</dim>
					<dim>1024</dim>
				</port>
				<port id="1" precision="FP32">
					<dim>1</dim>
					<dim>1</dim>
					<dim>1024</dim>
				</port>
			</input>
			<output>
				<port id="2" precision="FP32">
					<dim>-1</dim>
					<dim>1297</dim>
					<dim>1024</dim>
				</port>
			</output>
		</layer>
		<layer id="155" name="Constant_905609_compressed" type="Const" version="opset1">
			<data element_type="f16" shape="1, 1, 1024" offset="12601608" size="2048" />
			<output>
				<port id="0" precision="FP16">
					<dim>1</dim>
					<dim>1</dim>
					<dim>1024</dim>
				</port>
			</output>
		</layer>
		<layer id="156" name="Constant_905609" type="Convert" version="opset1">
			<data destination_type="f32" />
			<rt_info>
				<attribute name="decompression" version="0" />
			</rt_info>
			<input>
				<port id="0" precision="FP16">
					<dim>1</dim>
					<dim>1</dim>
					<dim>1024</dim>
				</port>
			</input>
			<output>
				<port id="1" precision="FP32">
					<dim>1</dim>
					<dim>1</dim>
					<dim>1024</dim>
				</port>
			</output>
		</layer>
		<layer id="157" name="__module.blocks.0.norm2/aten::layer_norm/Add" type="Add" version="opset1">
			<data auto_broadcast="numpy" />
			<input>
				<port id="0" precision="FP32">
					<dim>-1</dim>
					<dim>1297</dim>
					<dim>1024</dim>
				</port>
				<port id="1" precision="FP32">
					<dim>1</dim>
					<dim>1</dim>
					<dim>1024</dim>
				</port>
			</input>
			<output>
				<port id="2" precision="FP32" names="319,320,input.17,x.21">
					<dim>-1</dim>
					<dim>1297</dim>
					<dim>1024</dim>
				</port>
			</output>
		</layer>
		<layer id="158" name="self.blocks.0.mlp.w1.weight_compressed" type="Const" version="opset1">
			<data element_type="f16" shape="2730, 1024" offset="12603656" size="5591040" />
			<output>
				<port id="0" precision="FP16" names="self.blocks.0.mlp.w1.weight">
					<dim>2730</dim>
					<dim>1024</dim>
				</port>
			</output>
		</layer>
		<layer id="159" name="self.blocks.0.mlp.w1.weight" type="Convert" version="opset1">
			<data destination_type="f32" />
			<rt_info>
				<attribute name="decompression" version="0" />
			</rt_info>
			<input>
				<port id="0" precision="FP16">
					<dim>2730</dim>
					<dim>1024</dim>
				</port>
			</input>
			<output>
				<port id="1" precision="FP32">
					<dim>2730</dim>
					<dim>1024</dim>
				</port>
			</output>
		</layer>
		<layer id="160" name="__module.blocks.0.mlp.w1/aten::linear/MatMul" type="MatMul" version="opset1">
			<data transpose_a="false" transpose_b="true" />
			<input>
				<port id="0" precision="FP32">
					<dim>-1</dim>
					<dim>1297</dim>
					<dim>1024</dim>
				</port>
				<port id="1" precision="FP32">
					<dim>2730</dim>
					<dim>1024</dim>
				</port>
			</input>
			<output>
				<port id="2" precision="FP32">
					<dim>-1</dim>
					<dim>1297</dim>
					<dim>2730</dim>
				</port>
			</output>
		</layer>
		<layer id="161" name="Constant_905610_compressed" type="Const" version="opset1">
			<data element_type="f16" shape="1, 1, 2730" offset="18194696" size="5460" />
			<output>
				<port id="0" precision="FP16">
					<dim>1</dim>
					<dim>1</dim>
					<dim>2730</dim>
				</port>
			</output>
		</layer>
		<layer id="162" name="Constant_905610" type="Convert" version="opset1">
			<data destination_type="f32" />
			<rt_info>
				<attribute name="decompression" version="0" />
			</rt_info>
			<input>
				<port id="0" precision="FP16">
					<dim>1</dim>
					<dim>1</dim>
					<dim>2730</dim>
				</port>
			</input>
			<output>
				<port id="1" precision="FP32">
					<dim>1</dim>
					<dim>1</dim>
					<dim>2730</dim>
				</port>
			</output>
		</layer>
		<layer id="163" name="__module.blocks.0.mlp.w1/aten::linear/Add" type="Add" version="opset1">
			<data auto_broadcast="numpy" />
			<input>
				<port id="0" precision="FP32">
					<dim>-1</dim>
					<dim>1297</dim>
					<dim>2730</dim>
				</port>
				<port id="1" precision="FP32">
					<dim>1</dim>
					<dim>1</dim>
					<dim>2730</dim>
				</port>
			</input>
			<output>
				<port id="2" precision="FP32" names="329,input.19">
					<dim>-1</dim>
					<dim>1297</dim>
					<dim>2730</dim>
				</port>
			</output>
		</layer>
		<layer id="164" name="__module.blocks.0.mlp.act/aten::silu/Swish" type="Swish" version="opset4">
			<input>
				<port id="0" precision="FP32">
					<dim>-1</dim>
					<dim>1297</dim>
					<dim>2730</dim>
				</port>
			</input>
			<output>
				<port id="1" precision="FP32" names="333">
					<dim>-1</dim>
					<dim>1297</dim>
					<dim>2730</dim>
				</port>
			</output>
		</layer>
		<layer id="165" name="self.blocks.0.mlp.w2.weight_compressed" type="Const" version="opset1">
			<data element_type="f16" shape="2730, 1024" offset="18200156" size="5591040" />
			<output>
				<port id="0" precision="FP16" names="self.blocks.0.mlp.w2.weight">
					<dim>2730</dim>
					<dim>1024</dim>
				</port>
			</output>
		</layer>
		<layer id="166" name="self.blocks.0.mlp.w2.weight" type="Convert" version="opset1">
			<data destination_type="f32" />
			<rt_info>
				<attribute name="decompression" version="0" />
			</rt_info>
			<input>
				<port id="0" precision="FP16">
					<dim>2730</dim>
					<dim>1024</dim>
				</port>
			</input>
			<output>
				<port id="1" precision="FP32">
					<dim>2730</dim>
					<dim>1024</dim>
				</port>
			</output>
		</layer>
		<layer id="167" name="__module.blocks.0.mlp.w2/aten::linear/MatMul" type="MatMul" version="opset1">
			<data transpose_a="false" transpose_b="true" />
			<input>
				<port id="0" precision="FP32">
					<dim>-1</dim>
					<dim>1297</dim>
					<dim>1024</dim>
				</port>
				<port id="1" precision="FP32">
					<dim>2730</dim>
					<dim>1024</dim>
				</port>
			</input>
			<output>
				<port id="2" precision="FP32">
					<dim>-1</dim>
					<dim>1297</dim>
					<dim>2730</dim>
				</port>
			</output>
		</layer>
		<layer id="168" name="Constant_905611_compressed" type="Const" version="opset1">
			<data element_type="f16" shape="1, 1, 2730" offset="23791196" size="5460" />
			<output>
				<port id="0" precision="FP16">
					<dim>1</dim>
					<dim>1</dim>
					<dim>2730</dim>
				</port>
			</output>
		</layer>
		<layer id="169" name="Constant_905611" type="Convert" version="opset1">
			<data destination_type="f32" />
			<rt_info>
				<attribute name="decompression" version="0" />
			</rt_info>
			<input>
				<port id="0" precision="FP16">
					<dim>1</dim>
					<dim>1</dim>
					<dim>2730</dim>
				</port>
			</input>
			<output>
				<port id="1" precision="FP32">
					<dim>1</dim>
					<dim>1</dim>
					<dim>2730</dim>
				</port>
			</output>
		</layer>
		<layer id="170" name="__module.blocks.0.mlp.w2/aten::linear/Add" type="Add" version="opset1">
			<data auto_broadcast="numpy" />
			<input>
				<port id="0" precision="FP32">
					<dim>-1</dim>
					<dim>1297</dim>
					<dim>2730</dim>
				</port>
				<port id="1" precision="FP32">
					<dim>1</dim>
					<dim>1</dim>
					<dim>2730</dim>
				</port>
			</input>
			<output>
				<port id="2" precision="FP32" names="332,x2.5">
					<dim>-1</dim>
					<dim>1297</dim>
					<dim>2730</dim>
				</port>
			</output>
		</layer>
		<layer id="171" name="__module.blocks.0.mlp/aten::mul/Multiply" type="Multiply" version="opset1">
			<data auto_broadcast="numpy" />
			<input>
				<port id="0" precision="FP32">
					<dim>-1</dim>
					<dim>1297</dim>
					<dim>2730</dim>
				</port>
				<port id="1" precision="FP32">
					<dim>-1</dim>
					<dim>1297</dim>
					<dim>2730</dim>
				</port>
			</input>
			<output>
				<port id="2" precision="FP32" names="334,input.21">
					<dim>-1</dim>
					<dim>1297</dim>
					<dim>2730</dim>
				</port>
			</output>
		</layer>
		<layer id="172" name="__module.blocks.0.mlp.ffn_ln/aten::layer_norm/Multiply" type="Const" version="opset1">
			<data element_type="i32" shape="1" offset="3864628" size="4" />
			<output>
				<port id="0" precision="I32">
					<dim>1</dim>
				</port>
			</output>
		</layer>
		<layer id="173" name="__module.blocks.0.mlp.ffn_ln/aten::layer_norm/MVN" type="MVN" version="opset6">
			<data eps="9.9999999747524271e-07" normalize_variance="true" eps_mode="INSIDE_SQRT" />
			<input>
				<port id="0" precision="FP32">
					<dim>-1</dim>
					<dim>1297</dim>
					<dim>2730</dim>
				</port>
				<port id="1" precision="I32">
					<dim>1</dim>
				</port>
			</input>
			<output>
				<port id="2" precision="FP32">
					<dim>-1</dim>
					<dim>1297</dim>
					<dim>2730</dim>
				</port>
			</output>
		</layer>
		<layer id="174" name="Constant_905612_compressed" type="Const" version="opset1">
			<data element_type="f16" shape="1, 1, 2730" offset="23796656" size="5460" />
			<output>
				<port id="0" precision="FP16">
					<dim>1</dim>
					<dim>1</dim>
					<dim>2730</dim>
				</port>
			</output>
		</layer>
		<layer id="175" name="Constant_905612" type="Convert" version="opset1">
			<data destination_type="f32" />
			<rt_info>
				<attribute name="decompression" version="0" />
			</rt_info>
			<input>
				<port id="0" precision="FP16">
					<dim>1</dim>
					<dim>1</dim>
					<dim>2730</dim>
				</port>
			</input>
			<output>
				<port id="1" precision="FP32">
					<dim>1</dim>
					<dim>1</dim>
					<dim>2730</dim>
				</port>
			</output>
		</layer>
		<layer id="176" name="__module.blocks.0.mlp.ffn_ln/aten::layer_norm/Multiply_1" type="Multiply" version="opset1">
			<data auto_broadcast="numpy" />
			<input>
				<port id="0" precision="FP32">
					<dim>-1</dim>
					<dim>1297</dim>
					<dim>2730</dim>
				</port>
				<port id="1" precision="FP32">
					<dim>1</dim>
					<dim>1</dim>
					<dim>2730</dim>
				</port>
			</input>
			<output>
				<port id="2" precision="FP32">
					<dim>-1</dim>
					<dim>1297</dim>
					<dim>2730</dim>
				</port>
			</output>
		</layer>
		<layer id="177" name="Constant_905613_compressed" type="Const" version="opset1">
			<data element_type="f16" shape="1, 1, 2730" offset="23802116" size="5460" />
			<output>
				<port id="0" precision="FP16">
					<dim>1</dim>
					<dim>1</dim>
					<dim>2730</dim>
				</port>
			</output>
		</layer>
		<layer id="178" name="Constant_905613" type="Convert" version="opset1">
			<data destination_type="f32" />
			<rt_info>
				<attribute name="decompression" version="0" />
			</rt_info>
			<input>
				<port id="0" precision="FP16">
					<dim>1</dim>
					<dim>1</dim>
					<dim>2730</dim>
				</port>
			</input>
			<output>
				<port id="1" precision="FP32">
					<dim>1</dim>
					<dim>1</dim>
					<dim>2730</dim>
				</port>
			</output>
		</layer>
		<layer id="179" name="__module.blocks.0.mlp.ffn_ln/aten::layer_norm/Add" type="Add" version="opset1">
			<data auto_broadcast="numpy" />
			<input>
				<port id="0" precision="FP32">
					<dim>-1</dim>
					<dim>1297</dim>
					<dim>2730</dim>
				</port>
				<port id="1" precision="FP32">
					<dim>1</dim>
					<dim>1</dim>
					<dim>2730</dim>
				</port>
			</input>
			<output>
				<port id="2" precision="FP32" names="338,339,input.23,x.23">
					<dim>-1</dim>
					<dim>1297</dim>
					<dim>2730</dim>
				</port>
			</output>
		</layer>
		<layer id="180" name="self.blocks.0.mlp.w3.weight_compressed" type="Const" version="opset1">
			<data element_type="f16" shape="1024, 2730" offset="23807576" size="5591040" />
			<output>
				<port id="0" precision="FP16" names="self.blocks.0.mlp.w3.weight">
					<dim>1024</dim>
					<dim>2730</dim>
				</port>
			</output>
		</layer>
		<layer id="181" name="self.blocks.0.mlp.w3.weight" type="Convert" version="opset1">
			<data destination_type="f32" />
			<rt_info>
				<attribute name="decompression" version="0" />
			</rt_info>
			<input>
				<port id="0" precision="FP16">
					<dim>1024</dim>
					<dim>2730</dim>
				</port>
			</input>
			<output>
				<port id="1" precision="FP32">
					<dim>1024</dim>
					<dim>2730</dim>
				</port>
			</output>
		</layer>
		<layer id="182" name="__module.blocks.0.mlp.w3/aten::linear/MatMul" type="MatMul" version="opset1">
			<data transpose_a="false" transpose_b="true" />
			<input>
				<port id="0" precision="FP32">
					<dim>-1</dim>
					<dim>1297</dim>
					<dim>2730</dim>
				</port>
				<port id="1" precision="FP32">
					<dim>1024</dim>
					<dim>2730</dim>
				</port>
			</input>
			<output>
				<port id="2" precision="FP32">
					<dim>-1</dim>
					<dim>1297</dim>
					<dim>1024</dim>
				</port>
			</output>
		</layer>
		<layer id="183" name="Constant_905614_compressed" type="Const" version="opset1">
			<data element_type="f16" shape="1, 1, 1024" offset="29398616" size="2048" />
			<output>
				<port id="0" precision="FP16">
					<dim>1</dim>
					<dim>1</dim>
					<dim>1024</dim>
				</port>
			</output>
		</layer>
		<layer id="184" name="Constant_905614" type="Convert" version="opset1">
			<data destination_type="f32" />
			<rt_info>
				<attribute name="decompression" version="0" />
			</rt_info>
			<input>
				<port id="0" precision="FP16">
					<dim>1</dim>
					<dim>1</dim>
					<dim>1024</dim>
				</port>
			</input>
			<output>
				<port id="1" precision="FP32">
					<dim>1</dim>
					<dim>1</dim>
					<dim>1024</dim>
				</port>
			</output>
		</layer>
		<layer id="185" name="__module.blocks.0.mlp.w3/aten::linear/Add" type="Add" version="opset1">
			<data auto_broadcast="numpy" />
			<input>
				<port id="0" precision="FP32">
					<dim>-1</dim>
					<dim>1297</dim>
					<dim>1024</dim>
				</port>
				<port id="1" precision="FP32">
					<dim>1</dim>
					<dim>1</dim>
					<dim>1024</dim>
				</port>
			</input>
			<output>
				<port id="2" precision="FP32" names="342,input.25">
					<dim>-1</dim>
					<dim>1297</dim>
					<dim>1024</dim>
				</port>
			</output>
		</layer>
		<layer id="186" name="__module.blocks.0/aten::add/Add_1" type="Add" version="opset1">
			<data auto_broadcast="numpy" />
			<input>
				<port id="0" precision="FP32">
					<dim>-1</dim>
					<dim>1297</dim>
					<dim>1024</dim>
				</port>
				<port id="1" precision="FP32">
					<dim>-1</dim>
					<dim>1297</dim>
					<dim>1024</dim>
				</port>
			</input>
			<output>
				<port id="2" precision="FP32" names="344,input.27">
					<dim>-1</dim>
					<dim>1297</dim>
					<dim>1024</dim>
				</port>
			</output>
		</layer>
		<layer id="187" name="__module.blocks.1.norm1/aten::layer_norm/Multiply" type="Const" version="opset1">
			<data element_type="i32" shape="1" offset="3864628" size="4" />
			<output>
				<port id="0" precision="I32">
					<dim>1</dim>
				</port>
			</output>
		</layer>
		<layer id="188" name="__module.blocks.1.norm1/aten::layer_norm/MVN" type="MVN" version="opset6">
			<data eps="9.9999999747524271e-07" normalize_variance="true" eps_mode="INSIDE_SQRT" />
			<input>
				<port id="0" precision="FP32">
					<dim>-1</dim>
					<dim>1297</dim>
					<dim>1024</dim>
				</port>
				<port id="1" precision="I32">
					<dim>1</dim>
				</port>
			</input>
			<output>
				<port id="2" precision="FP32">
					<dim>-1</dim>
					<dim>1297</dim>
					<dim>1024</dim>
				</port>
			</output>
		</layer>
		<layer id="189" name="Constant_905615_compressed" type="Const" version="opset1">
			<data element_type="f16" shape="1, 1, 1024" offset="29400664" size="2048" />
			<output>
				<port id="0" precision="FP16">
					<dim>1</dim>
					<dim>1</dim>
					<dim>1024</dim>
				</port>
			</output>
		</layer>
		<layer id="190" name="Constant_905615" type="Convert" version="opset1">
			<data destination_type="f32" />
			<rt_info>
				<attribute name="decompression" version="0" />
			</rt_info>
			<input>
				<port id="0" precision="FP16">
					<dim>1</dim>
					<dim>1</dim>
					<dim>1024</dim>
				</port>
			</input>
			<output>
				<port id="1" precision="FP32">
					<dim>1</dim>
					<dim>1</dim>
					<dim>1024</dim>
				</port>
			</output>
		</layer>
		<layer id="191" name="__module.blocks.1.norm1/aten::layer_norm/Multiply_1" type="Multiply" version="opset1">
			<data auto_broadcast="numpy" />
			<input>
				<port id="0" precision="FP32">
					<dim>-1</dim>
					<dim>1297</dim>
					<dim>1024</dim>
				</port>
				<port id="1" precision="FP32">
					<dim>1</dim>
					<dim>1</dim>
					<dim>1024</dim>
				</port>
			</input>
			<output>
				<port id="2" precision="FP32">
					<dim>-1</dim>
					<dim>1297</dim>
					<dim>1024</dim>
				</port>
			</output>
		</layer>
		<layer id="192" name="Constant_905616_compressed" type="Const" version="opset1">
			<data element_type="f16" shape="1, 1, 1024" offset="29402712" size="2048" />
			<output>
				<port id="0" precision="FP16">
					<dim>1</dim>
					<dim>1</dim>
					<dim>1024</dim>
				</port>
			</output>
		</layer>
		<layer id="193" name="Constant_905616" type="Convert" version="opset1">
			<data destination_type="f32" />
			<rt_info>
				<attribute name="decompression" version="0" />
			</rt_info>
			<input>
				<port id="0" precision="FP16">
					<dim>1</dim>
					<dim>1</dim>
					<dim>1024</dim>
				</port>
			</input>
			<output>
				<port id="1" precision="FP32">
					<dim>1</dim>
					<dim>1</dim>
					<dim>1024</dim>
				</port>
			</output>
		</layer>
		<layer id="194" name="__module.blocks.1.norm1/aten::layer_norm/Add" type="Add" version="opset1">
			<data auto_broadcast="numpy" />
			<input>
				<port id="0" precision="FP32">
					<dim>-1</dim>
					<dim>1297</dim>
					<dim>1024</dim>
				</port>
				<port id="1" precision="FP32">
					<dim>1</dim>
					<dim>1</dim>
					<dim>1024</dim>
				</port>
			</input>
			<output>
				<port id="2" precision="FP32" names="373,374,x.25,x.27">
					<dim>-1</dim>
					<dim>1297</dim>
					<dim>1024</dim>
				</port>
			</output>
		</layer>
		<layer id="195" name="self.blocks.1.attn.q_proj.weight_compressed" type="Const" version="opset1">
			<data element_type="f16" shape="1024, 1024" offset="29404760" size="2097152" />
			<output>
				<port id="0" precision="FP16" names="self.blocks.1.attn.q_proj.weight">
					<dim>1024</dim>
					<dim>1024</dim>
				</port>
			</output>
		</layer>
		<layer id="196" name="self.blocks.1.attn.q_proj.weight" type="Convert" version="opset1">
			<data destination_type="f32" />
			<rt_info>
				<attribute name="decompression" version="0" />
			</rt_info>
			<input>
				<port id="0" precision="FP16">
					<dim>1024</dim>
					<dim>1024</dim>
				</port>
			</input>
			<output>
				<port id="1" precision="FP32">
					<dim>1024</dim>
					<dim>1024</dim>
				</port>
			</output>
		</layer>
		<layer id="197" name="__module.blocks.1.attn/aten::linear/MatMul" type="MatMul" version="opset1">
			<data transpose_a="false" transpose_b="true" />
			<input>
				<port id="0" precision="FP32">
					<dim>-1</dim>
					<dim>1297</dim>
					<dim>1024</dim>
				</port>
				<port id="1" precision="FP32">
					<dim>1024</dim>
					<dim>1024</dim>
				</port>
			</input>
			<output>
				<port id="2" precision="FP32">
					<dim>-1</dim>
					<dim>1297</dim>
					<dim>1024</dim>
				</port>
			</output>
		</layer>
		<layer id="198" name="Constant_905617_compressed" type="Const" version="opset1">
			<data element_type="f16" shape="1, 1, 1024" offset="31501912" size="2048" />
			<output>
				<port id="0" precision="FP16">
					<dim>1</dim>
					<dim>1</dim>
					<dim>1024</dim>
				</port>
			</output>
		</layer>
		<layer id="199" name="Constant_905617" type="Convert" version="opset1">
			<data destination_type="f32" />
			<rt_info>
				<attribute name="decompression" version="0" />
			</rt_info>
			<input>
				<port id="0" precision="FP16">
					<dim>1</dim>
					<dim>1</dim>
					<dim>1024</dim>
				</port>
			</input>
			<output>
				<port id="1" precision="FP32">
					<dim>1</dim>
					<dim>1</dim>
					<dim>1024</dim>
				</port>
			</output>
		</layer>
		<layer id="200" name="__module.blocks.1.attn/aten::linear/Add" type="Add" version="opset1">
			<data auto_broadcast="numpy" />
			<input>
				<port id="0" precision="FP32">
					<dim>-1</dim>
					<dim>1297</dim>
					<dim>1024</dim>
				</port>
				<port id="1" precision="FP32">
					<dim>1</dim>
					<dim>1</dim>
					<dim>1024</dim>
				</port>
			</input>
			<output>
				<port id="2" precision="FP32" names="387,q.9">
					<dim>-1</dim>
					<dim>1297</dim>
					<dim>1024</dim>
				</port>
			</output>
		</layer>
		<layer id="201" name="Constant_909568" type="Const" version="opset1">
			<data element_type="i64" shape="4" offset="5967928" size="32" />
			<rt_info>
				<attribute name="precise" version="0" />
			</rt_info>
			<output>
				<port id="0" precision="I64">
					<dim>4</dim>
				</port>
			</output>
		</layer>
		<layer id="202" name="__module.blocks.1.attn/aten::reshape/Reshape" type="Reshape" version="opset1">
			<data special_zero="true" />
			<input>
				<port id="0" precision="FP32">
					<dim>-1</dim>
					<dim>1297</dim>
					<dim>1024</dim>
				</port>
				<port id="1" precision="I64">
					<dim>4</dim>
				</port>
			</input>
			<output>
				<port id="2" precision="FP32" names="391">
					<dim>-1</dim>
					<dim>1297</dim>
					<dim>16</dim>
					<dim>64</dim>
				</port>
			</output>
		</layer>
		<layer id="203" name="Constant_685181" type="Const" version="opset1">
			<data element_type="i64" shape="4" offset="5967960" size="32" />
			<output>
				<port id="0" precision="I64" names="392">
					<dim>4</dim>
				</port>
			</output>
		</layer>
		<layer id="204" name="__module.blocks.1.attn/aten::permute/Transpose" type="Transpose" version="opset1">
			<input>
				<port id="0" precision="FP32">
					<dim>-1</dim>
					<dim>1297</dim>
					<dim>16</dim>
					<dim>64</dim>
				</port>
				<port id="1" precision="I64">
					<dim>4</dim>
				</port>
			</input>
			<output>
				<port id="2" precision="FP32" names="393,402,403,445,446,q.11">
					<dim>-1</dim>
					<dim>16</dim>
					<dim>1297</dim>
					<dim>64</dim>
				</port>
			</output>
		</layer>
		<layer id="205" name="Constant_686148" type="Const" version="opset1">
			<data element_type="i64" shape="1" offset="1208320" size="8" />
			<output>
				<port id="0" precision="I64">
					<dim>1</dim>
				</port>
			</output>
		</layer>
		<layer id="206" name="Constant_686150" type="Const" version="opset1">
			<data element_type="i64" shape="1" offset="1208328" size="8" />
			<output>
				<port id="0" precision="I64">
					<dim>1</dim>
				</port>
			</output>
		</layer>
		<layer id="207" name="Constant_686152" type="Const" version="opset1">
			<data element_type="i64" shape="1" offset="1208328" size="8" />
			<output>
				<port id="0" precision="I64">
					<dim>1</dim>
				</port>
			</output>
		</layer>
		<layer id="208" name="Constant_686146" type="Const" version="opset1">
			<data element_type="i64" shape="1" offset="5967992" size="8" />
			<output>
				<port id="0" precision="I64">
					<dim>1</dim>
				</port>
			</output>
		</layer>
		<layer id="209" name="__module.blocks.1.attn/aten::slice/Slice_2" type="Slice" version="opset8">
			<input>
				<port id="0" precision="FP32">
					<dim>-1</dim>
					<dim>16</dim>
					<dim>1297</dim>
					<dim>64</dim>
				</port>
				<port id="1" precision="I64">
					<dim>1</dim>
				</port>
				<port id="2" precision="I64">
					<dim>1</dim>
				</port>
				<port id="3" precision="I64">
					<dim>1</dim>
				</port>
				<port id="4" precision="I64">
					<dim>1</dim>
				</port>
			</input>
			<output>
				<port id="5" precision="FP32" names="447,448">
					<dim>-1</dim>
					<dim>16</dim>
					<dim>1</dim>
					<dim>64</dim>
				</port>
			</output>
		</layer>
		<layer id="210" name="Constant_685256" type="Const" version="opset1">
			<data element_type="i64" shape="1" offset="1208328" size="8" />
			<output>
				<port id="0" precision="I64">
					<dim>1</dim>
				</port>
			</output>
		</layer>
		<layer id="211" name="Constant_685258" type="Const" version="opset1">
			<data element_type="i64" shape="1" offset="5968000" size="8" />
			<output>
				<port id="0" precision="I64">
					<dim>1</dim>
				</port>
			</output>
		</layer>
		<layer id="212" name="Constant_685260" type="Const" version="opset1">
			<data element_type="i64" shape="1" offset="1208328" size="8" />
			<output>
				<port id="0" precision="I64">
					<dim>1</dim>
				</port>
			</output>
		</layer>
		<layer id="213" name="Constant_685254" type="Const" version="opset1">
			<data element_type="i64" shape="1" offset="5967992" size="8" />
			<output>
				<port id="0" precision="I64">
					<dim>1</dim>
				</port>
			</output>
		</layer>
		<layer id="214" name="__module.blocks.1.attn/aten::slice/Slice_6" type="Slice" version="opset8">
			<input>
				<port id="0" precision="FP32">
					<dim>-1</dim>
					<dim>16</dim>
					<dim>1297</dim>
					<dim>64</dim>
				</port>
				<port id="1" precision="I64">
					<dim>1</dim>
				</port>
				<port id="2" precision="I64">
					<dim>1</dim>
				</port>
				<port id="3" precision="I64">
					<dim>1</dim>
				</port>
				<port id="4" precision="I64">
					<dim>1</dim>
				</port>
			</input>
			<output>
				<port id="5" precision="FP32" names="404,405,t.5">
					<dim>-1</dim>
					<dim>16</dim>
					<dim>1296</dim>
					<dim>64</dim>
				</port>
			</output>
		</layer>
		<layer id="215" name="Constant_905618_compressed" type="Const" version="opset1">
			<data element_type="f16" shape="1, 1, 1296, 64" offset="5968008" size="165888" />
			<output>
				<port id="0" precision="FP16">
					<dim>1</dim>
					<dim>1</dim>
					<dim>1296</dim>
					<dim>64</dim>
				</port>
			</output>
		</layer>
		<layer id="216" name="Constant_905618" type="Convert" version="opset1">
			<data destination_type="f32" />
			<rt_info>
				<attribute name="decompression" version="0" />
			</rt_info>
			<input>
				<port id="0" precision="FP16">
					<dim>1</dim>
					<dim>1</dim>
					<dim>1296</dim>
					<dim>64</dim>
				</port>
			</input>
			<output>
				<port id="1" precision="FP32">
					<dim>1</dim>
					<dim>1</dim>
					<dim>1296</dim>
					<dim>64</dim>
				</port>
			</output>
		</layer>
		<layer id="217" name="__module.blocks.23.attn.rope/aten::mul/Multiply_12" type="Multiply" version="opset1">
			<data auto_broadcast="numpy" />
			<input>
				<port id="0" precision="FP32">
					<dim>-1</dim>
					<dim>16</dim>
					<dim>1296</dim>
					<dim>64</dim>
				</port>
				<port id="1" precision="FP32">
					<dim>1</dim>
					<dim>1</dim>
					<dim>1296</dim>
					<dim>64</dim>
				</port>
			</input>
			<output>
				<port id="2" precision="FP32" names="406">
					<dim>-1</dim>
					<dim>16</dim>
					<dim>1296</dim>
					<dim>64</dim>
				</port>
			</output>
		</layer>
		<layer id="218" name="Constant_909569" type="Const" version="opset1">
			<data element_type="i64" shape="5" offset="6133896" size="40" />
			<rt_info>
				<attribute name="precise" version="0" />
			</rt_info>
			<output>
				<port id="0" precision="I64">
					<dim>5</dim>
				</port>
			</output>
		</layer>
		<layer id="219" name="__module.blocks.23.attn.rope/aten::reshape/Reshape_4" type="Reshape" version="opset1">
			<data special_zero="true" />
			<input>
				<port id="0" precision="FP32">
					<dim>-1</dim>
					<dim>16</dim>
					<dim>1296</dim>
					<dim>64</dim>
				</port>
				<port id="1" precision="I64">
					<dim>5</dim>
				</port>
			</input>
			<output>
				<port id="2" precision="FP32" names="415,x.29">
					<dim>-1</dim>
					<dim>16</dim>
					<dim>1296</dim>
					<dim>32</dim>
					<dim>2</dim>
				</port>
			</output>
		</layer>
		<layer id="220" name="349" type="Const" version="opset1">
			<data element_type="i64" shape="" offset="6133936" size="8" />
			<output>
				<port id="0" precision="I64" names="349" />
			</output>
		</layer>
		<layer id="221" name="__module.blocks.23.attn.rope/prim::ListUnpack/Split_2" type="Split" version="opset1">
			<data num_splits="2" />
			<input>
				<port id="0" precision="FP32">
					<dim>-1</dim>
					<dim>16</dim>
					<dim>1296</dim>
					<dim>32</dim>
					<dim>2</dim>
				</port>
				<port id="1" precision="I64" />
			</input>
			<output>
				<port id="2" precision="FP32">
					<dim>-1</dim>
					<dim>16</dim>
					<dim>1296</dim>
					<dim>32</dim>
					<dim>1</dim>
				</port>
				<port id="3" precision="FP32">
					<dim>-1</dim>
					<dim>16</dim>
					<dim>1296</dim>
					<dim>32</dim>
					<dim>1</dim>
				</port>
			</output>
		</layer>
		<layer id="222" name="__module.blocks.23.attn.rope/prim::ListUnpack/Squeeze_0_2" type="Squeeze" version="opset1">
			<input>
				<port id="0" precision="FP32">
					<dim>-1</dim>
					<dim>16</dim>
					<dim>1296</dim>
					<dim>32</dim>
					<dim>1</dim>
				</port>
				<port id="1" precision="I64" />
			</input>
			<output>
				<port id="2" precision="FP32" names="418,x2.7">
					<dim>-1</dim>
					<dim>16</dim>
					<dim>1296</dim>
					<dim>32</dim>
				</port>
			</output>
		</layer>
		<layer id="223" name="Constant_905619_compressed" type="Const" version="opset1">
			<data element_type="f16" shape="1, 1, 1, 1" offset="6133944" size="2" />
			<output>
				<port id="0" precision="FP16">
					<dim>1</dim>
					<dim>1</dim>
					<dim>1</dim>
					<dim>1</dim>
				</port>
			</output>
		</layer>
		<layer id="224" name="Constant_905619" type="Convert" version="opset1">
			<data destination_type="f32" />
			<rt_info>
				<attribute name="decompression" version="0" />
			</rt_info>
			<input>
				<port id="0" precision="FP16">
					<dim>1</dim>
					<dim>1</dim>
					<dim>1</dim>
					<dim>1</dim>
				</port>
			</input>
			<output>
				<port id="1" precision="FP32">
					<dim>1</dim>
					<dim>1</dim>
					<dim>1</dim>
					<dim>1</dim>
				</port>
			</output>
		</layer>
		<layer id="225" name="__module.blocks.23.attn.rope/aten::neg/Multiply_2" type="Multiply" version="opset1">
			<data auto_broadcast="numpy" />
			<input>
				<port id="0" precision="FP32">
					<dim>-1</dim>
					<dim>16</dim>
					<dim>1296</dim>
					<dim>32</dim>
				</port>
				<port id="1" precision="FP32">
					<dim>1</dim>
					<dim>1</dim>
					<dim>1</dim>
					<dim>1</dim>
				</port>
			</input>
			<output>
				<port id="2" precision="FP32" names="419">
					<dim>-1</dim>
					<dim>16</dim>
					<dim>1296</dim>
					<dim>32</dim>
				</port>
			</output>
		</layer>
		<layer id="226" name="Unsqueeze_737066" type="Unsqueeze" version="opset1">
			<input>
				<port id="0" precision="FP32">
					<dim>-1</dim>
					<dim>16</dim>
					<dim>1296</dim>
					<dim>32</dim>
				</port>
				<port id="1" precision="I64" />
			</input>
			<output>
				<port id="2" precision="FP32">
					<dim>-1</dim>
					<dim>16</dim>
					<dim>1296</dim>
					<dim>32</dim>
					<dim>1</dim>
				</port>
			</output>
		</layer>
		<layer id="227" name="__module.blocks.23.attn.rope/prim::ListUnpack/Squeeze_2" type="Squeeze" version="opset1">
			<input>
				<port id="0" precision="FP32">
					<dim>-1</dim>
					<dim>16</dim>
					<dim>1296</dim>
					<dim>32</dim>
					<dim>1</dim>
				</port>
				<port id="1" precision="I64" />
			</input>
			<output>
				<port id="2" precision="FP32" names="417,x1.5">
					<dim>-1</dim>
					<dim>16</dim>
					<dim>1296</dim>
					<dim>32</dim>
				</port>
			</output>
		</layer>
		<layer id="228" name="Unsqueeze_737067" type="Unsqueeze" version="opset1">
			<input>
				<port id="0" precision="FP32">
					<dim>-1</dim>
					<dim>16</dim>
					<dim>1296</dim>
					<dim>32</dim>
				</port>
				<port id="1" precision="I64" />
			</input>
			<output>
				<port id="2" precision="FP32">
					<dim>-1</dim>
					<dim>16</dim>
					<dim>1296</dim>
					<dim>32</dim>
					<dim>1</dim>
				</port>
			</output>
		</layer>
		<layer id="229" name="__module.blocks.23.attn.rope/aten::stack_2" type="Concat" version="opset1">
			<data axis="-1" />
			<input>
				<port id="0" precision="FP32">
					<dim>-1</dim>
					<dim>16</dim>
					<dim>1296</dim>
					<dim>32</dim>
					<dim>1</dim>
				</port>
				<port id="1" precision="FP32">
					<dim>-1</dim>
					<dim>16</dim>
					<dim>1296</dim>
					<dim>32</dim>
					<dim>1</dim>
				</port>
			</input>
			<output>
				<port id="2" precision="FP32" names="421,x.31">
					<dim>-1</dim>
					<dim>16</dim>
					<dim>1296</dim>
					<dim>32</dim>
					<dim>2</dim>
				</port>
			</output>
		</layer>
		<layer id="230" name="Constant_909570" type="Const" version="opset1">
			<data element_type="i64" shape="4" offset="6133946" size="32" />
			<rt_info>
				<attribute name="precise" version="0" />
			</rt_info>
			<output>
				<port id="0" precision="I64">
					<dim>4</dim>
				</port>
			</output>
		</layer>
		<layer id="231" name="__module.blocks.23.attn.rope/aten::reshape/Reshape_5" type="Reshape" version="opset1">
			<data special_zero="true" />
			<input>
				<port id="0" precision="FP32">
					<dim>-1</dim>
					<dim>16</dim>
					<dim>1296</dim>
					<dim>32</dim>
					<dim>2</dim>
				</port>
				<port id="1" precision="I64">
					<dim>4</dim>
				</port>
			</input>
			<output>
				<port id="2" precision="FP32" names="442">
					<dim>-1</dim>
					<dim>16</dim>
					<dim>1296</dim>
					<dim>64</dim>
				</port>
			</output>
		</layer>
		<layer id="232" name="Constant_905620_compressed" type="Const" version="opset1">
			<data element_type="f16" shape="1, 1, 1296, 64" offset="6133978" size="165888" />
			<output>
				<port id="0" precision="FP16">
					<dim>1</dim>
					<dim>1</dim>
					<dim>1296</dim>
					<dim>64</dim>
				</port>
			</output>
		</layer>
		<layer id="233" name="Constant_905620" type="Convert" version="opset1">
			<data destination_type="f32" />
			<rt_info>
				<attribute name="decompression" version="0" />
			</rt_info>
			<input>
				<port id="0" precision="FP16">
					<dim>1</dim>
					<dim>1</dim>
					<dim>1296</dim>
					<dim>64</dim>
				</port>
			</input>
			<output>
				<port id="1" precision="FP32">
					<dim>1</dim>
					<dim>1</dim>
					<dim>1296</dim>
					<dim>64</dim>
				</port>
			</output>
		</layer>
		<layer id="234" name="__module.blocks.23.attn.rope/aten::mul/Multiply_17" type="Multiply" version="opset1">
			<data auto_broadcast="numpy" />
			<input>
				<port id="0" precision="FP32">
					<dim>-1</dim>
					<dim>16</dim>
					<dim>1296</dim>
					<dim>64</dim>
				</port>
				<port id="1" precision="FP32">
					<dim>1</dim>
					<dim>1</dim>
					<dim>1296</dim>
					<dim>64</dim>
				</port>
			</input>
			<output>
				<port id="2" precision="FP32" names="443">
					<dim>-1</dim>
					<dim>16</dim>
					<dim>1296</dim>
					<dim>64</dim>
				</port>
			</output>
		</layer>
		<layer id="235" name="__module.blocks.23.attn.rope/aten::add/Add_2" type="Add" version="opset1">
			<data auto_broadcast="numpy" />
			<input>
				<port id="0" precision="FP32">
					<dim>-1</dim>
					<dim>16</dim>
					<dim>1296</dim>
					<dim>64</dim>
				</port>
				<port id="1" precision="FP32">
					<dim>-1</dim>
					<dim>16</dim>
					<dim>1296</dim>
					<dim>64</dim>
				</port>
			</input>
			<output>
				<port id="2" precision="FP32" names="444,ro_q_t.3">
					<dim>-1</dim>
					<dim>16</dim>
					<dim>1296</dim>
					<dim>64</dim>
				</port>
			</output>
		</layer>
		<layer id="236" name="__module.blocks.1.attn/aten::cat/Concat" type="Concat" version="opset1">
			<data axis="-2" />
			<input>
				<port id="0" precision="FP32">
					<dim>-1</dim>
					<dim>16</dim>
					<dim>1</dim>
					<dim>64</dim>
				</port>
				<port id="1" precision="FP32">
					<dim>-1</dim>
					<dim>16</dim>
					<dim>1296</dim>
					<dim>64</dim>
				</port>
			</input>
			<output>
				<port id="2" precision="FP32" names="450,451,q.13">
					<dim>-1</dim>
					<dim>16</dim>
					<dim>1297</dim>
					<dim>64</dim>
				</port>
			</output>
		</layer>
		<layer id="237" name="Constant_905621_compressed" type="Const" version="opset1">
			<data element_type="f16" shape="1, 1, 1, 1" offset="6299866" size="2" />
			<output>
				<port id="0" precision="FP16">
					<dim>1</dim>
					<dim>1</dim>
					<dim>1</dim>
					<dim>1</dim>
				</port>
			</output>
		</layer>
		<layer id="238" name="Constant_905621" type="Convert" version="opset1">
			<data destination_type="f32" />
			<rt_info>
				<attribute name="decompression" version="0" />
			</rt_info>
			<input>
				<port id="0" precision="FP16">
					<dim>1</dim>
					<dim>1</dim>
					<dim>1</dim>
					<dim>1</dim>
				</port>
			</input>
			<output>
				<port id="1" precision="FP32">
					<dim>1</dim>
					<dim>1</dim>
					<dim>1</dim>
					<dim>1</dim>
				</port>
			</output>
		</layer>
		<layer id="239" name="__module.blocks.1.attn/aten::mul/Multiply" type="Multiply" version="opset1">
			<data auto_broadcast="numpy" />
			<input>
				<port id="0" precision="FP32">
					<dim>-1</dim>
					<dim>16</dim>
					<dim>1297</dim>
					<dim>64</dim>
				</port>
				<port id="1" precision="FP32">
					<dim>1</dim>
					<dim>1</dim>
					<dim>1</dim>
					<dim>1</dim>
				</port>
			</input>
			<output>
				<port id="2" precision="FP32" names="502,q.15">
					<dim>-1</dim>
					<dim>16</dim>
					<dim>1297</dim>
					<dim>64</dim>
				</port>
			</output>
		</layer>
		<layer id="240" name="self.blocks.1.attn.k_proj.weight_compressed" type="Const" version="opset1">
			<data element_type="f16" shape="1024, 1024" offset="31503960" size="2097152" />
			<output>
				<port id="0" precision="FP16" names="self.blocks.1.attn.k_proj.weight">
					<dim>1024</dim>
					<dim>1024</dim>
				</port>
			</output>
		</layer>
		<layer id="241" name="self.blocks.1.attn.k_proj.weight" type="Convert" version="opset1">
			<data destination_type="f32" />
			<rt_info>
				<attribute name="decompression" version="0" />
			</rt_info>
			<input>
				<port id="0" precision="FP16">
					<dim>1024</dim>
					<dim>1024</dim>
				</port>
			</input>
			<output>
				<port id="1" precision="FP32">
					<dim>1024</dim>
					<dim>1024</dim>
				</port>
			</output>
		</layer>
		<layer id="242" name="__module.blocks.1.attn/aten::linear/MatMul_1" type="MatMul" version="opset1">
			<data transpose_a="false" transpose_b="true" />
			<input>
				<port id="0" precision="FP32">
					<dim>-1</dim>
					<dim>1297</dim>
					<dim>1024</dim>
				</port>
				<port id="1" precision="FP32">
					<dim>1024</dim>
					<dim>1024</dim>
				</port>
			</input>
			<output>
				<port id="2" precision="FP32" names="388,k.7">
					<dim>-1</dim>
					<dim>1297</dim>
					<dim>1024</dim>
				</port>
			</output>
		</layer>
		<layer id="243" name="Constant_909571" type="Const" version="opset1">
			<data element_type="i64" shape="4" offset="5967928" size="32" />
			<rt_info>
				<attribute name="precise" version="0" />
			</rt_info>
			<output>
				<port id="0" precision="I64">
					<dim>4</dim>
				</port>
			</output>
		</layer>
		<layer id="244" name="__module.blocks.1.attn/aten::reshape/Reshape_1" type="Reshape" version="opset1">
			<data special_zero="true" />
			<input>
				<port id="0" precision="FP32">
					<dim>-1</dim>
					<dim>1297</dim>
					<dim>1024</dim>
				</port>
				<port id="1" precision="I64">
					<dim>4</dim>
				</port>
			</input>
			<output>
				<port id="2" precision="FP32" names="395">
					<dim>-1</dim>
					<dim>1297</dim>
					<dim>16</dim>
					<dim>64</dim>
				</port>
			</output>
		</layer>
		<layer id="245" name="Constant_685204" type="Const" version="opset1">
			<data element_type="i64" shape="4" offset="5967960" size="32" />
			<output>
				<port id="0" precision="I64" names="396">
					<dim>4</dim>
				</port>
			</output>
		</layer>
		<layer id="246" name="__module.blocks.1.attn/aten::permute/Transpose_1" type="Transpose" version="opset1">
			<input>
				<port id="0" precision="FP32">
					<dim>-1</dim>
					<dim>1297</dim>
					<dim>16</dim>
					<dim>64</dim>
				</port>
				<port id="1" precision="I64">
					<dim>4</dim>
				</port>
			</input>
			<output>
				<port id="2" precision="FP32" names="397,452,453,495,496,k.9">
					<dim>-1</dim>
					<dim>16</dim>
					<dim>1297</dim>
					<dim>64</dim>
				</port>
			</output>
		</layer>
		<layer id="247" name="Constant_687085" type="Const" version="opset1">
			<data element_type="i64" shape="1" offset="1208320" size="8" />
			<output>
				<port id="0" precision="I64">
					<dim>1</dim>
				</port>
			</output>
		</layer>
		<layer id="248" name="Constant_687087" type="Const" version="opset1">
			<data element_type="i64" shape="1" offset="1208328" size="8" />
			<output>
				<port id="0" precision="I64">
					<dim>1</dim>
				</port>
			</output>
		</layer>
		<layer id="249" name="Constant_687089" type="Const" version="opset1">
			<data element_type="i64" shape="1" offset="1208328" size="8" />
			<output>
				<port id="0" precision="I64">
					<dim>1</dim>
				</port>
			</output>
		</layer>
		<layer id="250" name="Constant_687083" type="Const" version="opset1">
			<data element_type="i64" shape="1" offset="5967992" size="8" />
			<output>
				<port id="0" precision="I64">
					<dim>1</dim>
				</port>
			</output>
		</layer>
		<layer id="251" name="__module.blocks.1.attn/aten::slice/Slice_10" type="Slice" version="opset8">
			<input>
				<port id="0" precision="FP32">
					<dim>-1</dim>
					<dim>16</dim>
					<dim>1297</dim>
					<dim>64</dim>
				</port>
				<port id="1" precision="I64">
					<dim>1</dim>
				</port>
				<port id="2" precision="I64">
					<dim>1</dim>
				</port>
				<port id="3" precision="I64">
					<dim>1</dim>
				</port>
				<port id="4" precision="I64">
					<dim>1</dim>
				</port>
			</input>
			<output>
				<port id="5" precision="FP32" names="497,498">
					<dim>-1</dim>
					<dim>16</dim>
					<dim>1</dim>
					<dim>64</dim>
				</port>
			</output>
		</layer>
		<layer id="252" name="Constant_686193" type="Const" version="opset1">
			<data element_type="i64" shape="1" offset="1208328" size="8" />
			<output>
				<port id="0" precision="I64">
					<dim>1</dim>
				</port>
			</output>
		</layer>
		<layer id="253" name="Constant_686195" type="Const" version="opset1">
			<data element_type="i64" shape="1" offset="5968000" size="8" />
			<output>
				<port id="0" precision="I64">
					<dim>1</dim>
				</port>
			</output>
		</layer>
		<layer id="254" name="Constant_686197" type="Const" version="opset1">
			<data element_type="i64" shape="1" offset="1208328" size="8" />
			<output>
				<port id="0" precision="I64">
					<dim>1</dim>
				</port>
			</output>
		</layer>
		<layer id="255" name="Constant_686191" type="Const" version="opset1">
			<data element_type="i64" shape="1" offset="5967992" size="8" />
			<output>
				<port id="0" precision="I64">
					<dim>1</dim>
				</port>
			</output>
		</layer>
		<layer id="256" name="__module.blocks.1.attn/aten::slice/Slice_14" type="Slice" version="opset8">
			<input>
				<port id="0" precision="FP32">
					<dim>-1</dim>
					<dim>16</dim>
					<dim>1297</dim>
					<dim>64</dim>
				</port>
				<port id="1" precision="I64">
					<dim>1</dim>
				</port>
				<port id="2" precision="I64">
					<dim>1</dim>
				</port>
				<port id="3" precision="I64">
					<dim>1</dim>
				</port>
				<port id="4" precision="I64">
					<dim>1</dim>
				</port>
			</input>
			<output>
				<port id="5" precision="FP32" names="454,455,t.7">
					<dim>-1</dim>
					<dim>16</dim>
					<dim>1296</dim>
					<dim>64</dim>
				</port>
			</output>
		</layer>
		<layer id="257" name="Constant_905622_compressed" type="Const" version="opset1">
			<data element_type="f16" shape="1, 1, 1296, 64" offset="5968008" size="165888" />
			<output>
				<port id="0" precision="FP16">
					<dim>1</dim>
					<dim>1</dim>
					<dim>1296</dim>
					<dim>64</dim>
				</port>
			</output>
		</layer>
		<layer id="258" name="Constant_905622" type="Convert" version="opset1">
			<data destination_type="f32" />
			<rt_info>
				<attribute name="decompression" version="0" />
			</rt_info>
			<input>
				<port id="0" precision="FP16">
					<dim>1</dim>
					<dim>1</dim>
					<dim>1296</dim>
					<dim>64</dim>
				</port>
			</input>
			<output>
				<port id="1" precision="FP32">
					<dim>1</dim>
					<dim>1</dim>
					<dim>1296</dim>
					<dim>64</dim>
				</port>
			</output>
		</layer>
		<layer id="259" name="__module.blocks.23.attn.rope/aten::mul/Multiply_18" type="Multiply" version="opset1">
			<data auto_broadcast="numpy" />
			<input>
				<port id="0" precision="FP32">
					<dim>-1</dim>
					<dim>16</dim>
					<dim>1296</dim>
					<dim>64</dim>
				</port>
				<port id="1" precision="FP32">
					<dim>1</dim>
					<dim>1</dim>
					<dim>1296</dim>
					<dim>64</dim>
				</port>
			</input>
			<output>
				<port id="2" precision="FP32" names="456">
					<dim>-1</dim>
					<dim>16</dim>
					<dim>1296</dim>
					<dim>64</dim>
				</port>
			</output>
		</layer>
		<layer id="260" name="Constant_909572" type="Const" version="opset1">
			<data element_type="i64" shape="5" offset="6133896" size="40" />
			<rt_info>
				<attribute name="precise" version="0" />
			</rt_info>
			<output>
				<port id="0" precision="I64">
					<dim>5</dim>
				</port>
			</output>
		</layer>
		<layer id="261" name="__module.blocks.23.attn.rope/aten::reshape/Reshape_6" type="Reshape" version="opset1">
			<data special_zero="true" />
			<input>
				<port id="0" precision="FP32">
					<dim>-1</dim>
					<dim>16</dim>
					<dim>1296</dim>
					<dim>64</dim>
				</port>
				<port id="1" precision="I64">
					<dim>5</dim>
				</port>
			</input>
			<output>
				<port id="2" precision="FP32" names="465,x.33">
					<dim>-1</dim>
					<dim>16</dim>
					<dim>1296</dim>
					<dim>32</dim>
					<dim>2</dim>
				</port>
			</output>
		</layer>
		<layer id="262" name="__module.blocks.23.attn.rope/prim::ListUnpack/Split_3" type="Split" version="opset1">
			<data num_splits="2" />
			<input>
				<port id="0" precision="FP32">
					<dim>-1</dim>
					<dim>16</dim>
					<dim>1296</dim>
					<dim>32</dim>
					<dim>2</dim>
				</port>
				<port id="1" precision="I64" />
			</input>
			<output>
				<port id="2" precision="FP32">
					<dim>-1</dim>
					<dim>16</dim>
					<dim>1296</dim>
					<dim>32</dim>
					<dim>1</dim>
				</port>
				<port id="3" precision="FP32">
					<dim>-1</dim>
					<dim>16</dim>
					<dim>1296</dim>
					<dim>32</dim>
					<dim>1</dim>
				</port>
			</output>
		</layer>
		<layer id="263" name="__module.blocks.23.attn.rope/prim::ListUnpack/Squeeze_0_3" type="Squeeze" version="opset1">
			<input>
				<port id="0" precision="FP32">
					<dim>-1</dim>
					<dim>16</dim>
					<dim>1296</dim>
					<dim>32</dim>
					<dim>1</dim>
				</port>
				<port id="1" precision="I64" />
			</input>
			<output>
				<port id="2" precision="FP32" names="468,x2.9">
					<dim>-1</dim>
					<dim>16</dim>
					<dim>1296</dim>
					<dim>32</dim>
				</port>
			</output>
		</layer>
		<layer id="264" name="Constant_905623_compressed" type="Const" version="opset1">
			<data element_type="f16" shape="1, 1, 1, 1" offset="6133944" size="2" />
			<output>
				<port id="0" precision="FP16">
					<dim>1</dim>
					<dim>1</dim>
					<dim>1</dim>
					<dim>1</dim>
				</port>
			</output>
		</layer>
		<layer id="265" name="Constant_905623" type="Convert" version="opset1">
			<data destination_type="f32" />
			<rt_info>
				<attribute name="decompression" version="0" />
			</rt_info>
			<input>
				<port id="0" precision="FP16">
					<dim>1</dim>
					<dim>1</dim>
					<dim>1</dim>
					<dim>1</dim>
				</port>
			</input>
			<output>
				<port id="1" precision="FP32">
					<dim>1</dim>
					<dim>1</dim>
					<dim>1</dim>
					<dim>1</dim>
				</port>
			</output>
		</layer>
		<layer id="266" name="__module.blocks.23.attn.rope/aten::neg/Multiply_3" type="Multiply" version="opset1">
			<data auto_broadcast="numpy" />
			<input>
				<port id="0" precision="FP32">
					<dim>-1</dim>
					<dim>16</dim>
					<dim>1296</dim>
					<dim>32</dim>
				</port>
				<port id="1" precision="FP32">
					<dim>1</dim>
					<dim>1</dim>
					<dim>1</dim>
					<dim>1</dim>
				</port>
			</input>
			<output>
				<port id="2" precision="FP32" names="469">
					<dim>-1</dim>
					<dim>16</dim>
					<dim>1296</dim>
					<dim>32</dim>
				</port>
			</output>
		</layer>
		<layer id="267" name="Unsqueeze_737069" type="Unsqueeze" version="opset1">
			<input>
				<port id="0" precision="FP32">
					<dim>-1</dim>
					<dim>16</dim>
					<dim>1296</dim>
					<dim>32</dim>
				</port>
				<port id="1" precision="I64" />
			</input>
			<output>
				<port id="2" precision="FP32">
					<dim>-1</dim>
					<dim>16</dim>
					<dim>1296</dim>
					<dim>32</dim>
					<dim>1</dim>
				</port>
			</output>
		</layer>
		<layer id="268" name="__module.blocks.23.attn.rope/prim::ListUnpack/Squeeze_3" type="Squeeze" version="opset1">
			<input>
				<port id="0" precision="FP32">
					<dim>-1</dim>
					<dim>16</dim>
					<dim>1296</dim>
					<dim>32</dim>
					<dim>1</dim>
				</port>
				<port id="1" precision="I64" />
			</input>
			<output>
				<port id="2" precision="FP32" names="467,x1.7">
					<dim>-1</dim>
					<dim>16</dim>
					<dim>1296</dim>
					<dim>32</dim>
				</port>
			</output>
		</layer>
		<layer id="269" name="Unsqueeze_737070" type="Unsqueeze" version="opset1">
			<input>
				<port id="0" precision="FP32">
					<dim>-1</dim>
					<dim>16</dim>
					<dim>1296</dim>
					<dim>32</dim>
				</port>
				<port id="1" precision="I64" />
			</input>
			<output>
				<port id="2" precision="FP32">
					<dim>-1</dim>
					<dim>16</dim>
					<dim>1296</dim>
					<dim>32</dim>
					<dim>1</dim>
				</port>
			</output>
		</layer>
		<layer id="270" name="__module.blocks.23.attn.rope/aten::stack_3" type="Concat" version="opset1">
			<data axis="-1" />
			<input>
				<port id="0" precision="FP32">
					<dim>-1</dim>
					<dim>16</dim>
					<dim>1296</dim>
					<dim>32</dim>
					<dim>1</dim>
				</port>
				<port id="1" precision="FP32">
					<dim>-1</dim>
					<dim>16</dim>
					<dim>1296</dim>
					<dim>32</dim>
					<dim>1</dim>
				</port>
			</input>
			<output>
				<port id="2" precision="FP32" names="471,x.35">
					<dim>-1</dim>
					<dim>16</dim>
					<dim>1296</dim>
					<dim>32</dim>
					<dim>2</dim>
				</port>
			</output>
		</layer>
		<layer id="271" name="Constant_909573" type="Const" version="opset1">
			<data element_type="i64" shape="4" offset="6133946" size="32" />
			<rt_info>
				<attribute name="precise" version="0" />
			</rt_info>
			<output>
				<port id="0" precision="I64">
					<dim>4</dim>
				</port>
			</output>
		</layer>
		<layer id="272" name="__module.blocks.23.attn.rope/aten::reshape/Reshape_7" type="Reshape" version="opset1">
			<data special_zero="true" />
			<input>
				<port id="0" precision="FP32">
					<dim>-1</dim>
					<dim>16</dim>
					<dim>1296</dim>
					<dim>32</dim>
					<dim>2</dim>
				</port>
				<port id="1" precision="I64">
					<dim>4</dim>
				</port>
			</input>
			<output>
				<port id="2" precision="FP32" names="492">
					<dim>-1</dim>
					<dim>16</dim>
					<dim>1296</dim>
					<dim>64</dim>
				</port>
			</output>
		</layer>
		<layer id="273" name="Constant_905624_compressed" type="Const" version="opset1">
			<data element_type="f16" shape="1, 1, 1296, 64" offset="6133978" size="165888" />
			<output>
				<port id="0" precision="FP16">
					<dim>1</dim>
					<dim>1</dim>
					<dim>1296</dim>
					<dim>64</dim>
				</port>
			</output>
		</layer>
		<layer id="274" name="Constant_905624" type="Convert" version="opset1">
			<data destination_type="f32" />
			<rt_info>
				<attribute name="decompression" version="0" />
			</rt_info>
			<input>
				<port id="0" precision="FP16">
					<dim>1</dim>
					<dim>1</dim>
					<dim>1296</dim>
					<dim>64</dim>
				</port>
			</input>
			<output>
				<port id="1" precision="FP32">
					<dim>1</dim>
					<dim>1</dim>
					<dim>1296</dim>
					<dim>64</dim>
				</port>
			</output>
		</layer>
		<layer id="275" name="__module.blocks.23.attn.rope/aten::mul/Multiply_23" type="Multiply" version="opset1">
			<data auto_broadcast="numpy" />
			<input>
				<port id="0" precision="FP32">
					<dim>-1</dim>
					<dim>16</dim>
					<dim>1296</dim>
					<dim>64</dim>
				</port>
				<port id="1" precision="FP32">
					<dim>1</dim>
					<dim>1</dim>
					<dim>1296</dim>
					<dim>64</dim>
				</port>
			</input>
			<output>
				<port id="2" precision="FP32" names="493">
					<dim>-1</dim>
					<dim>16</dim>
					<dim>1296</dim>
					<dim>64</dim>
				</port>
			</output>
		</layer>
		<layer id="276" name="__module.blocks.23.attn.rope/aten::add/Add_3" type="Add" version="opset1">
			<data auto_broadcast="numpy" />
			<input>
				<port id="0" precision="FP32">
					<dim>-1</dim>
					<dim>16</dim>
					<dim>1296</dim>
					<dim>64</dim>
				</port>
				<port id="1" precision="FP32">
					<dim>-1</dim>
					<dim>16</dim>
					<dim>1296</dim>
					<dim>64</dim>
				</port>
			</input>
			<output>
				<port id="2" precision="FP32" names="494,ro_k_t.3">
					<dim>-1</dim>
					<dim>16</dim>
					<dim>1296</dim>
					<dim>64</dim>
				</port>
			</output>
		</layer>
		<layer id="277" name="__module.blocks.1.attn/aten::cat/Concat_1" type="Concat" version="opset1">
			<data axis="-2" />
			<input>
				<port id="0" precision="FP32">
					<dim>-1</dim>
					<dim>16</dim>
					<dim>1</dim>
					<dim>64</dim>
				</port>
				<port id="1" precision="FP32">
					<dim>-1</dim>
					<dim>16</dim>
					<dim>1296</dim>
					<dim>64</dim>
				</port>
			</input>
			<output>
				<port id="2" precision="FP32" names="500,501,k.11">
					<dim>-1</dim>
					<dim>16</dim>
					<dim>1297</dim>
					<dim>64</dim>
				</port>
			</output>
		</layer>
		<layer id="278" name="self.blocks.1.attn.v_proj.weight_compressed" type="Const" version="opset1">
			<data element_type="f16" shape="1024, 1024" offset="33601112" size="2097152" />
			<output>
				<port id="0" precision="FP16" names="self.blocks.1.attn.v_proj.weight">
					<dim>1024</dim>
					<dim>1024</dim>
				</port>
			</output>
		</layer>
		<layer id="279" name="self.blocks.1.attn.v_proj.weight" type="Convert" version="opset1">
			<data destination_type="f32" />
			<rt_info>
				<attribute name="decompression" version="0" />
			</rt_info>
			<input>
				<port id="0" precision="FP16">
					<dim>1024</dim>
					<dim>1024</dim>
				</port>
			</input>
			<output>
				<port id="1" precision="FP32">
					<dim>1024</dim>
					<dim>1024</dim>
				</port>
			</output>
		</layer>
		<layer id="280" name="__module.blocks.1.attn/aten::linear/MatMul_2" type="MatMul" version="opset1">
			<data transpose_a="false" transpose_b="true" />
			<input>
				<port id="0" precision="FP32">
					<dim>-1</dim>
					<dim>1297</dim>
					<dim>1024</dim>
				</port>
				<port id="1" precision="FP32">
					<dim>1024</dim>
					<dim>1024</dim>
				</port>
			</input>
			<output>
				<port id="2" precision="FP32">
					<dim>-1</dim>
					<dim>1297</dim>
					<dim>1024</dim>
				</port>
			</output>
		</layer>
		<layer id="281" name="Constant_905625_compressed" type="Const" version="opset1">
			<data element_type="f16" shape="1, 1, 1024" offset="35698264" size="2048" />
			<output>
				<port id="0" precision="FP16">
					<dim>1</dim>
					<dim>1</dim>
					<dim>1024</dim>
				</port>
			</output>
		</layer>
		<layer id="282" name="Constant_905625" type="Convert" version="opset1">
			<data destination_type="f32" />
			<rt_info>
				<attribute name="decompression" version="0" />
			</rt_info>
			<input>
				<port id="0" precision="FP16">
					<dim>1</dim>
					<dim>1</dim>
					<dim>1024</dim>
				</port>
			</input>
			<output>
				<port id="1" precision="FP32">
					<dim>1</dim>
					<dim>1</dim>
					<dim>1024</dim>
				</port>
			</output>
		</layer>
		<layer id="283" name="__module.blocks.1.attn/aten::linear/Add_1" type="Add" version="opset1">
			<data auto_broadcast="numpy" />
			<input>
				<port id="0" precision="FP32">
					<dim>-1</dim>
					<dim>1297</dim>
					<dim>1024</dim>
				</port>
				<port id="1" precision="FP32">
					<dim>1</dim>
					<dim>1</dim>
					<dim>1024</dim>
				</port>
			</input>
			<output>
				<port id="2" precision="FP32" names="389,v.5">
					<dim>-1</dim>
					<dim>1297</dim>
					<dim>1024</dim>
				</port>
			</output>
		</layer>
		<layer id="284" name="Constant_909574" type="Const" version="opset1">
			<data element_type="i64" shape="4" offset="5967928" size="32" />
			<rt_info>
				<attribute name="precise" version="0" />
			</rt_info>
			<output>
				<port id="0" precision="I64">
					<dim>4</dim>
				</port>
			</output>
		</layer>
		<layer id="285" name="__module.blocks.1.attn/aten::reshape/Reshape_2" type="Reshape" version="opset1">
			<data special_zero="true" />
			<input>
				<port id="0" precision="FP32">
					<dim>-1</dim>
					<dim>1297</dim>
					<dim>1024</dim>
				</port>
				<port id="1" precision="I64">
					<dim>4</dim>
				</port>
			</input>
			<output>
				<port id="2" precision="FP32" names="399">
					<dim>-1</dim>
					<dim>1297</dim>
					<dim>16</dim>
					<dim>64</dim>
				</port>
			</output>
		</layer>
		<layer id="286" name="Constant_685227" type="Const" version="opset1">
			<data element_type="i64" shape="4" offset="5967960" size="32" />
			<output>
				<port id="0" precision="I64" names="400">
					<dim>4</dim>
				</port>
			</output>
		</layer>
		<layer id="287" name="__module.blocks.1.attn/aten::permute/Transpose_2" type="Transpose" version="opset1">
			<input>
				<port id="0" precision="FP32">
					<dim>-1</dim>
					<dim>1297</dim>
					<dim>16</dim>
					<dim>64</dim>
				</port>
				<port id="1" precision="I64">
					<dim>4</dim>
				</port>
			</input>
			<output>
				<port id="2" precision="FP32" names="401,v.7">
					<dim>-1</dim>
					<dim>16</dim>
					<dim>1297</dim>
					<dim>64</dim>
				</port>
			</output>
		</layer>
		<layer id="288" name="Constant_903218_compressed" type="Const" version="opset1">
			<data element_type="f16" shape="" offset="10496220" size="2" />
			<output>
				<port id="0" precision="FP16" />
			</output>
		</layer>
		<layer id="289" name="Constant_903218" type="Convert" version="opset1">
			<data destination_type="f32" />
			<rt_info>
				<attribute name="decompression" version="0" />
			</rt_info>
			<input>
				<port id="0" precision="FP16" />
			</input>
			<output>
				<port id="1" precision="FP32" />
			</output>
		</layer>
		<layer id="290" name="Constant_903219_compressed" type="Const" version="opset1">
			<data element_type="f16" shape="" offset="10496222" size="2" />
			<output>
				<port id="0" precision="FP16" />
			</output>
		</layer>
		<layer id="291" name="Constant_903219" type="Convert" version="opset1">
			<data destination_type="f32" />
			<rt_info>
				<attribute name="decompression" version="0" />
			</rt_info>
			<input>
				<port id="0" precision="FP16" />
			</input>
			<output>
				<port id="1" precision="FP32" />
			</output>
		</layer>
		<layer id="292" name="__module.blocks.1.attn/aten::matmul/MatMul_1" type="ScaledDotProductAttention" version="opset13">
			<data causal="false" />
			<input>
				<port id="0" precision="FP32">
					<dim>-1</dim>
					<dim>16</dim>
					<dim>1297</dim>
					<dim>64</dim>
				</port>
				<port id="1" precision="FP32">
					<dim>-1</dim>
					<dim>16</dim>
					<dim>1297</dim>
					<dim>64</dim>
				</port>
				<port id="2" precision="FP32">
					<dim>-1</dim>
					<dim>16</dim>
					<dim>1297</dim>
					<dim>64</dim>
				</port>
				<port id="3" precision="FP32" />
				<port id="4" precision="FP32" />
			</input>
			<output>
				<port id="5" precision="FP32" names="507">
					<dim>-1</dim>
					<dim>16</dim>
					<dim>1297</dim>
					<dim>64</dim>
				</port>
			</output>
		</layer>
		<layer id="293" name="__module.blocks.1.attn/aten::transpose/Constant_1" type="Const" version="opset1">
			<data element_type="i32" shape="4" offset="10496224" size="16" />
			<output>
				<port id="0" precision="I32">
					<dim>4</dim>
				</port>
			</output>
		</layer>
		<layer id="294" name="__module.blocks.1.attn/aten::transpose/Transpose_1" type="Transpose" version="opset1">
			<input>
				<port id="0" precision="FP32">
					<dim>-1</dim>
					<dim>16</dim>
					<dim>1297</dim>
					<dim>64</dim>
				</port>
				<port id="1" precision="I32">
					<dim>4</dim>
				</port>
			</input>
			<output>
				<port id="2" precision="FP32" names="508">
					<dim>-1</dim>
					<dim>1297</dim>
					<dim>16</dim>
					<dim>64</dim>
				</port>
			</output>
		</layer>
		<layer id="295" name="Constant_909575" type="Const" version="opset1">
			<data element_type="i64" shape="3" offset="10496240" size="24" />
			<rt_info>
				<attribute name="precise" version="0" />
			</rt_info>
			<output>
				<port id="0" precision="I64">
					<dim>3</dim>
				</port>
			</output>
		</layer>
		<layer id="296" name="__module.blocks.1.attn/aten::reshape/Reshape_3" type="Reshape" version="opset1">
			<data special_zero="true" />
			<input>
				<port id="0" precision="FP32">
					<dim>-1</dim>
					<dim>1297</dim>
					<dim>16</dim>
					<dim>64</dim>
				</port>
				<port id="1" precision="I64">
					<dim>3</dim>
				</port>
			</input>
			<output>
				<port id="2" precision="FP32" names="510,input.31">
					<dim>-1</dim>
					<dim>1297</dim>
					<dim>1024</dim>
				</port>
			</output>
		</layer>
		<layer id="297" name="__module.blocks.1.attn.inner_attn_ln/aten::layer_norm/Multiply" type="Const" version="opset1">
			<data element_type="i32" shape="1" offset="3864628" size="4" />
			<output>
				<port id="0" precision="I32">
					<dim>1</dim>
				</port>
			</output>
		</layer>
		<layer id="298" name="__module.blocks.1.attn.inner_attn_ln/aten::layer_norm/MVN" type="MVN" version="opset6">
			<data eps="9.9999999747524271e-07" normalize_variance="true" eps_mode="INSIDE_SQRT" />
			<input>
				<port id="0" precision="FP32">
					<dim>-1</dim>
					<dim>1297</dim>
					<dim>1024</dim>
				</port>
				<port id="1" precision="I32">
					<dim>1</dim>
				</port>
			</input>
			<output>
				<port id="2" precision="FP32">
					<dim>-1</dim>
					<dim>1297</dim>
					<dim>1024</dim>
				</port>
			</output>
		</layer>
		<layer id="299" name="Constant_905626_compressed" type="Const" version="opset1">
			<data element_type="f16" shape="1, 1, 1024" offset="35700312" size="2048" />
			<output>
				<port id="0" precision="FP16">
					<dim>1</dim>
					<dim>1</dim>
					<dim>1024</dim>
				</port>
			</output>
		</layer>
		<layer id="300" name="Constant_905626" type="Convert" version="opset1">
			<data destination_type="f32" />
			<rt_info>
				<attribute name="decompression" version="0" />
			</rt_info>
			<input>
				<port id="0" precision="FP16">
					<dim>1</dim>
					<dim>1</dim>
					<dim>1024</dim>
				</port>
			</input>
			<output>
				<port id="1" precision="FP32">
					<dim>1</dim>
					<dim>1</dim>
					<dim>1024</dim>
				</port>
			</output>
		</layer>
		<layer id="301" name="__module.blocks.1.attn.inner_attn_ln/aten::layer_norm/Multiply_1" type="Multiply" version="opset1">
			<data auto_broadcast="numpy" />
			<input>
				<port id="0" precision="FP32">
					<dim>-1</dim>
					<dim>1297</dim>
					<dim>1024</dim>
				</port>
				<port id="1" precision="FP32">
					<dim>1</dim>
					<dim>1</dim>
					<dim>1024</dim>
				</port>
			</input>
			<output>
				<port id="2" precision="FP32">
					<dim>-1</dim>
					<dim>1297</dim>
					<dim>1024</dim>
				</port>
			</output>
		</layer>
		<layer id="302" name="Constant_905627_compressed" type="Const" version="opset1">
			<data element_type="f16" shape="1, 1, 1024" offset="35702360" size="2048" />
			<output>
				<port id="0" precision="FP16">
					<dim>1</dim>
					<dim>1</dim>
					<dim>1024</dim>
				</port>
			</output>
		</layer>
		<layer id="303" name="Constant_905627" type="Convert" version="opset1">
			<data destination_type="f32" />
			<rt_info>
				<attribute name="decompression" version="0" />
			</rt_info>
			<input>
				<port id="0" precision="FP16">
					<dim>1</dim>
					<dim>1</dim>
					<dim>1024</dim>
				</port>
			</input>
			<output>
				<port id="1" precision="FP32">
					<dim>1</dim>
					<dim>1</dim>
					<dim>1024</dim>
				</port>
			</output>
		</layer>
		<layer id="304" name="__module.blocks.1.attn.inner_attn_ln/aten::layer_norm/Add" type="Add" version="opset1">
			<data auto_broadcast="numpy" />
			<input>
				<port id="0" precision="FP32">
					<dim>-1</dim>
					<dim>1297</dim>
					<dim>1024</dim>
				</port>
				<port id="1" precision="FP32">
					<dim>1</dim>
					<dim>1</dim>
					<dim>1024</dim>
				</port>
			</input>
			<output>
				<port id="2" precision="FP32" names="514,515,input.33,x.37">
					<dim>-1</dim>
					<dim>1297</dim>
					<dim>1024</dim>
				</port>
			</output>
		</layer>
		<layer id="305" name="self.blocks.1.attn.proj.weight_compressed" type="Const" version="opset1">
			<data element_type="f16" shape="1024, 1024" offset="35704408" size="2097152" />
			<output>
				<port id="0" precision="FP16" names="self.blocks.1.attn.proj.weight">
					<dim>1024</dim>
					<dim>1024</dim>
				</port>
			</output>
		</layer>
		<layer id="306" name="self.blocks.1.attn.proj.weight" type="Convert" version="opset1">
			<data destination_type="f32" />
			<rt_info>
				<attribute name="decompression" version="0" />
			</rt_info>
			<input>
				<port id="0" precision="FP16">
					<dim>1024</dim>
					<dim>1024</dim>
				</port>
			</input>
			<output>
				<port id="1" precision="FP32">
					<dim>1024</dim>
					<dim>1024</dim>
				</port>
			</output>
		</layer>
		<layer id="307" name="__module.blocks.1.attn.proj/aten::linear/MatMul" type="MatMul" version="opset1">
			<data transpose_a="false" transpose_b="true" />
			<input>
				<port id="0" precision="FP32">
					<dim>-1</dim>
					<dim>1297</dim>
					<dim>1024</dim>
				</port>
				<port id="1" precision="FP32">
					<dim>1024</dim>
					<dim>1024</dim>
				</port>
			</input>
			<output>
				<port id="2" precision="FP32">
					<dim>-1</dim>
					<dim>1297</dim>
					<dim>1024</dim>
				</port>
			</output>
		</layer>
		<layer id="308" name="Constant_905628_compressed" type="Const" version="opset1">
			<data element_type="f16" shape="1, 1, 1024" offset="37801560" size="2048" />
			<output>
				<port id="0" precision="FP16">
					<dim>1</dim>
					<dim>1</dim>
					<dim>1024</dim>
				</port>
			</output>
		</layer>
		<layer id="309" name="Constant_905628" type="Convert" version="opset1">
			<data destination_type="f32" />
			<rt_info>
				<attribute name="decompression" version="0" />
			</rt_info>
			<input>
				<port id="0" precision="FP16">
					<dim>1</dim>
					<dim>1</dim>
					<dim>1024</dim>
				</port>
			</input>
			<output>
				<port id="1" precision="FP32">
					<dim>1</dim>
					<dim>1</dim>
					<dim>1024</dim>
				</port>
			</output>
		</layer>
		<layer id="310" name="__module.blocks.1.attn.proj/aten::linear/Add" type="Add" version="opset1">
			<data auto_broadcast="numpy" />
			<input>
				<port id="0" precision="FP32">
					<dim>-1</dim>
					<dim>1297</dim>
					<dim>1024</dim>
				</port>
				<port id="1" precision="FP32">
					<dim>1</dim>
					<dim>1</dim>
					<dim>1024</dim>
				</port>
			</input>
			<output>
				<port id="2" precision="FP32" names="518,input.35">
					<dim>-1</dim>
					<dim>1297</dim>
					<dim>1024</dim>
				</port>
			</output>
		</layer>
		<layer id="311" name="__module.blocks.1/aten::add/Add" type="Add" version="opset1">
			<data auto_broadcast="numpy" />
			<input>
				<port id="0" precision="FP32">
					<dim>-1</dim>
					<dim>1297</dim>
					<dim>1024</dim>
				</port>
				<port id="1" precision="FP32">
					<dim>-1</dim>
					<dim>1297</dim>
					<dim>1024</dim>
				</port>
			</input>
			<output>
				<port id="2" precision="FP32" names="520,input.37">
					<dim>-1</dim>
					<dim>1297</dim>
					<dim>1024</dim>
				</port>
			</output>
		</layer>
		<layer id="312" name="__module.blocks.1.norm2/aten::layer_norm/Multiply" type="Const" version="opset1">
			<data element_type="i32" shape="1" offset="3864628" size="4" />
			<output>
				<port id="0" precision="I32">
					<dim>1</dim>
				</port>
			</output>
		</layer>
		<layer id="313" name="__module.blocks.1.norm2/aten::layer_norm/MVN" type="MVN" version="opset6">
			<data eps="9.9999999747524271e-07" normalize_variance="true" eps_mode="INSIDE_SQRT" />
			<input>
				<port id="0" precision="FP32">
					<dim>-1</dim>
					<dim>1297</dim>
					<dim>1024</dim>
				</port>
				<port id="1" precision="I32">
					<dim>1</dim>
				</port>
			</input>
			<output>
				<port id="2" precision="FP32">
					<dim>-1</dim>
					<dim>1297</dim>
					<dim>1024</dim>
				</port>
			</output>
		</layer>
		<layer id="314" name="Constant_905629_compressed" type="Const" version="opset1">
			<data element_type="f16" shape="1, 1, 1024" offset="37803608" size="2048" />
			<output>
				<port id="0" precision="FP16">
					<dim>1</dim>
					<dim>1</dim>
					<dim>1024</dim>
				</port>
			</output>
		</layer>
		<layer id="315" name="Constant_905629" type="Convert" version="opset1">
			<data destination_type="f32" />
			<rt_info>
				<attribute name="decompression" version="0" />
			</rt_info>
			<input>
				<port id="0" precision="FP16">
					<dim>1</dim>
					<dim>1</dim>
					<dim>1024</dim>
				</port>
			</input>
			<output>
				<port id="1" precision="FP32">
					<dim>1</dim>
					<dim>1</dim>
					<dim>1024</dim>
				</port>
			</output>
		</layer>
		<layer id="316" name="__module.blocks.1.norm2/aten::layer_norm/Multiply_1" type="Multiply" version="opset1">
			<data auto_broadcast="numpy" />
			<input>
				<port id="0" precision="FP32">
					<dim>-1</dim>
					<dim>1297</dim>
					<dim>1024</dim>
				</port>
				<port id="1" precision="FP32">
					<dim>1</dim>
					<dim>1</dim>
					<dim>1024</dim>
				</port>
			</input>
			<output>
				<port id="2" precision="FP32">
					<dim>-1</dim>
					<dim>1297</dim>
					<dim>1024</dim>
				</port>
			</output>
		</layer>
		<layer id="317" name="Constant_905630_compressed" type="Const" version="opset1">
			<data element_type="f16" shape="1, 1, 1024" offset="37805656" size="2048" />
			<output>
				<port id="0" precision="FP16">
					<dim>1</dim>
					<dim>1</dim>
					<dim>1024</dim>
				</port>
			</output>
		</layer>
		<layer id="318" name="Constant_905630" type="Convert" version="opset1">
			<data destination_type="f32" />
			<rt_info>
				<attribute name="decompression" version="0" />
			</rt_info>
			<input>
				<port id="0" precision="FP16">
					<dim>1</dim>
					<dim>1</dim>
					<dim>1024</dim>
				</port>
			</input>
			<output>
				<port id="1" precision="FP32">
					<dim>1</dim>
					<dim>1</dim>
					<dim>1024</dim>
				</port>
			</output>
		</layer>
		<layer id="319" name="__module.blocks.1.norm2/aten::layer_norm/Add" type="Add" version="opset1">
			<data auto_broadcast="numpy" />
			<input>
				<port id="0" precision="FP32">
					<dim>-1</dim>
					<dim>1297</dim>
					<dim>1024</dim>
				</port>
				<port id="1" precision="FP32">
					<dim>1</dim>
					<dim>1</dim>
					<dim>1024</dim>
				</port>
			</input>
			<output>
				<port id="2" precision="FP32" names="524,525,input.39,x.39">
					<dim>-1</dim>
					<dim>1297</dim>
					<dim>1024</dim>
				</port>
			</output>
		</layer>
		<layer id="320" name="self.blocks.1.mlp.w1.weight_compressed" type="Const" version="opset1">
			<data element_type="f16" shape="2730, 1024" offset="37807704" size="5591040" />
			<output>
				<port id="0" precision="FP16" names="self.blocks.1.mlp.w1.weight">
					<dim>2730</dim>
					<dim>1024</dim>
				</port>
			</output>
		</layer>
		<layer id="321" name="self.blocks.1.mlp.w1.weight" type="Convert" version="opset1">
			<data destination_type="f32" />
			<rt_info>
				<attribute name="decompression" version="0" />
			</rt_info>
			<input>
				<port id="0" precision="FP16">
					<dim>2730</dim>
					<dim>1024</dim>
				</port>
			</input>
			<output>
				<port id="1" precision="FP32">
					<dim>2730</dim>
					<dim>1024</dim>
				</port>
			</output>
		</layer>
		<layer id="322" name="__module.blocks.1.mlp.w1/aten::linear/MatMul" type="MatMul" version="opset1">
			<data transpose_a="false" transpose_b="true" />
			<input>
				<port id="0" precision="FP32">
					<dim>-1</dim>
					<dim>1297</dim>
					<dim>1024</dim>
				</port>
				<port id="1" precision="FP32">
					<dim>2730</dim>
					<dim>1024</dim>
				</port>
			</input>
			<output>
				<port id="2" precision="FP32">
					<dim>-1</dim>
					<dim>1297</dim>
					<dim>2730</dim>
				</port>
			</output>
		</layer>
		<layer id="323" name="Constant_905631_compressed" type="Const" version="opset1">
			<data element_type="f16" shape="1, 1, 2730" offset="43398744" size="5460" />
			<output>
				<port id="0" precision="FP16">
					<dim>1</dim>
					<dim>1</dim>
					<dim>2730</dim>
				</port>
			</output>
		</layer>
		<layer id="324" name="Constant_905631" type="Convert" version="opset1">
			<data destination_type="f32" />
			<rt_info>
				<attribute name="decompression" version="0" />
			</rt_info>
			<input>
				<port id="0" precision="FP16">
					<dim>1</dim>
					<dim>1</dim>
					<dim>2730</dim>
				</port>
			</input>
			<output>
				<port id="1" precision="FP32">
					<dim>1</dim>
					<dim>1</dim>
					<dim>2730</dim>
				</port>
			</output>
		</layer>
		<layer id="325" name="__module.blocks.1.mlp.w1/aten::linear/Add" type="Add" version="opset1">
			<data auto_broadcast="numpy" />
			<input>
				<port id="0" precision="FP32">
					<dim>-1</dim>
					<dim>1297</dim>
					<dim>2730</dim>
				</port>
				<port id="1" precision="FP32">
					<dim>1</dim>
					<dim>1</dim>
					<dim>2730</dim>
				</port>
			</input>
			<output>
				<port id="2" precision="FP32" names="534,input.41">
					<dim>-1</dim>
					<dim>1297</dim>
					<dim>2730</dim>
				</port>
			</output>
		</layer>
		<layer id="326" name="__module.blocks.1.mlp.act/aten::silu/Swish" type="Swish" version="opset4">
			<input>
				<port id="0" precision="FP32">
					<dim>-1</dim>
					<dim>1297</dim>
					<dim>2730</dim>
				</port>
			</input>
			<output>
				<port id="1" precision="FP32" names="538">
					<dim>-1</dim>
					<dim>1297</dim>
					<dim>2730</dim>
				</port>
			</output>
		</layer>
		<layer id="327" name="self.blocks.1.mlp.w2.weight_compressed" type="Const" version="opset1">
			<data element_type="f16" shape="2730, 1024" offset="43404204" size="5591040" />
			<output>
				<port id="0" precision="FP16" names="self.blocks.1.mlp.w2.weight">
					<dim>2730</dim>
					<dim>1024</dim>
				</port>
			</output>
		</layer>
		<layer id="328" name="self.blocks.1.mlp.w2.weight" type="Convert" version="opset1">
			<data destination_type="f32" />
			<rt_info>
				<attribute name="decompression" version="0" />
			</rt_info>
			<input>
				<port id="0" precision="FP16">
					<dim>2730</dim>
					<dim>1024</dim>
				</port>
			</input>
			<output>
				<port id="1" precision="FP32">
					<dim>2730</dim>
					<dim>1024</dim>
				</port>
			</output>
		</layer>
		<layer id="329" name="__module.blocks.1.mlp.w2/aten::linear/MatMul" type="MatMul" version="opset1">
			<data transpose_a="false" transpose_b="true" />
			<input>
				<port id="0" precision="FP32">
					<dim>-1</dim>
					<dim>1297</dim>
					<dim>1024</dim>
				</port>
				<port id="1" precision="FP32">
					<dim>2730</dim>
					<dim>1024</dim>
				</port>
			</input>
			<output>
				<port id="2" precision="FP32">
					<dim>-1</dim>
					<dim>1297</dim>
					<dim>2730</dim>
				</port>
			</output>
		</layer>
		<layer id="330" name="Constant_905632_compressed" type="Const" version="opset1">
			<data element_type="f16" shape="1, 1, 2730" offset="48995244" size="5460" />
			<output>
				<port id="0" precision="FP16">
					<dim>1</dim>
					<dim>1</dim>
					<dim>2730</dim>
				</port>
			</output>
		</layer>
		<layer id="331" name="Constant_905632" type="Convert" version="opset1">
			<data destination_type="f32" />
			<rt_info>
				<attribute name="decompression" version="0" />
			</rt_info>
			<input>
				<port id="0" precision="FP16">
					<dim>1</dim>
					<dim>1</dim>
					<dim>2730</dim>
				</port>
			</input>
			<output>
				<port id="1" precision="FP32">
					<dim>1</dim>
					<dim>1</dim>
					<dim>2730</dim>
				</port>
			</output>
		</layer>
		<layer id="332" name="__module.blocks.1.mlp.w2/aten::linear/Add" type="Add" version="opset1">
			<data auto_broadcast="numpy" />
			<input>
				<port id="0" precision="FP32">
					<dim>-1</dim>
					<dim>1297</dim>
					<dim>2730</dim>
				</port>
				<port id="1" precision="FP32">
					<dim>1</dim>
					<dim>1</dim>
					<dim>2730</dim>
				</port>
			</input>
			<output>
				<port id="2" precision="FP32" names="537,x2.11">
					<dim>-1</dim>
					<dim>1297</dim>
					<dim>2730</dim>
				</port>
			</output>
		</layer>
		<layer id="333" name="__module.blocks.1.mlp/aten::mul/Multiply" type="Multiply" version="opset1">
			<data auto_broadcast="numpy" />
			<input>
				<port id="0" precision="FP32">
					<dim>-1</dim>
					<dim>1297</dim>
					<dim>2730</dim>
				</port>
				<port id="1" precision="FP32">
					<dim>-1</dim>
					<dim>1297</dim>
					<dim>2730</dim>
				</port>
			</input>
			<output>
				<port id="2" precision="FP32" names="539,input.43">
					<dim>-1</dim>
					<dim>1297</dim>
					<dim>2730</dim>
				</port>
			</output>
		</layer>
		<layer id="334" name="__module.blocks.1.mlp.ffn_ln/aten::layer_norm/Multiply" type="Const" version="opset1">
			<data element_type="i32" shape="1" offset="3864628" size="4" />
			<output>
				<port id="0" precision="I32">
					<dim>1</dim>
				</port>
			</output>
		</layer>
		<layer id="335" name="__module.blocks.1.mlp.ffn_ln/aten::layer_norm/MVN" type="MVN" version="opset6">
			<data eps="9.9999999747524271e-07" normalize_variance="true" eps_mode="INSIDE_SQRT" />
			<input>
				<port id="0" precision="FP32">
					<dim>-1</dim>
					<dim>1297</dim>
					<dim>2730</dim>
				</port>
				<port id="1" precision="I32">
					<dim>1</dim>
				</port>
			</input>
			<output>
				<port id="2" precision="FP32">
					<dim>-1</dim>
					<dim>1297</dim>
					<dim>2730</dim>
				</port>
			</output>
		</layer>
		<layer id="336" name="Constant_905633_compressed" type="Const" version="opset1">
			<data element_type="f16" shape="1, 1, 2730" offset="49000704" size="5460" />
			<output>
				<port id="0" precision="FP16">
					<dim>1</dim>
					<dim>1</dim>
					<dim>2730</dim>
				</port>
			</output>
		</layer>
		<layer id="337" name="Constant_905633" type="Convert" version="opset1">
			<data destination_type="f32" />
			<rt_info>
				<attribute name="decompression" version="0" />
			</rt_info>
			<input>
				<port id="0" precision="FP16">
					<dim>1</dim>
					<dim>1</dim>
					<dim>2730</dim>
				</port>
			</input>
			<output>
				<port id="1" precision="FP32">
					<dim>1</dim>
					<dim>1</dim>
					<dim>2730</dim>
				</port>
			</output>
		</layer>
		<layer id="338" name="__module.blocks.1.mlp.ffn_ln/aten::layer_norm/Multiply_1" type="Multiply" version="opset1">
			<data auto_broadcast="numpy" />
			<input>
				<port id="0" precision="FP32">
					<dim>-1</dim>
					<dim>1297</dim>
					<dim>2730</dim>
				</port>
				<port id="1" precision="FP32">
					<dim>1</dim>
					<dim>1</dim>
					<dim>2730</dim>
				</port>
			</input>
			<output>
				<port id="2" precision="FP32">
					<dim>-1</dim>
					<dim>1297</dim>
					<dim>2730</dim>
				</port>
			</output>
		</layer>
		<layer id="339" name="Constant_905634_compressed" type="Const" version="opset1">
			<data element_type="f16" shape="1, 1, 2730" offset="49006164" size="5460" />
			<output>
				<port id="0" precision="FP16">
					<dim>1</dim>
					<dim>1</dim>
					<dim>2730</dim>
				</port>
			</output>
		</layer>
		<layer id="340" name="Constant_905634" type="Convert" version="opset1">
			<data destination_type="f32" />
			<rt_info>
				<attribute name="decompression" version="0" />
			</rt_info>
			<input>
				<port id="0" precision="FP16">
					<dim>1</dim>
					<dim>1</dim>
					<dim>2730</dim>
				</port>
			</input>
			<output>
				<port id="1" precision="FP32">
					<dim>1</dim>
					<dim>1</dim>
					<dim>2730</dim>
				</port>
			</output>
		</layer>
		<layer id="341" name="__module.blocks.1.mlp.ffn_ln/aten::layer_norm/Add" type="Add" version="opset1">
			<data auto_broadcast="numpy" />
			<input>
				<port id="0" precision="FP32">
					<dim>-1</dim>
					<dim>1297</dim>
					<dim>2730</dim>
				</port>
				<port id="1" precision="FP32">
					<dim>1</dim>
					<dim>1</dim>
					<dim>2730</dim>
				</port>
			</input>
			<output>
				<port id="2" precision="FP32" names="543,544,input.45,x.41">
					<dim>-1</dim>
					<dim>1297</dim>
					<dim>2730</dim>
				</port>
			</output>
		</layer>
		<layer id="342" name="self.blocks.1.mlp.w3.weight_compressed" type="Const" version="opset1">
			<data element_type="f16" shape="1024, 2730" offset="49011624" size="5591040" />
			<output>
				<port id="0" precision="FP16" names="self.blocks.1.mlp.w3.weight">
					<dim>1024</dim>
					<dim>2730</dim>
				</port>
			</output>
		</layer>
		<layer id="343" name="self.blocks.1.mlp.w3.weight" type="Convert" version="opset1">
			<data destination_type="f32" />
			<rt_info>
				<attribute name="decompression" version="0" />
			</rt_info>
			<input>
				<port id="0" precision="FP16">
					<dim>1024</dim>
					<dim>2730</dim>
				</port>
			</input>
			<output>
				<port id="1" precision="FP32">
					<dim>1024</dim>
					<dim>2730</dim>
				</port>
			</output>
		</layer>
		<layer id="344" name="__module.blocks.1.mlp.w3/aten::linear/MatMul" type="MatMul" version="opset1">
			<data transpose_a="false" transpose_b="true" />
			<input>
				<port id="0" precision="FP32">
					<dim>-1</dim>
					<dim>1297</dim>
					<dim>2730</dim>
				</port>
				<port id="1" precision="FP32">
					<dim>1024</dim>
					<dim>2730</dim>
				</port>
			</input>
			<output>
				<port id="2" precision="FP32">
					<dim>-1</dim>
					<dim>1297</dim>
					<dim>1024</dim>
				</port>
			</output>
		</layer>
		<layer id="345" name="Constant_905635_compressed" type="Const" version="opset1">
			<data element_type="f16" shape="1, 1, 1024" offset="54602664" size="2048" />
			<output>
				<port id="0" precision="FP16">
					<dim>1</dim>
					<dim>1</dim>
					<dim>1024</dim>
				</port>
			</output>
		</layer>
		<layer id="346" name="Constant_905635" type="Convert" version="opset1">
			<data destination_type="f32" />
			<rt_info>
				<attribute name="decompression" version="0" />
			</rt_info>
			<input>
				<port id="0" precision="FP16">
					<dim>1</dim>
					<dim>1</dim>
					<dim>1024</dim>
				</port>
			</input>
			<output>
				<port id="1" precision="FP32">
					<dim>1</dim>
					<dim>1</dim>
					<dim>1024</dim>
				</port>
			</output>
		</layer>
		<layer id="347" name="__module.blocks.1.mlp.w3/aten::linear/Add" type="Add" version="opset1">
			<data auto_broadcast="numpy" />
			<input>
				<port id="0" precision="FP32">
					<dim>-1</dim>
					<dim>1297</dim>
					<dim>1024</dim>
				</port>
				<port id="1" precision="FP32">
					<dim>1</dim>
					<dim>1</dim>
					<dim>1024</dim>
				</port>
			</input>
			<output>
				<port id="2" precision="FP32" names="547,input.47">
					<dim>-1</dim>
					<dim>1297</dim>
					<dim>1024</dim>
				</port>
			</output>
		</layer>
		<layer id="348" name="__module.blocks.1/aten::add/Add_1" type="Add" version="opset1">
			<data auto_broadcast="numpy" />
			<input>
				<port id="0" precision="FP32">
					<dim>-1</dim>
					<dim>1297</dim>
					<dim>1024</dim>
				</port>
				<port id="1" precision="FP32">
					<dim>-1</dim>
					<dim>1297</dim>
					<dim>1024</dim>
				</port>
			</input>
			<output>
				<port id="2" precision="FP32" names="549,input.49">
					<dim>-1</dim>
					<dim>1297</dim>
					<dim>1024</dim>
				</port>
			</output>
		</layer>
		<layer id="349" name="__module.blocks.2.norm1/aten::layer_norm/Multiply" type="Const" version="opset1">
			<data element_type="i32" shape="1" offset="3864628" size="4" />
			<output>
				<port id="0" precision="I32">
					<dim>1</dim>
				</port>
			</output>
		</layer>
		<layer id="350" name="__module.blocks.2.norm1/aten::layer_norm/MVN" type="MVN" version="opset6">
			<data eps="9.9999999747524271e-07" normalize_variance="true" eps_mode="INSIDE_SQRT" />
			<input>
				<port id="0" precision="FP32">
					<dim>-1</dim>
					<dim>1297</dim>
					<dim>1024</dim>
				</port>
				<port id="1" precision="I32">
					<dim>1</dim>
				</port>
			</input>
			<output>
				<port id="2" precision="FP32">
					<dim>-1</dim>
					<dim>1297</dim>
					<dim>1024</dim>
				</port>
			</output>
		</layer>
		<layer id="351" name="Constant_905636_compressed" type="Const" version="opset1">
			<data element_type="f16" shape="1, 1, 1024" offset="54604712" size="2048" />
			<output>
				<port id="0" precision="FP16">
					<dim>1</dim>
					<dim>1</dim>
…
		<edge from-layer="3298" from-port="0" to-layer="3299" to-port="1" />
		<edge from-layer="3298" from-port="0" to-layer="3340" to-port="1" />
		<edge from-layer="3298" from-port="0" to-layer="3300" to-port="1" />
		<edge from-layer="3298" from-port="0" to-layer="3306" to-port="1" />
		<edge from-layer="3298" from-port="0" to-layer="3341" to-port="1" />
		<edge from-layer="3298" from-port="0" to-layer="3345" to-port="1" />
		<edge from-layer="3298" from-port="0" to-layer="3347" to-port="1" />
		<edge from-layer="3298" from-port="0" to-layer="3304" to-port="1" />
		<edge from-layer="3298" from-port="0" to-layer="3346" to-port="1" />
		<edge from-layer="3298" from-port="0" to-layer="3305" to-port="1" />
		<edge from-layer="3299" from-port="3" to-layer="3300" to-port="0" />
		<edge from-layer="3299" from-port="2" to-layer="3305" to-port="0" />
		<edge from-layer="3300" from-port="2" to-layer="3303" to-port="0" />
		<edge from-layer="3301" from-port="0" to-layer="3302" to-port="0" />
		<edge from-layer="3302" from-port="1" to-layer="3303" to-port="1" />
		<edge from-layer="3303" from-port="2" to-layer="3304" to-port="0" />
		<edge from-layer="3304" from-port="2" to-layer="3307" to-port="0" />
		<edge from-layer="3305" from-port="2" to-layer="3306" to-port="0" />
		<edge from-layer="3306" from-port="2" to-layer="3307" to-port="1" />
		<edge from-layer="3307" from-port="2" to-layer="3309" to-port="0" />
		<edge from-layer="3308" from-port="0" to-layer="3309" to-port="1" />
		<edge from-layer="3309" from-port="2" to-layer="3312" to-port="0" />
		<edge from-layer="3310" from-port="0" to-layer="3311" to-port="0" />
		<edge from-layer="3311" from-port="1" to-layer="3312" to-port="1" />
		<edge from-layer="3312" from-port="2" to-layer="3313" to-port="1" />
		<edge from-layer="3313" from-port="2" to-layer="3314" to-port="1" />
		<edge from-layer="3314" from-port="2" to-layer="3317" to-port="0" />
		<edge from-layer="3315" from-port="0" to-layer="3316" to-port="0" />
		<edge from-layer="3316" from-port="1" to-layer="3317" to-port="1" />
		<edge from-layer="3317" from-port="2" to-layer="3370" to-port="0" />
		<edge from-layer="3318" from-port="0" to-layer="3319" to-port="0" />
		<edge from-layer="3319" from-port="1" to-layer="3320" to-port="1" />
		<edge from-layer="3320" from-port="2" to-layer="3322" to-port="0" />
		<edge from-layer="3321" from-port="0" to-layer="3322" to-port="1" />
		<edge from-layer="3322" from-port="2" to-layer="3324" to-port="0" />
		<edge from-layer="3323" from-port="0" to-layer="3324" to-port="1" />
		<edge from-layer="3324" from-port="2" to-layer="3334" to-port="0" />
		<edge from-layer="3324" from-port="2" to-layer="3329" to-port="0" />
		<edge from-layer="3325" from-port="0" to-layer="3329" to-port="1" />
		<edge from-layer="3326" from-port="0" to-layer="3329" to-port="2" />
		<edge from-layer="3327" from-port="0" to-layer="3329" to-port="3" />
		<edge from-layer="3328" from-port="0" to-layer="3329" to-port="4" />
		<edge from-layer="3329" from-port="5" to-layer="3355" to-port="0" />
		<edge from-layer="3330" from-port="0" to-layer="3334" to-port="1" />
		<edge from-layer="3331" from-port="0" to-layer="3334" to-port="2" />
		<edge from-layer="3332" from-port="0" to-layer="3334" to-port="3" />
		<edge from-layer="3333" from-port="0" to-layer="3334" to-port="4" />
		<edge from-layer="3334" from-port="5" to-layer="3337" to-port="0" />
		<edge from-layer="3334" from-port="5" to-layer="3339" to-port="0" />
		<edge from-layer="3335" from-port="0" to-layer="3336" to-port="0" />
		<edge from-layer="3336" from-port="1" to-layer="3337" to-port="1" />
		<edge from-layer="3337" from-port="2" to-layer="3354" to-port="0" />
		<edge from-layer="3338" from-port="0" to-layer="3339" to-port="1" />
		<edge from-layer="3339" from-port="2" to-layer="3340" to-port="0" />
		<edge from-layer="3340" from-port="3" to-layer="3341" to-port="0" />
		<edge from-layer="3340" from-port="2" to-layer="3346" to-port="0" />
		<edge from-layer="3341" from-port="2" to-layer="3344" to-port="0" />
		<edge from-layer="3342" from-port="0" to-layer="3343" to-port="0" />
		<edge from-layer="3343" from-port="1" to-layer="3344" to-port="1" />
		<edge from-layer="3344" from-port="2" to-layer="3345" to-port="0" />
		<edge from-layer="3345" from-port="2" to-layer="3348" to-port="0" />
		<edge from-layer="3346" from-port="2" to-layer="3347" to-port="0" />
		<edge from-layer="3347" from-port="2" to-layer="3348" to-port="1" />
		<edge from-layer="3348" from-port="2" to-layer="3350" to-port="0" />
		<edge from-layer="3349" from-port="0" to-layer="3350" to-port="1" />
		<edge from-layer="3350" from-port="2" to-layer="3353" to-port="0" />
		<edge from-layer="3351" from-port="0" to-layer="3352" to-port="0" />
		<edge from-layer="3352" from-port="1" to-layer="3353" to-port="1" />
		<edge from-layer="3353" from-port="2" to-layer="3354" to-port="1" />
		<edge from-layer="3354" from-port="2" to-layer="3355" to-port="1" />
		<edge from-layer="3355" from-port="2" to-layer="3370" to-port="1" />
		<edge from-layer="3356" from-port="0" to-layer="3357" to-port="0" />
		<edge from-layer="3357" from-port="1" to-layer="3358" to-port="1" />
		<edge from-layer="3358" from-port="2" to-layer="3361" to-port="0" />
		<edge from-layer="3359" from-port="0" to-layer="3360" to-port="0" />
		<edge from-layer="3360" from-port="1" to-layer="3361" to-port="1" />
		<edge from-layer="3361" from-port="2" to-layer="3363" to-port="0" />
		<edge from-layer="3362" from-port="0" to-layer="3363" to-port="1" />
		<edge from-layer="3363" from-port="2" to-layer="3365" to-port="0" />
		<edge from-layer="3364" from-port="0" to-layer="3365" to-port="1" />
		<edge from-layer="3365" from-port="2" to-layer="3370" to-port="2" />
		<edge from-layer="3366" from-port="0" to-layer="3367" to-port="0" />
		<edge from-layer="3367" from-port="1" to-layer="3370" to-port="3" />
		<edge from-layer="3368" from-port="0" to-layer="3369" to-port="0" />
		<edge from-layer="3369" from-port="1" to-layer="3370" to-port="4" />
		<edge from-layer="3370" from-port="5" to-layer="3372" to-port="0" />
		<edge from-layer="3371" from-port="0" to-layer="3372" to-port="1" />
		<edge from-layer="3372" from-port="2" to-layer="3374" to-port="0" />
		<edge from-layer="3373" from-port="0" to-layer="3374" to-port="1" />
		<edge from-layer="3374" from-port="2" to-layer="3376" to-port="0" />
		<edge from-layer="3375" from-port="0" to-layer="3376" to-port="1" />
		<edge from-layer="3376" from-port="2" to-layer="3379" to-port="0" />
		<edge from-layer="3377" from-port="0" to-layer="3378" to-port="0" />
		<edge from-layer="3378" from-port="1" to-layer="3379" to-port="1" />
		<edge from-layer="3379" from-port="2" to-layer="3382" to-port="0" />
		<edge from-layer="3380" from-port="0" to-layer="3381" to-port="0" />
		<edge from-layer="3381" from-port="1" to-layer="3382" to-port="1" />
		<edge from-layer="3382" from-port="2" to-layer="3385" to-port="0" />
		<edge from-layer="3383" from-port="0" to-layer="3384" to-port="0" />
		<edge from-layer="3384" from-port="1" to-layer="3385" to-port="1" />
		<edge from-layer="3385" from-port="2" to-layer="3388" to-port="0" />
		<edge from-layer="3386" from-port="0" to-layer="3387" to-port="0" />
		<edge from-layer="3387" from-port="1" to-layer="3388" to-port="1" />
		<edge from-layer="3388" from-port="2" to-layer="3389" to-port="1" />
		<edge from-layer="3389" from-port="2" to-layer="3391" to-port="0" />
		<edge from-layer="3389" from-port="2" to-layer="3426" to-port="0" />
		<edge from-layer="3390" from-port="0" to-layer="3391" to-port="1" />
		<edge from-layer="3391" from-port="2" to-layer="3394" to-port="0" />
		<edge from-layer="3392" from-port="0" to-layer="3393" to-port="0" />
		<edge from-layer="3393" from-port="1" to-layer="3394" to-port="1" />
		<edge from-layer="3394" from-port="2" to-layer="3397" to-port="0" />
		<edge from-layer="3395" from-port="0" to-layer="3396" to-port="0" />
		<edge from-layer="3396" from-port="1" to-layer="3397" to-port="1" />
		<edge from-layer="3397" from-port="2" to-layer="3400" to-port="0" />
		<edge from-layer="3397" from-port="2" to-layer="3407" to-port="0" />
		<edge from-layer="3398" from-port="0" to-layer="3399" to-port="0" />
		<edge from-layer="3399" from-port="1" to-layer="3400" to-port="1" />
		<edge from-layer="3400" from-port="2" to-layer="3403" to-port="0" />
		<edge from-layer="3401" from-port="0" to-layer="3402" to-port="0" />
		<edge from-layer="3402" from-port="1" to-layer="3403" to-port="1" />
		<edge from-layer="3403" from-port="2" to-layer="3404" to-port="0" />
		<edge from-layer="3404" from-port="1" to-layer="3411" to-port="0" />
		<edge from-layer="3405" from-port="0" to-layer="3406" to-port="0" />
		<edge from-layer="3406" from-port="1" to-layer="3407" to-port="1" />
		<edge from-layer="3407" from-port="2" to-layer="3410" to-port="0" />
		<edge from-layer="3408" from-port="0" to-layer="3409" to-port="0" />
		<edge from-layer="3409" from-port="1" to-layer="3410" to-port="1" />
		<edge from-layer="3410" from-port="2" to-layer="3411" to-port="1" />
		<edge from-layer="3411" from-port="2" to-layer="3413" to-port="0" />
		<edge from-layer="3412" from-port="0" to-layer="3413" to-port="1" />
		<edge from-layer="3413" from-port="2" to-layer="3416" to-port="0" />
		<edge from-layer="3414" from-port="0" to-layer="3415" to-port="0" />
		<edge from-layer="3415" from-port="1" to-layer="3416" to-port="1" />
		<edge from-layer="3416" from-port="2" to-layer="3419" to-port="0" />
		<edge from-layer="3417" from-port="0" to-layer="3418" to-port="0" />
		<edge from-layer="3418" from-port="1" to-layer="3419" to-port="1" />
		<edge from-layer="3419" from-port="2" to-layer="3422" to-port="0" />
		<edge from-layer="3420" from-port="0" to-layer="3421" to-port="0" />
		<edge from-layer="3421" from-port="1" to-layer="3422" to-port="1" />
		<edge from-layer="3422" from-port="2" to-layer="3425" to-port="0" />
		<edge from-layer="3423" from-port="0" to-layer="3424" to-port="0" />
		<edge from-layer="3424" from-port="1" to-layer="3425" to-port="1" />
		<edge from-layer="3425" from-port="2" to-layer="3426" to-port="1" />
		<edge from-layer="3426" from-port="2" to-layer="3428" to-port="0" />
		<edge from-layer="3426" from-port="2" to-layer="3551" to-port="0" />
		<edge from-layer="3427" from-port="0" to-layer="3428" to-port="1" />
		<edge from-layer="3428" from-port="2" to-layer="3431" to-port="0" />
		<edge from-layer="3429" from-port="0" to-layer="3430" to-port="0" />
		<edge from-layer="3430" from-port="1" to-layer="3431" to-port="1" />
		<edge from-layer="3431" from-port="2" to-layer="3434" to-port="0" />
		<edge from-layer="3432" from-port="0" to-layer="3433" to-port="0" />
		<edge from-layer="3433" from-port="1" to-layer="3434" to-port="1" />
		<edge from-layer="3434" from-port="2" to-layer="3437" to-port="0" />
		<edge from-layer="3434" from-port="2" to-layer="3482" to-port="0" />
		<edge from-layer="3434" from-port="2" to-layer="3520" to-port="0" />
		<edge from-layer="3435" from-port="0" to-layer="3436" to-port="0" />
		<edge from-layer="3436" from-port="1" to-layer="3437" to-port="1" />
		<edge from-layer="3437" from-port="2" to-layer="3440" to-port="0" />
		<edge from-layer="3438" from-port="0" to-layer="3439" to-port="0" />
		<edge from-layer="3439" from-port="1" to-layer="3440" to-port="1" />
		<edge from-layer="3440" from-port="2" to-layer="3442" to-port="0" />
		<edge from-layer="3441" from-port="0" to-layer="3442" to-port="1" />
		<edge from-layer="3442" from-port="2" to-layer="3444" to-port="0" />
		<edge from-layer="3443" from-port="0" to-layer="3444" to-port="1" />
		<edge from-layer="3444" from-port="2" to-layer="3449" to-port="0" />
		<edge from-layer="3444" from-port="2" to-layer="3454" to-port="0" />
		<edge from-layer="3445" from-port="0" to-layer="3449" to-port="1" />
		<edge from-layer="3446" from-port="0" to-layer="3449" to-port="2" />
		<edge from-layer="3447" from-port="0" to-layer="3449" to-port="3" />
		<edge from-layer="3448" from-port="0" to-layer="3449" to-port="4" />
		<edge from-layer="3449" from-port="5" to-layer="3476" to-port="0" />
		<edge from-layer="3450" from-port="0" to-layer="3454" to-port="1" />
		<edge from-layer="3451" from-port="0" to-layer="3454" to-port="2" />
		<edge from-layer="3452" from-port="0" to-layer="3454" to-port="3" />
		<edge from-layer="3453" from-port="0" to-layer="3454" to-port="4" />
		<edge from-layer="3454" from-port="5" to-layer="3457" to-port="0" />
		<edge from-layer="3454" from-port="5" to-layer="3459" to-port="0" />
		<edge from-layer="3455" from-port="0" to-layer="3456" to-port="0" />
		<edge from-layer="3456" from-port="1" to-layer="3457" to-port="1" />
		<edge from-layer="3457" from-port="2" to-layer="3475" to-port="0" />
		<edge from-layer="3458" from-port="0" to-layer="3459" to-port="1" />
		<edge from-layer="3459" from-port="2" to-layer="3461" to-port="0" />
		<edge from-layer="3460" from-port="0" to-layer="3461" to-port="1" />
		<edge from-layer="3460" from-port="0" to-layer="3509" to-port="1" />
		<edge from-layer="3460" from-port="0" to-layer="3462" to-port="1" />
		<edge from-layer="3460" from-port="0" to-layer="3466" to-port="1" />
		<edge from-layer="3460" from-port="0" to-layer="3467" to-port="1" />
		<edge from-layer="3460" from-port="0" to-layer="3468" to-port="1" />
		<edge from-layer="3460" from-port="0" to-layer="3502" to-port="1" />
		<edge from-layer="3460" from-port="0" to-layer="3508" to-port="1" />
		<edge from-layer="3460" from-port="0" to-layer="3507" to-port="1" />
		<edge from-layer="3460" from-port="0" to-layer="3503" to-port="1" />
		<edge from-layer="3461" from-port="3" to-layer="3462" to-port="0" />
		<edge from-layer="3461" from-port="2" to-layer="3467" to-port="0" />
		<edge from-layer="3462" from-port="2" to-layer="3465" to-port="0" />
		<edge from-layer="3463" from-port="0" to-layer="3464" to-port="0" />
		<edge from-layer="3464" from-port="1" to-layer="3465" to-port="1" />
		<edge from-layer="3465" from-port="2" to-layer="3466" to-port="0" />
		<edge from-layer="3466" from-port="2" to-layer="3469" to-port="0" />
		<edge from-layer="3467" from-port="2" to-layer="3468" to-port="0" />
		<edge from-layer="3468" from-port="2" to-layer="3469" to-port="1" />
		<edge from-layer="3469" from-port="2" to-layer="3471" to-port="0" />
		<edge from-layer="3470" from-port="0" to-layer="3471" to-port="1" />
		<edge from-layer="3471" from-port="2" to-layer="3474" to-port="0" />
		<edge from-layer="3472" from-port="0" to-layer="3473" to-port="0" />
		<edge from-layer="3473" from-port="1" to-layer="3474" to-port="1" />
		<edge from-layer="3474" from-port="2" to-layer="3475" to-port="1" />
		<edge from-layer="3475" from-port="2" to-layer="3476" to-port="1" />
		<edge from-layer="3476" from-port="2" to-layer="3479" to-port="0" />
		<edge from-layer="3477" from-port="0" to-layer="3478" to-port="0" />
		<edge from-layer="3478" from-port="1" to-layer="3479" to-port="1" />
		<edge from-layer="3479" from-port="2" to-layer="3532" to-port="0" />
		<edge from-layer="3480" from-port="0" to-layer="3481" to-port="0" />
		<edge from-layer="3481" from-port="1" to-layer="3482" to-port="1" />
		<edge from-layer="3482" from-port="2" to-layer="3484" to-port="0" />
		<edge from-layer="3483" from-port="0" to-layer="3484" to-port="1" />
		<edge from-layer="3484" from-port="2" to-layer="3486" to-port="0" />
		<edge from-layer="3485" from-port="0" to-layer="3486" to-port="1" />
		<edge from-layer="3486" from-port="2" to-layer="3491" to-port="0" />
		<edge from-layer="3486" from-port="2" to-layer="3496" to-port="0" />
		<edge from-layer="3487" from-port="0" to-layer="3491" to-port="1" />
		<edge from-layer="3488" from-port="0" to-layer="3491" to-port="2" />
		<edge from-layer="3489" from-port="0" to-layer="3491" to-port="3" />
		<edge from-layer="3490" from-port="0" to-layer="3491" to-port="4" />
		<edge from-layer="3491" from-port="5" to-layer="3517" to-port="0" />
		<edge from-layer="3492" from-port="0" to-layer="3496" to-port="1" />
		<edge from-layer="3493" from-port="0" to-layer="3496" to-port="2" />
		<edge from-layer="3494" from-port="0" to-layer="3496" to-port="3" />
		<edge from-layer="3495" from-port="0" to-layer="3496" to-port="4" />
		<edge from-layer="3496" from-port="5" to-layer="3501" to-port="0" />
		<edge from-layer="3496" from-port="5" to-layer="3499" to-port="0" />
		<edge from-layer="3497" from-port="0" to-layer="3498" to-port="0" />
		<edge from-layer="3498" from-port="1" to-layer="3499" to-port="1" />
		<edge from-layer="3499" from-port="2" to-layer="3516" to-port="0" />
		<edge from-layer="3500" from-port="0" to-layer="3501" to-port="1" />
		<edge from-layer="3501" from-port="2" to-layer="3502" to-port="0" />
		<edge from-layer="3502" from-port="3" to-layer="3503" to-port="0" />
		<edge from-layer="3502" from-port="2" to-layer="3508" to-port="0" />
		<edge from-layer="3503" from-port="2" to-layer="3506" to-port="0" />
		<edge from-layer="3504" from-port="0" to-layer="3505" to-port="0" />
		<edge from-layer="3505" from-port="1" to-layer="3506" to-port="1" />
		<edge from-layer="3506" from-port="2" to-layer="3507" to-port="0" />
		<edge from-layer="3507" from-port="2" to-layer="3510" to-port="0" />
		<edge from-layer="3508" from-port="2" to-layer="3509" to-port="0" />
		<edge from-layer="3509" from-port="2" to-layer="3510" to-port="1" />
		<edge from-layer="3510" from-port="2" to-layer="3512" to-port="0" />
		<edge from-layer="3511" from-port="0" to-layer="3512" to-port="1" />
		<edge from-layer="3512" from-port="2" to-layer="3515" to-port="0" />
		<edge from-layer="3513" from-port="0" to-layer="3514" to-port="0" />
		<edge from-layer="3514" from-port="1" to-layer="3515" to-port="1" />
		<edge from-layer="3515" from-port="2" to-layer="3516" to-port="1" />
		<edge from-layer="3516" from-port="2" to-layer="3517" to-port="1" />
		<edge from-layer="3517" from-port="2" to-layer="3532" to-port="1" />
		<edge from-layer="3518" from-port="0" to-layer="3519" to-port="0" />
		<edge from-layer="3519" from-port="1" to-layer="3520" to-port="1" />
		<edge from-layer="3520" from-port="2" to-layer="3523" to-port="0" />
		<edge from-layer="3521" from-port="0" to-layer="3522" to-port="0" />
		<edge from-layer="3522" from-port="1" to-layer="3523" to-port="1" />
		<edge from-layer="3523" from-port="2" to-layer="3525" to-port="0" />
		<edge from-layer="3524" from-port="0" to-layer="3525" to-port="1" />
		<edge from-layer="3525" from-port="2" to-layer="3527" to-port="0" />
		<edge from-layer="3526" from-port="0" to-layer="3527" to-port="1" />
		<edge from-layer="3527" from-port="2" to-layer="3532" to-port="2" />
		<edge from-layer="3528" from-port="0" to-layer="3529" to-port="0" />
		<edge from-layer="3529" from-port="1" to-layer="3532" to-port="3" />
		<edge from-layer="3530" from-port="0" to-layer="3531" to-port="0" />
		<edge from-layer="3531" from-port="1" to-layer="3532" to-port="4" />
		<edge from-layer="3532" from-port="5" to-layer="3534" to-port="0" />
		<edge from-layer="3533" from-port="0" to-layer="3534" to-port="1" />
		<edge from-layer="3534" from-port="2" to-layer="3536" to-port="0" />
		<edge from-layer="3535" from-port="0" to-layer="3536" to-port="1" />
		<edge from-layer="3536" from-port="2" to-layer="3538" to-port="0" />
		<edge from-layer="3537" from-port="0" to-layer="3538" to-port="1" />
		<edge from-layer="3538" from-port="2" to-layer="3541" to-port="0" />
		<edge from-layer="3539" from-port="0" to-layer="3540" to-port="0" />
		<edge from-layer="3540" from-port="1" to-layer="3541" to-port="1" />
		<edge from-layer="3541" from-port="2" to-layer="3544" to-port="0" />
		<edge from-layer="3542" from-port="0" to-layer="3543" to-port="0" />
		<edge from-layer="3543" from-port="1" to-layer="3544" to-port="1" />
		<edge from-layer="3544" from-port="2" to-layer="3547" to-port="0" />
		<edge from-layer="3545" from-port="0" to-layer="3546" to-port="0" />
		<edge from-layer="3546" from-port="1" to-layer="3547" to-port="1" />
		<edge from-layer="3547" from-port="2" to-layer="3550" to-port="0" />
		<edge from-layer="3548" from-port="0" to-layer="3549" to-port="0" />
		<edge from-layer="3549" from-port="1" to-layer="3550" to-port="1" />
		<edge from-layer="3550" from-port="2" to-layer="3551" to-port="1" />
		<edge from-layer="3551" from-port="2" to-layer="3553" to-port="0" />
		<edge from-layer="3551" from-port="2" to-layer="3588" to-port="0" />
		<edge from-layer="3552" from-port="0" to-layer="3553" to-port="1" />
		<edge from-layer="3553" from-port="2" to-layer="3556" to-port="0" />
		<edge from-layer="3554" from-port="0" to-layer="3555" to-port="0" />
		<edge from-layer="3555" from-port="1" to-layer="3556" to-port="1" />
		<edge from-layer="3556" from-port="2" to-layer="3559" to-port="0" />
		<edge from-layer="3557" from-port="0" to-layer="3558" to-port="0" />
		<edge from-layer="3558" from-port="1" to-layer="3559" to-port="1" />
		<edge from-layer="3559" from-port="2" to-layer="3562" to-port="0" />
		<edge from-layer="3559" from-port="2" to-layer="3569" to-port="0" />
		<edge from-layer="3560" from-port="0" to-layer="3561" to-port="0" />
		<edge from-layer="3561" from-port="1" to-layer="3562" to-port="1" />
		<edge from-layer="3562" from-port="2" to-layer="3565" to-port="0" />
		<edge from-layer="3563" from-port="0" to-layer="3564" to-port="0" />
		<edge from-layer="3564" from-port="1" to-layer="3565" to-port="1" />
		<edge from-layer="3565" from-port="2" to-layer="3566" to-port="0" />
		<edge from-layer="3566" from-port="1" to-layer="3573" to-port="0" />
		<edge from-layer="3567" from-port="0" to-layer="3568" to-port="0" />
		<edge from-layer="3568" from-port="1" to-layer="3569" to-port="1" />
		<edge from-layer="3569" from-port="2" to-layer="3572" to-port="0" />
		<edge from-layer="3570" from-port="0" to-layer="3571" to-port="0" />
		<edge from-layer="3571" from-port="1" to-layer="3572" to-port="1" />
		<edge from-layer="3572" from-port="2" to-layer="3573" to-port="1" />
		<edge from-layer="3573" from-port="2" to-layer="3575" to-port="0" />
		<edge from-layer="3574" from-port="0" to-layer="3575" to-port="1" />
		<edge from-layer="3575" from-port="2" to-layer="3578" to-port="0" />
		<edge from-layer="3576" from-port="0" to-layer="3577" to-port="0" />
		<edge from-layer="3577" from-port="1" to-layer="3578" to-port="1" />
		<edge from-layer="3578" from-port="2" to-layer="3581" to-port="0" />
		<edge from-layer="3579" from-port="0" to-layer="3580" to-port="0" />
		<edge from-layer="3580" from-port="1" to-layer="3581" to-port="1" />
		<edge from-layer="3581" from-port="2" to-layer="3584" to-port="0" />
		<edge from-layer="3582" from-port="0" to-layer="3583" to-port="0" />
		<edge from-layer="3583" from-port="1" to-layer="3584" to-port="1" />
		<edge from-layer="3584" from-port="2" to-layer="3587" to-port="0" />
		<edge from-layer="3585" from-port="0" to-layer="3586" to-port="0" />
		<edge from-layer="3586" from-port="1" to-layer="3587" to-port="1" />
		<edge from-layer="3587" from-port="2" to-layer="3588" to-port="1" />
		<edge from-layer="3588" from-port="2" to-layer="3590" to-port="0" />
		<edge from-layer="3588" from-port="2" to-layer="3713" to-port="0" />
		<edge from-layer="3589" from-port="0" to-layer="3590" to-port="1" />
		<edge from-layer="3590" from-port="2" to-layer="3593" to-port="0" />
		<edge from-layer="3591" from-port="0" to-layer="3592" to-port="0" />
		<edge from-layer="3592" from-port="1" to-layer="3593" to-port="1" />
		<edge from-layer="3593" from-port="2" to-layer="3596" to-port="0" />
		<edge from-layer="3594" from-port="0" to-layer="3595" to-port="0" />
		<edge from-layer="3595" from-port="1" to-layer="3596" to-port="1" />
		<edge from-layer="3596" from-port="2" to-layer="3599" to-port="0" />
		<edge from-layer="3596" from-port="2" to-layer="3644" to-port="0" />
		<edge from-layer="3596" from-port="2" to-layer="3682" to-port="0" />
		<edge from-layer="3597" from-port="0" to-layer="3598" to-port="0" />
		<edge from-layer="3598" from-port="1" to-layer="3599" to-port="1" />
		<edge from-layer="3599" from-port="2" to-layer="3602" to-port="0" />
		<edge from-layer="3600" from-port="0" to-layer="3601" to-port="0" />
		<edge from-layer="3601" from-port="1" to-layer="3602" to-port="1" />
		<edge from-layer="3602" from-port="2" to-layer="3604" to-port="0" />
		<edge from-layer="3603" from-port="0" to-layer="3604" to-port="1" />
		<edge from-layer="3604" from-port="2" to-layer="3606" to-port="0" />
		<edge from-layer="3605" from-port="0" to-layer="3606" to-port="1" />
		<edge from-layer="3606" from-port="2" to-layer="3611" to-port="0" />
		<edge from-layer="3606" from-port="2" to-layer="3616" to-port="0" />
		<edge from-layer="3607" from-port="0" to-layer="3611" to-port="1" />
		<edge from-layer="3608" from-port="0" to-layer="3611" to-port="2" />
		<edge from-layer="3609" from-port="0" to-layer="3611" to-port="3" />
		<edge from-layer="3610" from-port="0" to-layer="3611" to-port="4" />
		<edge from-layer="3611" from-port="5" to-layer="3638" to-port="0" />
		<edge from-layer="3612" from-port="0" to-layer="3616" to-port="1" />
		<edge from-layer="3613" from-port="0" to-layer="3616" to-port="2" />
		<edge from-layer="3614" from-port="0" to-layer="3616" to-port="3" />
		<edge from-layer="3615" from-port="0" to-layer="3616" to-port="4" />
		<edge from-layer="3616" from-port="5" to-layer="3619" to-port="0" />
		<edge from-layer="3616" from-port="5" to-layer="3621" to-port="0" />
		<edge from-layer="3617" from-port="0" to-layer="3618" to-port="0" />
		<edge from-layer="3618" from-port="1" to-layer="3619" to-port="1" />
		<edge from-layer="3619" from-port="2" to-layer="3637" to-port="0" />
		<edge from-layer="3620" from-port="0" to-layer="3621" to-port="1" />
		<edge from-layer="3621" from-port="2" to-layer="3623" to-port="0" />
		<edge from-layer="3622" from-port="0" to-layer="3629" to-port="1" />
		<edge from-layer="3622" from-port="0" to-layer="3630" to-port="1" />
		<edge from-layer="3622" from-port="0" to-layer="3624" to-port="1" />
		<edge from-layer="3622" from-port="0" to-layer="3623" to-port="1" />
		<edge from-layer="3622" from-port="0" to-layer="3628" to-port="1" />
		<edge from-layer="3622" from-port="0" to-layer="3669" to-port="1" />
		<edge from-layer="3622" from-port="0" to-layer="3664" to-port="1" />
		<edge from-layer="3622" from-port="0" to-layer="3665" to-port="1" />
		<edge from-layer="3622" from-port="0" to-layer="3670" to-port="1" />
		<edge from-layer="3622" from-port="0" to-layer="3671" to-port="1" />
		<edge from-layer="3623" from-port="2" to-layer="3629" to-port="0" />
		<edge from-layer="3623" from-port="3" to-layer="3624" to-port="0" />
		<edge from-layer="3624" from-port="2" to-layer="3627" to-port="0" />
		<edge from-layer="3625" from-port="0" to-layer="3626" to-port="0" />
		<edge from-layer="3626" from-port="1" to-layer="3627" to-port="1" />
		<edge from-layer="3627" from-port="2" to-layer="3628" to-port="0" />
		<edge from-layer="3628" from-port="2" to-layer="3631" to-port="0" />
		<edge from-layer="3629" from-port="2" to-layer="3630" to-port="0" />
		<edge from-layer="3630" from-port="2" to-layer="3631" to-port="1" />
		<edge from-layer="3631" from-port="2" to-layer="3633" to-port="0" />
		<edge from-layer="3632" from-port="0" to-layer="3633" to-port="1" />
		<edge from-layer="3633" from-port="2" to-layer="3636" to-port="0" />
		<edge from-layer="3634" from-port="0" to-layer="3635" to-port="0" />
		<edge from-layer="3635" from-port="1" to-layer="3636" to-port="1" />
		<edge from-layer="3636" from-port="2" to-layer="3637" to-port="1" />
		<edge from-layer="3637" from-port="2" to-layer="3638" to-port="1" />
		<edge from-layer="3638" from-port="2" to-layer="3641" to-port="0" />
		<edge from-layer="3639" from-port="0" to-layer="3640" to-port="0" />
		<edge from-layer="3640" from-port="1" to-layer="3641" to-port="1" />
		<edge from-layer="3641" from-port="2" to-layer="3694" to-port="0" />
		<edge from-layer="3642" from-port="0" to-layer="3643" to-port="0" />
		<edge from-layer="3643" from-port="1" to-layer="3644" to-port="1" />
		<edge from-layer="3644" from-port="2" to-layer="3646" to-port="0" />
		<edge from-layer="3645" from-port="0" to-layer="3646" to-port="1" />
		<edge from-layer="3646" from-port="2" to-layer="3648" to-port="0" />
		<edge from-layer="3647" from-port="0" to-layer="3648" to-port="1" />
		<edge from-layer="3648" from-port="2" to-layer="3653" to-port="0" />
		<edge from-layer="3648" from-port="2" to-layer="3658" to-port="0" />
		<edge from-layer="3649" from-port="0" to-layer="3653" to-port="1" />
		<edge from-layer="3650" from-port="0" to-layer="3653" to-port="2" />
		<edge from-layer="3651" from-port="0" to-layer="3653" to-port="3" />
		<edge from-layer="3652" from-port="0" to-layer="3653" to-port="4" />
		<edge from-layer="3653" from-port="5" to-layer="3679" to-port="0" />
		<edge from-layer="3654" from-port="0" to-layer="3658" to-port="1" />
		<edge from-layer="3655" from-port="0" to-layer="3658" to-port="2" />
		<edge from-layer="3656" from-port="0" to-layer="3658" to-port="3" />
		<edge from-layer="3657" from-port="0" to-layer="3658" to-port="4" />
		<edge from-layer="3658" from-port="5" to-layer="3661" to-port="0" />
		<edge from-layer="3658" from-port="5" to-layer="3663" to-port="0" />
		<edge from-layer="3659" from-port="0" to-layer="3660" to-port="0" />
		<edge from-layer="3660" from-port="1" to-layer="3661" to-port="1" />
		<edge from-layer="3661" from-port="2" to-layer="3678" to-port="0" />
		<edge from-layer="3662" from-port="0" to-layer="3663" to-port="1" />
		<edge from-layer="3663" from-port="2" to-layer="3664" to-port="0" />
		<edge from-layer="3664" from-port="3" to-layer="3665" to-port="0" />
		<edge from-layer="3664" from-port="2" to-layer="3670" to-port="0" />
		<edge from-layer="3665" from-port="2" to-layer="3668" to-port="0" />
		<edge from-layer="3666" from-port="0" to-layer="3667" to-port="0" />
		<edge from-layer="3667" from-port="1" to-layer="3668" to-port="1" />
		<edge from-layer="3668" from-port="2" to-layer="3669" to-port="0" />
		<edge from-layer="3669" from-port="2" to-layer="3672" to-port="0" />
		<edge from-layer="3670" from-port="2" to-layer="3671" to-port="0" />
		<edge from-layer="3671" from-port="2" to-layer="3672" to-port="1" />
		<edge from-layer="3672" from-port="2" to-layer="3674" to-port="0" />
		<edge from-layer="3673" from-port="0" to-layer="3674" to-port="1" />
		<edge from-layer="3674" from-port="2" to-layer="3677" to-port="0" />
		<edge from-layer="3675" from-port="0" to-layer="3676" to-port="0" />
		<edge from-layer="3676" from-port="1" to-layer="3677" to-port="1" />
		<edge from-layer="3677" from-port="2" to-layer="3678" to-port="1" />
		<edge from-layer="3678" from-port="2" to-layer="3679" to-port="1" />
		<edge from-layer="3679" from-port="2" to-layer="3694" to-port="1" />
		<edge from-layer="3680" from-port="0" to-layer="3681" to-port="0" />
		<edge from-layer="3681" from-port="1" to-layer="3682" to-port="1" />
		<edge from-layer="3682" from-port="2" to-layer="3685" to-port="0" />
		<edge from-layer="3683" from-port="0" to-layer="3684" to-port="0" />
		<edge from-layer="3684" from-port="1" to-layer="3685" to-port="1" />
		<edge from-layer="3685" from-port="2" to-layer="3687" to-port="0" />
		<edge from-layer="3686" from-port="0" to-layer="3687" to-port="1" />
		<edge from-layer="3687" from-port="2" to-layer="3689" to-port="0" />
		<edge from-layer="3688" from-port="0" to-layer="3689" to-port="1" />
		<edge from-layer="3689" from-port="2" to-layer="3694" to-port="2" />
		<edge from-layer="3690" from-port="0" to-layer="3691" to-port="0" />
		<edge from-layer="3691" from-port="1" to-layer="3694" to-port="3" />
		<edge from-layer="3692" from-port="0" to-layer="3693" to-port="0" />
		<edge from-layer="3693" from-port="1" to-layer="3694" to-port="4" />
		<edge from-layer="3694" from-port="5" to-layer="3696" to-port="0" />
		<edge from-layer="3695" from-port="0" to-layer="3696" to-port="1" />
		<edge from-layer="3696" from-port="2" to-layer="3698" to-port="0" />
		<edge from-layer="3697" from-port="0" to-layer="3698" to-port="1" />
		<edge from-layer="3698" from-port="2" to-layer="3700" to-port="0" />
		<edge from-layer="3699" from-port="0" to-layer="3700" to-port="1" />
		<edge from-layer="3700" from-port="2" to-layer="3703" to-port="0" />
		<edge from-layer="3701" from-port="0" to-layer="3702" to-port="0" />
		<edge from-layer="3702" from-port="1" to-layer="3703" to-port="1" />
		<edge from-layer="3703" from-port="2" to-layer="3706" to-port="0" />
		<edge from-layer="3704" from-port="0" to-layer="3705" to-port="0" />
		<edge from-layer="3705" from-port="1" to-layer="3706" to-port="1" />
		<edge from-layer="3706" from-port="2" to-layer="3709" to-port="0" />
		<edge from-layer="3707" from-port="0" to-layer="3708" to-port="0" />
		<edge from-layer="3708" from-port="1" to-layer="3709" to-port="1" />
		<edge from-layer="3709" from-port="2" to-layer="3712" to-port="0" />
		<edge from-layer="3710" from-port="0" to-layer="3711" to-port="0" />
		<edge from-layer="3711" from-port="1" to-layer="3712" to-port="1" />
		<edge from-layer="3712" from-port="2" to-layer="3713" to-port="1" />
		<edge from-layer="3713" from-port="2" to-layer="3715" to-port="0" />
		<edge from-layer="3713" from-port="2" to-layer="3750" to-port="0" />
		<edge from-layer="3714" from-port="0" to-layer="3715" to-port="1" />
		<edge from-layer="3715" from-port="2" to-layer="3718" to-port="0" />
		<edge from-layer="3716" from-port="0" to-layer="3717" to-port="0" />
		<edge from-layer="3717" from-port="1" to-layer="3718" to-port="1" />
		<edge from-layer="3718" from-port="2" to-layer="3721" to-port="0" />
		<edge from-layer="3719" from-port="0" to-layer="3720" to-port="0" />
		<edge from-layer="3720" from-port="1" to-layer="3721" to-port="1" />
		<edge from-layer="3721" from-port="2" to-layer="3724" to-port="0" />
		<edge from-layer="3721" from-port="2" to-layer="3731" to-port="0" />
		<edge from-layer="3722" from-port="0" to-layer="3723" to-port="0" />
		<edge from-layer="3723" from-port="1" to-layer="3724" to-port="1" />
		<edge from-layer="3724" from-port="2" to-layer="3727" to-port="0" />
		<edge from-layer="3725" from-port="0" to-layer="3726" to-port="0" />
		<edge from-layer="3726" from-port="1" to-layer="3727" to-port="1" />
		<edge from-layer="3727" from-port="2" to-layer="3728" to-port="0" />
		<edge from-layer="3728" from-port="1" to-layer="3735" to-port="0" />
		<edge from-layer="3729" from-port="0" to-layer="3730" to-port="0" />
		<edge from-layer="3730" from-port="1" to-layer="3731" to-port="1" />
		<edge from-layer="3731" from-port="2" to-layer="3734" to-port="0" />
		<edge from-layer="3732" from-port="0" to-layer="3733" to-port="0" />
		<edge from-layer="3733" from-port="1" to-layer="3734" to-port="1" />
		<edge from-layer="3734" from-port="2" to-layer="3735" to-port="1" />
		<edge from-layer="3735" from-port="2" to-layer="3737" to-port="0" />
		<edge from-layer="3736" from-port="0" to-layer="3737" to-port="1" />
		<edge from-layer="3737" from-port="2" to-layer="3740" to-port="0" />
		<edge from-layer="3738" from-port="0" to-layer="3739" to-port="0" />
		<edge from-layer="3739" from-port="1" to-layer="3740" to-port="1" />
		<edge from-layer="3740" from-port="2" to-layer="3743" to-port="0" />
		<edge from-layer="3741" from-port="0" to-layer="3742" to-port="0" />
		<edge from-layer="3742" from-port="1" to-layer="3743" to-port="1" />
		<edge from-layer="3743" from-port="2" to-layer="3746" to-port="0" />
		<edge from-layer="3744" from-port="0" to-layer="3745" to-port="0" />
		<edge from-layer="3745" from-port="1" to-layer="3746" to-port="1" />
		<edge from-layer="3746" from-port="2" to-layer="3749" to-port="0" />
		<edge from-layer="3747" from-port="0" to-layer="3748" to-port="0" />
		<edge from-layer="3748" from-port="1" to-layer="3749" to-port="1" />
		<edge from-layer="3749" from-port="2" to-layer="3750" to-port="1" />
		<edge from-layer="3750" from-port="2" to-layer="3752" to-port="0" />
		<edge from-layer="3750" from-port="2" to-layer="3875" to-port="0" />
		<edge from-layer="3751" from-port="0" to-layer="3752" to-port="1" />
		<edge from-layer="3752" from-port="2" to-layer="3755" to-port="0" />
		<edge from-layer="3753" from-port="0" to-layer="3754" to-port="0" />
		<edge from-layer="3754" from-port="1" to-layer="3755" to-port="1" />
		<edge from-layer="3755" from-port="2" to-layer="3758" to-port="0" />
		<edge from-layer="3756" from-port="0" to-layer="3757" to-port="0" />
		<edge from-layer="3757" from-port="1" to-layer="3758" to-port="1" />
		<edge from-layer="3758" from-port="2" to-layer="3761" to-port="0" />
		<edge from-layer="3758" from-port="2" to-layer="3806" to-port="0" />
		<edge from-layer="3758" from-port="2" to-layer="3844" to-port="0" />
		<edge from-layer="3759" from-port="0" to-layer="3760" to-port="0" />
		<edge from-layer="3760" from-port="1" to-layer="3761" to-port="1" />
		<edge from-layer="3761" from-port="2" to-layer="3764" to-port="0" />
		<edge from-layer="3762" from-port="0" to-layer="3763" to-port="0" />
		<edge from-layer="3763" from-port="1" to-layer="3764" to-port="1" />
		<edge from-layer="3764" from-port="2" to-layer="3766" to-port="0" />
		<edge from-layer="3765" from-port="0" to-layer="3766" to-port="1" />
		<edge from-layer="3766" from-port="2" to-layer="3768" to-port="0" />
		<edge from-layer="3767" from-port="0" to-layer="3768" to-port="1" />
		<edge from-layer="3768" from-port="2" to-layer="3773" to-port="0" />
		<edge from-layer="3768" from-port="2" to-layer="3778" to-port="0" />
		<edge from-layer="3769" from-port="0" to-layer="3773" to-port="1" />
		<edge from-layer="3770" from-port="0" to-layer="3773" to-port="2" />
		<edge from-layer="3771" from-port="0" to-layer="3773" to-port="3" />
		<edge from-layer="3772" from-port="0" to-layer="3773" to-port="4" />
		<edge from-layer="3773" from-port="5" to-layer="3800" to-port="0" />
		<edge from-layer="3774" from-port="0" to-layer="3778" to-port="1" />
		<edge from-layer="3775" from-port="0" to-layer="3778" to-port="2" />
		<edge from-layer="3776" from-port="0" to-layer="3778" to-port="3" />
		<edge from-layer="3777" from-port="0" to-layer="3778" to-port="4" />
		<edge from-layer="3778" from-port="5" to-layer="3781" to-port="0" />
		<edge from-layer="3778" from-port="5" to-layer="3783" to-port="0" />
		<edge from-layer="3779" from-port="0" to-layer="3780" to-port="0" />
		<edge from-layer="3780" from-port="1" to-layer="3781" to-port="1" />
		<edge from-layer="3781" from-port="2" to-layer="3799" to-port="0" />
		<edge from-layer="3782" from-port="0" to-layer="3783" to-port="1" />
		<edge from-layer="3783" from-port="2" to-layer="3785" to-port="0" />
		<edge from-layer="3784" from-port="0" to-layer="3786" to-port="1" />
		<edge from-layer="3784" from-port="0" to-layer="3790" to-port="1" />
		<edge from-layer="3784" from-port="0" to-layer="3791" to-port="1" />
		<edge from-layer="3784" from-port="0" to-layer="3792" to-port="1" />
		<edge from-layer="3784" from-port="0" to-layer="3785" to-port="1" />
		<edge from-layer="3784" from-port="0" to-layer="3826" to-port="1" />
		<edge from-layer="3784" from-port="0" to-layer="3827" to-port="1" />
		<edge from-layer="3784" from-port="0" to-layer="3831" to-port="1" />
		<edge from-layer="3784" from-port="0" to-layer="3832" to-port="1" />
		<edge from-layer="3784" from-port="0" to-layer="3833" to-port="1" />
		<edge from-layer="3785" from-port="3" to-layer="3786" to-port="0" />
		<edge from-layer="3785" from-port="2" to-layer="3791" to-port="0" />
		<edge from-layer="3786" from-port="2" to-layer="3789" to-port="0" />
		<edge from-layer="3787" from-port="0" to-layer="3788" to-port="0" />
		<edge from-layer="3788" from-port="1" to-layer="3789" to-port="1" />
		<edge from-layer="3789" from-port="2" to-layer="3790" to-port="0" />
		<edge from-layer="3790" from-port="2" to-layer="3793" to-port="0" />
		<edge from-layer="3791" from-port="2" to-layer="3792" to-port="0" />
		<edge from-layer="3792" from-port="2" to-layer="3793" to-port="1" />
		<edge from-layer="3793" from-port="2" to-layer="3795" to-port="0" />
		<edge from-layer="3794" from-port="0" to-layer="3795" to-port="1" />
		<edge from-layer="3795" from-port="2" to-layer="3798" to-port="0" />
		<edge from-layer="3796" from-port="0" to-layer="3797" to-port="0" />
		<edge from-layer="3797" from-port="1" to-layer="3798" to-port="1" />
		<edge from-layer="3798" from-port="2" to-layer="3799" to-port="1" />
		<edge from-layer="3799" from-port="2" to-layer="3800" to-port="1" />
		<edge from-layer="3800" from-port="2" to-layer="3803" to-port="0" />
		<edge from-layer="3801" from-port="0" to-layer="3802" to-port="0" />
		<edge from-layer="3802" from-port="1" to-layer="3803" to-port="1" />
		<edge from-layer="3803" from-port="2" to-layer="3856" to-port="0" />
		<edge from-layer="3804" from-port="0" to-layer="3805" to-port="0" />
		<edge from-layer="3805" from-port="1" to-layer="3806" to-port="1" />
		<edge from-layer="3806" from-port="2" to-layer="3808" to-port="0" />
		<edge from-layer="3807" from-port="0" to-layer="3808" to-port="1" />
		<edge from-layer="3808" from-port="2" to-layer="3810" to-port="0" />
		<edge from-layer="3809" from-port="0" to-layer="3810" to-port="1" />
		<edge from-layer="3810" from-port="2" to-layer="3820" to-port="0" />
		<edge from-layer="3810" from-port="2" to-layer="3815" to-port="0" />
		<edge from-layer="3811" from-port="0" to-layer="3815" to-port="1" />
		<edge from-layer="3812" from-port="0" to-layer="3815" to-port="2" />
		<edge from-layer="3813" from-port="0" to-layer="3815" to-port="3" />
		<edge from-layer="3814" from-port="0" to-layer="3815" to-port="4" />
		<edge from-layer="3815" from-port="5" to-layer="3841" to-port="0" />
		<edge from-layer="3816" from-port="0" to-layer="3820" to-port="1" />
		<edge from-layer="3817" from-port="0" to-layer="3820" to-port="2" />
		<edge from-layer="3818" from-port="0" to-layer="3820" to-port="3" />
		<edge from-layer="3819" from-port="0" to-layer="3820" to-port="4" />
		<edge from-layer="3820" from-port="5" to-layer="3823" to-port="0" />
		<edge from-layer="3820" from-port="5" to-layer="3825" to-port="0" />
		<edge from-layer="3821" from-port="0" to-layer="3822" to-port="0" />
		<edge from-layer="3822" from-port="1" to-layer="3823" to-port="1" />
		<edge from-layer="3823" from-port="2" to-layer="3840" to-port="0" />
		<edge from-layer="3824" from-port="0" to-layer="3825" to-port="1" />
		<edge from-layer="3825" from-port="2" to-layer="3826" to-port="0" />
		<edge from-layer="3826" from-port="3" to-layer="3827" to-port="0" />
		<edge from-layer="3826" from-port="2" to-layer="3832" to-port="0" />
		<edge from-layer="3827" from-port="2" to-layer="3830" to-port="0" />
		<edge from-layer="3828" from-port="0" to-layer="3829" to-port="0" />
		<edge from-layer="3829" from-port="1" to-layer="3830" to-port="1" />
		<edge from-layer="3830" from-port="2" to-layer="3831" to-port="0" />
		<edge from-layer="3831" from-port="2" to-layer="3834" to-port="0" />
		<edge from-layer="3832" from-port="2" to-layer="3833" to-port="0" />
		<edge from-layer="3833" from-port="2" to-layer="3834" to-port="1" />
		<edge from-layer="3834" from-port="2" to-layer="3836" to-port="0" />
		<edge from-layer="3835" from-port="0" to-layer="3836" to-port="1" />
		<edge from-layer="3836" from-port="2" to-layer="3839" to-port="0" />
		<edge from-layer="3837" from-port="0" to-layer="3838" to-port="0" />
		<edge from-layer="3838" from-port="1" to-layer="3839" to-port="1" />
		<edge from-layer="3839" from-port="2" to-layer="3840" to-port="1" />
		<edge from-layer="3840" from-port="2" to-layer="3841" to-port="1" />
		<edge from-layer="3841" from-port="2" to-layer="3856" to-port="1" />
		<edge from-layer="3842" from-port="0" to-layer="3843" to-port="0" />
		<edge from-layer="3843" from-port="1" to-layer="3844" to-port="1" />
		<edge from-layer="3844" from-port="2" to-layer="3847" to-port="0" />
		<edge from-layer="3845" from-port="0" to-layer="3846" to-port="0" />
		<edge from-layer="3846" from-port="1" to-layer="3847" to-port="1" />
		<edge from-layer="3847" from-port="2" to-layer="3849" to-port="0" />
		<edge from-layer="3848" from-port="0" to-layer="3849" to-port="1" />
		<edge from-layer="3849" from-port="2" to-layer="3851" to-port="0" />
		<edge from-layer="3850" from-port="0" to-layer="3851" to-port="1" />
		<edge from-layer="3851" from-port="2" to-layer="3856" to-port="2" />
		<edge from-layer="3852" from-port="0" to-layer="3853" to-port="0" />
		<edge from-layer="3853" from-port="1" to-layer="3856" to-port="3" />
		<edge from-layer="3854" from-port="0" to-layer="3855" to-port="0" />
		<edge from-layer="3855" from-port="1" to-layer="3856" to-port="4" />
		<edge from-layer="3856" from-port="5" to-layer="3858" to-port="0" />
		<edge from-layer="3857" from-port="0" to-layer="3858" to-port="1" />
		<edge from-layer="3858" from-port="2" to-layer="3860" to-port="0" />
		<edge from-layer="3859" from-port="0" to-layer="3860" to-port="1" />
		<edge from-layer="3860" from-port="2" to-layer="3862" to-port="0" />
		<edge from-layer="3861" from-port="0" to-layer="3862" to-port="1" />
		<edge from-layer="3862" from-port="2" to-layer="3865" to-port="0" />
		<edge from-layer="3863" from-port="0" to-layer="3864" to-port="0" />
		<edge from-layer="3864" from-port="1" to-layer="3865" to-port="1" />
		<edge from-layer="3865" from-port="2" to-layer="3868" to-port="0" />
		<edge from-layer="3866" from-port="0" to-layer="3867" to-port="0" />
		<edge from-layer="3867" from-port="1" to-layer="3868" to-port="1" />
		<edge from-layer="3868" from-port="2" to-layer="3871" to-port="0" />
		<edge from-layer="3869" from-port="0" to-layer="3870" to-port="0" />
		<edge from-layer="3870" from-port="1" to-layer="3871" to-port="1" />
		<edge from-layer="3871" from-port="2" to-layer="3874" to-port="0" />
		<edge from-layer="3872" from-port="0" to-layer="3873" to-port="0" />
		<edge from-layer="3873" from-port="1" to-layer="3874" to-port="1" />
		<edge from-layer="3874" from-port="2" to-layer="3875" to-port="1" />
		<edge from-layer="3875" from-port="2" to-layer="3877" to-port="0" />
		<edge from-layer="3875" from-port="2" to-layer="3912" to-port="0" />
		<edge from-layer="3876" from-port="0" to-layer="3877" to-port="1" />
		<edge from-layer="3877" from-port="2" to-layer="3880" to-port="0" />
		<edge from-layer="3878" from-port="0" to-layer="3879" to-port="0" />
		<edge from-layer="3879" from-port="1" to-layer="3880" to-port="1" />
		<edge from-layer="3880" from-port="2" to-layer="3883" to-port="0" />
		<edge from-layer="3881" from-port="0" to-layer="3882" to-port="0" />
		<edge from-layer="3882" from-port="1" to-layer="3883" to-port="1" />
		<edge from-layer="3883" from-port="2" to-layer="3886" to-port="0" />
		<edge from-layer="3883" from-port="2" to-layer="3893" to-port="0" />
		<edge from-layer="3884" from-port="0" to-layer="3885" to-port="0" />
		<edge from-layer="3885" from-port="1" to-layer="3886" to-port="1" />
		<edge from-layer="3886" from-port="2" to-layer="3889" to-port="0" />
		<edge from-layer="3887" from-port="0" to-layer="3888" to-port="0" />
		<edge from-layer="3888" from-port="1" to-layer="3889" to-port="1" />
		<edge from-layer="3889" from-port="2" to-layer="3890" to-port="0" />
		<edge from-layer="3890" from-port="1" to-layer="3897" to-port="0" />
		<edge from-layer="3891" from-port="0" to-layer="3892" to-port="0" />
		<edge from-layer="3892" from-port="1" to-layer="3893" to-port="1" />
		<edge from-layer="3893" from-port="2" to-layer="3896" to-port="0" />
		<edge from-layer="3894" from-port="0" to-layer="3895" to-port="0" />
		<edge from-layer="3895" from-port="1" to-layer="3896" to-port="1" />
		<edge from-layer="3896" from-port="2" to-layer="3897" to-port="1" />
		<edge from-layer="3897" from-port="2" to-layer="3899" to-port="0" />
		<edge from-layer="3898" from-port="0" to-layer="3899" to-port="1" />
		<edge from-layer="3899" from-port="2" to-layer="3902" to-port="0" />
		<edge from-layer="3900" from-port="0" to-layer="3901" to-port="0" />
		<edge from-layer="3901" from-port="1" to-layer="3902" to-port="1" />
		<edge from-layer="3902" from-port="2" to-layer="3905" to-port="0" />
		<edge from-layer="3903" from-port="0" to-layer="3904" to-port="0" />
		<edge from-layer="3904" from-port="1" to-layer="3905" to-port="1" />
		<edge from-layer="3905" from-port="2" to-layer="3908" to-port="0" />
		<edge from-layer="3906" from-port="0" to-layer="3907" to-port="0" />
		<edge from-layer="3907" from-port="1" to-layer="3908" to-port="1" />
		<edge from-layer="3908" from-port="2" to-layer="3911" to-port="0" />
		<edge from-layer="3909" from-port="0" to-layer="3910" to-port="0" />
		<edge from-layer="3910" from-port="1" to-layer="3911" to-port="1" />
		<edge from-layer="3911" from-port="2" to-layer="3912" to-port="1" />
		<edge from-layer="3912" from-port="2" to-layer="3914" to-port="0" />
		<edge from-layer="3913" from-port="0" to-layer="3914" to-port="1" />
		<edge from-layer="3914" from-port="2" to-layer="3917" to-port="0" />
		<edge from-layer="3915" from-port="0" to-layer="3916" to-port="0" />
		<edge from-layer="3916" from-port="1" to-layer="3917" to-port="1" />
		<edge from-layer="3917" from-port="2" to-layer="3920" to-port="0" />
		<edge from-layer="3918" from-port="0" to-layer="3919" to-port="0" />
		<edge from-layer="3919" from-port="1" to-layer="3920" to-port="1" />
		<edge from-layer="3920" from-port="2" to-layer="3923" to-port="0" />
		<edge from-layer="3921" from-port="0" to-layer="3923" to-port="1" />
		<edge from-layer="3922" from-port="0" to-layer="3923" to-port="2" />
		<edge from-layer="3923" from-port="3" to-layer="3924" to-port="0" />
	</edges>
	<rt_info>
		<Runtime_version value="2025.1.0-18503-6fec06580ab-releases/2025/1" />
		<conversion_parameters>
			<framework value="pytorch" />
			<is_python_object value="True" />
		</conversion_parameters>
	</rt_info>
</net>
