<?xml version="1.0"?>
<net name="Model51" version="11">
	<layers>
		<layer id="0" name="x" type="Parameter" version="opset1">
			<data shape="?,?" element_type="i64" />
			<output>
				<port id="0" precision="I64" names="x">
					<dim>-1</dim>
					<dim>-1</dim>
				</port>
			</output>
		</layer>
		<layer id="1" name="__module.transformer.roberta.encoder.layers.23.mlp/aten::empty/Convert_compressed" type="Const" version="opset1">
			<data element_type="f16" shape="" offset="0" size="2" />
			<output>
				<port id="0" precision="FP16" />
			</output>
		</layer>
		<layer id="2" name="__module.transformer.roberta.encoder.layers.23.mlp/aten::empty/Convert" type="Convert" version="opset1">
			<data destination_type="f32" />
			<rt_info>
				<attribute name="decompression" version="0" />
			</rt_info>
			<input>
				<port id="0" precision="FP16" />
			</input>
			<output>
				<port id="1" precision="FP32" />
			</output>
		</layer>
		<layer id="3" name="__module.transformer.roberta.embeddings/aten::size/ShapeOf" type="ShapeOf" version="opset3">
			<data output_type="i64" />
			<input>
				<port id="0" precision="I64">
					<dim>-1</dim>
					<dim>-1</dim>
				</port>
			</input>
			<output>
				<port id="1" precision="I64">
					<dim>2</dim>
				</port>
			</output>
		</layer>
		<layer id="4" name="Constant_341392" type="Const" version="opset1">
			<data element_type="i64" shape="1" offset="2" size="8" />
			<rt_info>
				<attribute name="precise" version="0" />
			</rt_info>
			<output>
				<port id="0" precision="I64">
					<dim>1</dim>
				</port>
			</output>
		</layer>
		<layer id="5" name="__module.transformer.roberta.embeddings/prim::ListConstruct" type="Concat" version="opset1">
			<data axis="0" />
			<input>
				<port id="0" precision="I64">
					<dim>2</dim>
				</port>
				<port id="1" precision="I64">
					<dim>1</dim>
				</port>
			</input>
			<output>
				<port id="2" precision="I64">
					<dim>3</dim>
				</port>
			</output>
		</layer>
		<layer id="6" name="__module.transformer.roberta.encoder.layers.23.mlp/aten::empty/Broadcast_1" type="Broadcast" version="opset3">
			<data mode="numpy" />
			<input>
				<port id="0" precision="FP32" />
				<port id="1" precision="I64">
					<dim>3</dim>
				</port>
			</input>
			<output>
				<port id="2" precision="FP32" names="1023_1,1113_1,1263_1,1353_1,1503_1,1593_1,1743_1,1833_1,1983_1,2073_1,2223_1,2313_1,2463_1,2553_1,2703_1,2793_1,2943_1,3033_1,303_2,3183_1,3273_1,3423_1,3513_1,3663_1,3753_1,3903_1,393_1,3993_1,4143_1,4233_1,4383_1,4473_1,4623_1,4713_1,4863_1,4953_1,5103_1,5193_1,5343_1,5433_1,543_1,5583_1,5673_1,5823_1,5913_1,633_1,69_1,783_1,873_1">
					<dim>-1</dim>
					<dim>-1</dim>
					<dim>1024</dim>
				</port>
			</output>
		</layer>
		<layer id="7" name="aten::full/Convert" type="Const" version="opset1">
			<data element_type="i32" shape="" offset="10" size="4" />
			<output>
				<port id="0" precision="I32" />
			</output>
		</layer>
		<layer id="8" name="Constant_674382" type="Const" version="opset1">
			<data element_type="i64" shape="1" offset="14" size="8" />
			<rt_info>
				<attribute name="precise" version="0" />
			</rt_info>
			<output>
				<port id="0" precision="I64">
					<dim>1</dim>
				</port>
			</output>
		</layer>
		<layer id="9" name="Constant_674383" type="Const" version="opset1">
			<data element_type="i64" shape="" offset="14" size="8" />
			<rt_info>
				<attribute name="precise" version="0" />
			</rt_info>
			<output>
				<port id="0" precision="I64" />
			</output>
		</layer>
		<layer id="10" name="Gather_674384" type="Gather" version="opset8">
			<data batch_dims="0" />
			<input>
				<port id="0" precision="I64">
					<dim>2</dim>
				</port>
				<port id="1" precision="I64">
					<dim>1</dim>
				</port>
				<port id="2" precision="I64" />
			</input>
			<output>
				<port id="3" precision="I64" names="66,6_1,8">
					<dim>1</dim>
				</port>
			</output>
		</layer>
		<layer id="11" name="aten::full/Broadcast" type="Broadcast" version="opset3">
			<data mode="numpy" />
			<input>
				<port id="0" precision="I32" />
				<port id="1" precision="I64">
					<dim>1</dim>
				</port>
			</input>
			<output>
				<port id="2" precision="I32" names="15_1">
					<dim>-1</dim>
				</port>
			</output>
		</layer>
		<layer id="12" name="__module.transformer.roberta.embeddings/aten::_unique2/Unique" type="Unique" version="opset10">
			<data sorted="true" index_element_type="i64" count_element_type="i64" />
			<input>
				<port id="0" precision="I32">
					<dim>-1</dim>
				</port>
			</input>
			<output>
				<port id="1" precision="I32" names="1017,104_1,1066,1107,1164,1257,1306,1347,1404,1497,1546,1587,1644,1737,1786,1827,1884,1977,2026,204_1,2067,2124,2217,2266,2307,2364,2457,2506,2547,2604,2697,2746,2787,2844,2937,297_2,2986,3027,3084,3177,3226,3267,3324,3417,3466,346_2,3507,3564,3657,3706,3747,3804,387,3897,3946,3987,4044,4137,4186,4227,4284,4377,4426,444,4467,4524,4617,4666,4707,4764,4857,4906,4947,5004,5097,5146,5187,5244,5337,537,5386,5427,5484,5577,5626,5667,5724,5817,586,5866,5907,627,63_1,684,777,826,867,924">
					<dim>-1</dim>
				</port>
				<port id="2" precision="I64">
					<dim>-1</dim>
				</port>
				<port id="3" precision="I64">
					<dim>-1</dim>
				</port>
				<port id="4" precision="I64">
					<dim>-1</dim>
				</port>
			</output>
		</layer>
		<layer id="13" name="33" type="Const" version="opset1">
			<data element_type="i64" shape="" offset="14" size="8" />
			<output>
				<port id="0" precision="I64" names="33_1" />
			</output>
		</layer>
		<layer id="14" name="__module.transformer.roberta.embeddings/prim::ListUnpack/Squeeze" type="Squeeze" version="opset1">
			<input>
				<port id="0" precision="I32">
					<dim>-1</dim>
				</port>
				<port id="1" precision="I64" />
			</input>
			<output>
				<port id="2" precision="I32" names="1025,1074,108_1,1115,1172,1265,1314,1355,1412,1505,1554,1595,1652,1745,1794,1835,1892,1985,2034,2075,212,2132,2225,2274,2315,2372,2465,2514,2555,2612,2705,2754,2795,2852,2945,2994,3035,305_2,3092,3185,3234,3275,3332,3425,3474,3515,354,3572,3665,3714,3755,3812,3905,395,3954,3995,4052,4145,4194,4235,4292,4385,4434,4475,452,4532,4625,4674,4715,4772,4865,4914,4955,5012,5105,5154,5195,5252,5345,5394,5435,545,5492,5585,5634,5675,5732,5825,5874,5915,594,635,692,71_1,785,834,875,932,task_id,task_id.101,task_id.103,task_id.105,task_id.107,task_id.109,task_id.11,task_id.111,task_id.113,task_id.115,task_id.117,task_id.119,task_id.121,task_id.123,task_id.125,task_id.127,task_id.129,task_id.13,task_id.131,task_id.133,task_id.135,task_id.137,task_id.139,task_id.141,task_id.143,task_id.145,task_id.147,task_id.149,task_id.15,task_id.151,task_id.153,task_id.155,task_id.157,task_id.159,task_id.161,task_id.163,task_id.165,task_id.167,task_id.169,task_id.17,task_id.171,task_id.173,task_id.175,task_id.177,task_id.179,task_id.181,task_id.183,task_id.185,task_id.187,task_id.189,task_id.19,task_id.191,task_id.21,task_id.23,task_id.25,task_id.27,task_id.29,task_id.3,task_id.31,task_id.33,task_id.35,task_id.37,task_id.39,task_id.41,task_id.43,task_id.45,task_id.47,task_id.49,task_id.51,task_id.53,task_id.55,task_id.57,task_id.59,task_id.61,task_id.63,task_id.65,task_id.67,task_id.69,task_id.7,task_id.71,task_id.73,task_id.75,task_id.77,task_id.79,task_id.81,task_id.83,task_id.85,task_id.87,task_id.89,task_id.9,task_id.91,task_id.93,task_id.95,task_id.97,task_id.99" />
			</output>
		</layer>
		<layer id="15" name="__module.transformer.roberta.embeddings/aten::eq/Equal" type="Equal" version="opset1">
			<data auto_broadcast="numpy" />
			<input>
				<port id="0" precision="I32">
					<dim>-1</dim>
				</port>
				<port id="1" precision="I32" />
			</input>
			<output>
				<port id="2" precision="BOOL" names="1028,1077,1118,1175,1268,1317,132_1,1358,1415,1508,1557,1598,1655,1748,1797,1838,1895,1988,2037,2078,2135,215_1,2228,2277,2318,2375,2468,2517,2558,2615,2708,2757,2798,2855,2948,2997,3038,308_2,3095,3188,3237,3278,3335,3428,3477,3518,357,3575,3668,3717,3758,3815,3908,3957,398,3998,4055,4148,4197,4238,4295,4388,4437,4478,4535,455,4628,4677,4718,4775,4868,4917,4958,5015,5108,5157,5198,5255,5348,5397,5438,548,5495,5588,5637,5678,5735,5828,5877,5918,597,638,695,74_1,788,837,878,935">
					<dim>-1</dim>
				</port>
			</output>
		</layer>
		<layer id="16" name="__module.transformer.roberta.embeddings/prim::ListUnpack/NonZero" type="NonZero" version="opset3">
			<data output_type="i64" />
			<input>
				<port id="0" precision="BOOL">
					<dim>-1</dim>
				</port>
			</input>
			<output>
				<port id="1" precision="I64">
					<dim>1</dim>
					<dim>-1</dim>
				</port>
			</output>
		</layer>
		<layer id="17" name="Constant_445685" type="Const" version="opset1">
			<data element_type="i32" shape="" offset="10" size="4" />
			<output>
				<port id="0" precision="I32" />
			</output>
		</layer>
		<layer id="18" name="__module.transformer.roberta.embeddings/prim::ListUnpack/Squeeze_1" type="Squeeze" version="opset1">
			<input>
				<port id="0" precision="I64">
					<dim>1</dim>
					<dim>-1</dim>
				</port>
				<port id="1" precision="I32" />
			</input>
			<output>
				<port id="2" precision="I64" names="1030,1079,1120,1177,1270,1319,134_1,1360,1417,1510,1559,1600,1657,1750,1799,1840,1897,1990,2039,2080,2137,217_1,2230,2279,2320,2377,2470,2519,2560,2617,2710,2759,2800,2857,2950,2999,3040,3097,310_2,3190,3239,3280,3337,3430,3479,3520,3577,359,3670,3719,3760,3817,3910,3959,400,4000,4057,4150,4199,4240,4297,4390,4439,4480,4537,457,4630,4679,4720,4777,4870,4919,4960,5017,5110,5159,5200,5257,5350,5399,5440,5497,550,5590,5639,5680,5737,5830,5879,5920,599,640,697,76,790,839,880,937,task_indices,task_indices.1,task_indices.101,task_indices.103,task_indices.105,task_indices.107,task_indices.109,task_indices.11,task_indices.111,task_indices.113,task_indices.115,task_indices.117,task_indices.119,task_indices.121,task_indices.123,task_indices.125,task_indices.127,task_indices.129,task_indices.13,task_indices.131,task_indices.133,task_indices.135,task_indices.137,task_indices.139,task_indices.141,task_indices.143,task_indices.145,task_indices.147,task_indices.149,task_indices.15,task_indices.151,task_indices.153,task_indices.155,task_indices.157,task_indices.159,task_indices.161,task_indices.163,task_indices.165,task_indices.167,task_indices.169,task_indices.17,task_indices.171,task_indices.173,task_indices.175,task_indices.177,task_indices.179,task_indices.181,task_indices.183,task_indices.185,task_indices.187,task_indices.189,task_indices.19,task_indices.191,task_indices.193,task_indices.21,task_indices.23,task_indices.25,task_indices.27,task_indices.29,task_indices.31,task_indices.33,task_indices.35,task_indices.37,task_indices.39,task_indices.41,task_indices.43,task_indices.45,task_indices.47,task_indices.49,task_indices.51,task_indices.53,task_indices.55,task_indices.57,task_indices.59,task_indices.61,task_indices.63,task_indices.65,task_indices.67,task_indices.69,task_indices.71,task_indices.73,task_indices.75,task_indices.77,task_indices.79,task_indices.81,task_indices.83,task_indices.85,task_indices.87,task_indices.89,task_indices.9,task_indices.91,task_indices.93,task_indices.95,task_indices.97,task_indices.99">
					<dim>-1</dim>
				</port>
			</output>
		</layer>
		<layer id="19" name="Convert_676752" type="Convert" version="opset1">
			<data destination_type="i32" />
			<input>
				<port id="0" precision="I64">
					<dim>3</dim>
				</port>
			</input>
			<output>
				<port id="1" precision="I32">
					<dim>3</dim>
				</port>
			</output>
		</layer>
		<layer id="20" name="Constant_475131" type="Const" version="opset1">
			<data element_type="i32" shape="" offset="10" size="4" />
			<output>
				<port id="0" precision="I32" />
			</output>
		</layer>
		<layer id="21" name="__module.transformer.roberta.encoder.layers.23.mlp/aten::index_put_/Gather_1" type="Gather" version="opset8">
			<data batch_dims="0" />
			<input>
				<port id="0" precision="I32">
					<dim>3</dim>
				</port>
				<port id="1" precision="I32" />
				<port id="2" precision="I32" />
			</input>
			<output>
				<port id="3" precision="I32" />
			</output>
		</layer>
		<layer id="22" name="__module.transformer.roberta.encoder.layers.23.mlp/aten::index_put_/ConvertLike_2" type="Convert" version="opset1">
			<data destination_type="i64" />
			<input>
				<port id="0" precision="I32" />
			</input>
			<output>
				<port id="1" precision="I64" />
			</output>
		</layer>
		<layer id="23" name="__module.transformer.roberta.encoder.layers.23.mlp/aten::index_put_/Add_1" type="Add" version="opset1">
			<data auto_broadcast="numpy" />
			<input>
				<port id="0" precision="I64">
					<dim>-1</dim>
				</port>
				<port id="1" precision="I64" />
			</input>
			<output>
				<port id="2" precision="I64">
					<dim>-1</dim>
				</port>
			</output>
		</layer>
		<layer id="24" name="__module.transformer.roberta.encoder.layers.23.mlp/aten::index_put_/Mod_1" type="Mod" version="opset1">
			<data auto_broadcast="numpy" />
			<input>
				<port id="0" precision="I64">
					<dim>-1</dim>
				</port>
				<port id="1" precision="I64" />
			</input>
			<output>
				<port id="2" precision="I64">
					<dim>-1</dim>
				</port>
			</output>
		</layer>
		<layer id="25" name="Constant_475134" type="Const" version="opset1">
			<data element_type="i32" shape="" offset="22" size="4" />
			<output>
				<port id="0" precision="I32" />
			</output>
		</layer>
		<layer id="26" name="__module.transformer.roberta.encoder.layers.23.mlp/aten::index_put_/Unsqueeze_1" type="Unsqueeze" version="opset1">
			<input>
				<port id="0" precision="I64">
					<dim>-1</dim>
				</port>
				<port id="1" precision="I32" />
			</input>
			<output>
				<port id="2" precision="I64">
					<dim>-1</dim>
					<dim>1</dim>
				</port>
			</output>
		</layer>
		<layer id="27" name="__module.transformer.roberta.encoder.layers.23.mlp/aten::empty/Convert_1_compressed" type="Const" version="opset1">
			<data element_type="f16" shape="" offset="0" size="2" />
			<output>
				<port id="0" precision="FP16" />
			</output>
		</layer>
		<layer id="28" name="__module.transformer.roberta.encoder.layers.23.mlp/aten::empty/Convert_1" type="Convert" version="opset1">
			<data destination_type="f32" />
			<rt_info>
				<attribute name="decompression" version="0" />
			</rt_info>
			<input>
				<port id="0" precision="FP16" />
			</input>
			<output>
				<port id="1" precision="FP32" />
			</output>
		</layer>
		<layer id="29" name="Constant_344955" type="Const" version="opset1">
			<data element_type="i64" shape="1" offset="26" size="8" />
			<rt_info>
				<attribute name="precise" version="0" />
			</rt_info>
			<output>
				<port id="0" precision="I64">
					<dim>1</dim>
				</port>
			</output>
		</layer>
		<layer id="30" name="__module.transformer.roberta.encoder.layers.0.mlp/prim::ListConstruct" type="Concat" version="opset1">
			<data axis="0" />
			<input>
				<port id="0" precision="I64">
					<dim>2</dim>
				</port>
				<port id="1" precision="I64">
					<dim>1</dim>
				</port>
			</input>
			<output>
				<port id="2" precision="I64">
					<dim>3</dim>
				</port>
			</output>
		</layer>
		<layer id="31" name="__module.transformer.roberta.encoder.layers.23.mlp/aten::empty/Broadcast" type="Broadcast" version="opset3">
			<data mode="numpy" />
			<input>
				<port id="0" precision="FP32" />
				<port id="1" precision="I64">
					<dim>3</dim>
				</port>
			</input>
			<output>
				<port id="2" precision="FP32" names="1072_1,1312_1,1552_1,1792_1,2032_1,2272_1,2512_1,2752_1,2992_1,3232_1,3472_1,352_1,3712_1,3952_1,4192_1,4432_1,4672_1,4912_1,5152_1,5392_1,5632_1,5872_1,592_1,832_1">
					<dim>-1</dim>
					<dim>-1</dim>
					<dim>4096</dim>
				</port>
			</output>
		</layer>
		<layer id="32" name="Convert_676739" type="Convert" version="opset1">
			<data destination_type="i32" />
			<input>
				<port id="0" precision="I64">
					<dim>3</dim>
				</port>
			</input>
			<output>
				<port id="1" precision="I32">
					<dim>3</dim>
				</port>
			</output>
		</layer>
		<layer id="33" name="Constant_475107" type="Const" version="opset1">
			<data element_type="i32" shape="" offset="10" size="4" />
			<output>
				<port id="0" precision="I32" />
			</output>
		</layer>
		<layer id="34" name="__module.transformer.roberta.encoder.layers.23.mlp/aten::index_put_/Gather" type="Gather" version="opset8">
			<data batch_dims="0" />
			<input>
				<port id="0" precision="I32">
					<dim>3</dim>
				</port>
				<port id="1" precision="I32" />
				<port id="2" precision="I32" />
			</input>
			<output>
				<port id="3" precision="I32" />
			</output>
		</layer>
		<layer id="35" name="__module.transformer.roberta.encoder.layers.23.mlp/aten::index_put_/ConvertLike" type="Convert" version="opset1">
			<data destination_type="i64" />
			<input>
				<port id="0" precision="I32" />
			</input>
			<output>
				<port id="1" precision="I64" />
			</output>
		</layer>
		<layer id="36" name="__module.transformer.roberta.encoder.layers.23.mlp/aten::index_put_/Add" type="Add" version="opset1">
			<data auto_broadcast="numpy" />
			<input>
				<port id="0" precision="I64">
					<dim>-1</dim>
				</port>
				<port id="1" precision="I64" />
			</input>
			<output>
				<port id="2" precision="I64">
					<dim>-1</dim>
				</port>
			</output>
		</layer>
		<layer id="37" name="__module.transformer.roberta.encoder.layers.23.mlp/aten::index_put_/Mod" type="Mod" version="opset1">
			<data auto_broadcast="numpy" />
			<input>
				<port id="0" precision="I64">
					<dim>-1</dim>
				</port>
				<port id="1" precision="I64" />
			</input>
			<output>
				<port id="2" precision="I64">
					<dim>-1</dim>
				</port>
			</output>
		</layer>
		<layer id="38" name="Constant_475110" type="Const" version="opset1">
			<data element_type="i32" shape="" offset="22" size="4" />
			<output>
				<port id="0" precision="I32" />
			</output>
		</layer>
		<layer id="39" name="__module.transformer.roberta.encoder.layers.23.mlp/aten::index_put_/Unsqueeze" type="Unsqueeze" version="opset1">
			<input>
				<port id="0" precision="I64">
					<dim>-1</dim>
				</port>
				<port id="1" precision="I32" />
			</input>
			<output>
				<port id="2" precision="I64">
					<dim>-1</dim>
					<dim>1</dim>
				</port>
			</output>
		</layer>
		<layer id="40" name="__module.transformer.roberta.encoder.layers.23.mixer/aten::empty/Convert_1_compressed" type="Const" version="opset1">
			<data element_type="f16" shape="" offset="0" size="2" />
			<output>
				<port id="0" precision="FP16" />
			</output>
		</layer>
		<layer id="41" name="__module.transformer.roberta.encoder.layers.23.mixer/aten::empty/Convert_1" type="Convert" version="opset1">
			<data destination_type="f32" />
			<rt_info>
				<attribute name="decompression" version="0" />
			</rt_info>
			<input>
				<port id="0" precision="FP16" />
			</input>
			<output>
				<port id="1" precision="FP32" />
			</output>
		</layer>
		<layer id="42" name="Constant_341637" type="Const" version="opset1">
			<data element_type="i64" shape="1" offset="34" size="8" />
			<rt_info>
				<attribute name="precise" version="0" />
			</rt_info>
			<output>
				<port id="0" precision="I64">
					<dim>1</dim>
				</port>
			</output>
		</layer>
		<layer id="43" name="__module.transformer.roberta.encoder.layers.0.mixer/prim::ListConstruct" type="Concat" version="opset1">
			<data axis="0" />
			<input>
				<port id="0" precision="I64">
					<dim>2</dim>
				</port>
				<port id="1" precision="I64">
					<dim>1</dim>
				</port>
			</input>
			<output>
				<port id="2" precision="I64">
					<dim>3</dim>
				</port>
			</output>
		</layer>
		<layer id="44" name="__module.transformer.roberta.encoder.layers.23.mixer/aten::empty/Broadcast" type="Broadcast" version="opset3">
			<data mode="numpy" />
			<input>
				<port id="0" precision="FP32" />
				<port id="1" precision="I64">
					<dim>3</dim>
				</port>
			</input>
			<output>
				<port id="2" precision="FP32" names="1170_1,1410_1,1650_1,1890_1,210_1,2130_1,2370_1,2610_1,2850_1,3090_1,3330_1,3570_1,3810_1,4050_1,4290_1,450_1,4530_1,4770_1,5010_1,5250_1,5490_1,5730_1,690_1,930_1">
					<dim>-1</dim>
					<dim>-1</dim>
					<dim>3072</dim>
				</port>
			</output>
		</layer>
		<layer id="45" name="Convert_676667" type="Convert" version="opset1">
			<data destination_type="i32" />
			<input>
				<port id="0" precision="I64">
					<dim>3</dim>
				</port>
			</input>
			<output>
				<port id="1" precision="I32">
					<dim>3</dim>
				</port>
			</output>
		</layer>
		<layer id="46" name="Constant_475059" type="Const" version="opset1">
			<data element_type="i32" shape="" offset="10" size="4" />
			<output>
				<port id="0" precision="I32" />
			</output>
		</layer>
		<layer id="47" name="__module.transformer.roberta.encoder.layers.23.mixer/aten::index_put_/Gather" type="Gather" version="opset8">
			<data batch_dims="0" />
			<input>
				<port id="0" precision="I32">
					<dim>3</dim>
				</port>
				<port id="1" precision="I32" />
				<port id="2" precision="I32" />
			</input>
			<output>
				<port id="3" precision="I32" />
			</output>
		</layer>
		<layer id="48" name="__module.transformer.roberta.encoder.layers.23.mixer/aten::index_put_/ConvertLike" type="Convert" version="opset1">
			<data destination_type="i64" />
			<input>
				<port id="0" precision="I32" />
			</input>
			<output>
				<port id="1" precision="I64" />
			</output>
		</layer>
		<layer id="49" name="__module.transformer.roberta.encoder.layers.23.mixer/aten::index_put_/Add" type="Add" version="opset1">
			<data auto_broadcast="numpy" />
			<input>
				<port id="0" precision="I64">
					<dim>-1</dim>
				</port>
				<port id="1" precision="I64" />
			</input>
			<output>
				<port id="2" precision="I64">
					<dim>-1</dim>
				</port>
			</output>
		</layer>
		<layer id="50" name="__module.transformer.roberta.encoder.layers.23.mixer/aten::index_put_/Mod" type="Mod" version="opset1">
			<data auto_broadcast="numpy" />
			<input>
				<port id="0" precision="I64">
					<dim>-1</dim>
				</port>
				<port id="1" precision="I64" />
			</input>
			<output>
				<port id="2" precision="I64">
					<dim>-1</dim>
				</port>
			</output>
		</layer>
		<layer id="51" name="Constant_475062" type="Const" version="opset1">
			<data element_type="i32" shape="" offset="22" size="4" />
			<output>
				<port id="0" precision="I32" />
			</output>
		</layer>
		<layer id="52" name="__module.transformer.roberta.encoder.layers.23.mixer/aten::index_put_/Unsqueeze" type="Unsqueeze" version="opset1">
			<input>
				<port id="0" precision="I64">
					<dim>-1</dim>
				</port>
				<port id="1" precision="I32" />
			</input>
			<output>
				<port id="2" precision="I64">
					<dim>-1</dim>
					<dim>1</dim>
				</port>
			</output>
		</layer>
		<layer id="53" name="self.transformer.roberta.embeddings.word_embeddings.parametrizations.weight.original_compressed" type="Const" version="opset1">
			<data element_type="f16" shape="250002, 1024" offset="42" size="512004096" />
			<output>
				<port id="0" precision="FP16" names="self.transformer.roberta.embeddings.word_embeddings.parametrizations.weight.original">
					<dim>250002</dim>
					<dim>1024</dim>
				</port>
			</output>
		</layer>
		<layer id="54" name="self.transformer.roberta.embeddings.word_embeddings.parametrizations.weight.original" type="Convert" version="opset1">
			<data destination_type="f32" />
			<rt_info>
				<attribute name="decompression" version="0" />
			</rt_info>
			<input>
				<port id="0" precision="FP16">
					<dim>250002</dim>
					<dim>1024</dim>
				</port>
			</input>
			<output>
				<port id="1" precision="FP32">
					<dim>250002</dim>
					<dim>1024</dim>
				</port>
			</output>
		</layer>
		<layer id="55" name="self.transformer.roberta.embeddings.word_embeddings.parametrizations.weight.0.lora_A_compressed" type="Const" version="opset1">
			<data element_type="f16" shape="1, 250002, 4" offset="512004138" size="2000016" />
			<output>
				<port id="0" precision="FP16" names="self.transformer.roberta.embeddings.word_embeddings.parametrizations.weight.0.lora_A">
					<dim>1</dim>
					<dim>250002</dim>
					<dim>4</dim>
				</port>
			</output>
		</layer>
		<layer id="56" name="self.transformer.roberta.embeddings.word_embeddings.parametrizations.weight.0.lora_A" type="Convert" version="opset1">
			<data destination_type="f32" />
			<rt_info>
				<attribute name="decompression" version="0" />
			</rt_info>
			<input>
				<port id="0" precision="FP16">
					<dim>1</dim>
					<dim>250002</dim>
					<dim>4</dim>
				</port>
			</input>
			<output>
				<port id="1" precision="FP32">
					<dim>1</dim>
					<dim>250002</dim>
					<dim>4</dim>
				</port>
			</output>
		</layer>
		<layer id="57" name="__module.transformer.roberta.embeddings.word_embeddings/aten::Int/Convert" type="Convert" version="opset1">
			<data destination_type="i64" />
			<input>
				<port id="0" precision="I32" />
			</input>
			<output>
				<port id="1" precision="I64" names="1026,1027,1075,1076,109_1,110_1,1116,1117,1173,1174,1266,1267,1315,1316,1356,1357,1413,1414,1506,1507,1555,1556,1596,1597,1653,1654,1746,1747,1795,1796,1836,1837,1893,1894,1986,1987,2035,2036,2076,2077,2133,2134,213_1,214_1,2226,2227,2275,2276,2316,2317,2373,2374,2466,2467,2515,2516,2556,2557,2613,2614,2706,2707,2755,2756,2796,2797,2853,2854,2946,2947,2995,2996,3036,3037,306_2,307_2,3093,3094,3186,3187,3235,3236,3276,3277,3333,3334,3426,3427,3475,3476,3516,3517,355,356,3573,3574,3666,3667,3715,3716,3756,3757,3813,3814,3906,3907,3955,3956,396,397,3996,3997,4053,4054,4146,4147,4195,4196,4236,4237,4293,4294,4386,4387,4435,4436,4476,4477,453,4533,4534,454,4626,4627,4675,4676,4716,4717,4773,4774,4866,4867,4915,4916,4956,4957,5013,5014,5106,5107,5155,5156,5196,5197,5253,5254,5346,5347,5395,5396,5436,5437,546,547,5493,5494,5586,5587,5635,5636,5676,5677,5733,5734,5826,5827,5875,5876,5916,5917,595,596,636,637,693,694,72_1,73_1,786,787,835,836,876,877,933,934" />
			</output>
		</layer>
		<layer id="58" name="__module.transformer.roberta.embeddings.word_embeddings/aten::select/Gather" type="Gather" version="opset8">
			<data batch_dims="0" />
			<input>
				<port id="0" precision="FP32">
					<dim>1</dim>
					<dim>250002</dim>
					<dim>4</dim>
				</port>
				<port id="1" precision="I64" />
				<port id="2" precision="I64" />
			</input>
			<output>
				<port id="3" precision="FP32" names="91_1">
					<dim>250002</dim>
					<dim>4</dim>
				</port>
			</output>
		</layer>
		<layer id="59" name="self.transformer.roberta.embeddings.word_embeddings.parametrizations.weight.0.lora_B_compressed" type="Const" version="opset1">
			<data element_type="f16" shape="1, 4, 1024" offset="514004154" size="8192" />
			<output>
				<port id="0" precision="FP16" names="self.transformer.roberta.embeddings.word_embeddings.parametrizations.weight.0.lora_B">
					<dim>1</dim>
					<dim>4</dim>
					<dim>1024</dim>
				</port>
			</output>
		</layer>
		<layer id="60" name="self.transformer.roberta.embeddings.word_embeddings.parametrizations.weight.0.lora_B" type="Convert" version="opset1">
			<data destination_type="f32" />
			<rt_info>
				<attribute name="decompression" version="0" />
			</rt_info>
			<input>
				<port id="0" precision="FP16">
					<dim>1</dim>
					<dim>4</dim>
					<dim>1024</dim>
				</port>
			</input>
			<output>
				<port id="1" precision="FP32">
					<dim>1</dim>
					<dim>4</dim>
					<dim>1024</dim>
				</port>
			</output>
		</layer>
		<layer id="61" name="__module.transformer.roberta.embeddings.word_embeddings/aten::select/Gather_1" type="Gather" version="opset8">
			<data batch_dims="0" />
			<input>
				<port id="0" precision="FP32">
					<dim>1</dim>
					<dim>4</dim>
					<dim>1024</dim>
				</port>
				<port id="1" precision="I64" />
				<port id="2" precision="I64" />
			</input>
			<output>
				<port id="3" precision="FP32" names="90_1">
					<dim>4</dim>
					<dim>1024</dim>
				</port>
			</output>
		</layer>
		<layer id="62" name="__module.transformer.roberta.embeddings.word_embeddings/aten::matmul/MatMul" type="MatMul" version="opset1">
			<data transpose_a="false" transpose_b="false" />
			<input>
				<port id="0" precision="FP32">
					<dim>250002</dim>
					<dim>4</dim>
				</port>
				<port id="1" precision="FP32">
					<dim>4</dim>
					<dim>1024</dim>
				</port>
			</input>
			<output>
				<port id="2" precision="FP32" names="92_1,96,97_1">
					<dim>250002</dim>
					<dim>1024</dim>
				</port>
			</output>
		</layer>
		<layer id="63" name="__module.transformer.roberta.embeddings.word_embeddings/aten::add/Add" type="Add" version="opset1">
			<data auto_broadcast="numpy" />
			<input>
				<port id="0" precision="FP32">
					<dim>250002</dim>
					<dim>1024</dim>
				</port>
				<port id="1" precision="FP32">
					<dim>250002</dim>
					<dim>1024</dim>
				</port>
			</input>
			<output>
				<port id="2" precision="FP32" names="98_1">
					<dim>250002</dim>
					<dim>1024</dim>
				</port>
			</output>
		</layer>
		<layer id="64" name="__module.transformer.roberta.embeddings/aten::index/Convert" type="Convert" version="opset1">
			<data destination_type="i32" />
			<input>
				<port id="0" precision="I64">
					<dim>-1</dim>
				</port>
			</input>
			<output>
				<port id="1" precision="I32">
					<dim>-1</dim>
				</port>
			</output>
		</layer>
		<layer id="65" name="__module.transformer.roberta.embeddings/aten::index/Constant" type="Const" version="opset1">
			<data element_type="i32" shape="" offset="10" size="4" />
			<output>
				<port id="0" precision="I32" />
			</output>
		</layer>
		<layer id="66" name="__module.transformer.roberta.embeddings/aten::index/Gather" type="Gather" version="opset8">
			<data batch_dims="0" />
			<input>
				<port id="0" precision="I64">
					<dim>-1</dim>
					<dim>-1</dim>
				</port>
				<port id="1" precision="I32">
					<dim>-1</dim>
				</port>
				<port id="2" precision="I32" />
			</input>
			<output>
				<port id="3" precision="I64" names="78_1">
					<dim>-1</dim>
					<dim>-1</dim>
				</port>
			</output>
		</layer>
		<layer id="67" name="__module.transformer.roberta.embeddings.word_embeddings/aten::embedding/Convert" type="Convert" version="opset1">
			<data destination_type="i32" />
			<input>
				<port id="0" precision="I64">
					<dim>-1</dim>
					<dim>-1</dim>
				</port>
			</input>
			<output>
				<port id="1" precision="I32">
					<dim>-1</dim>
					<dim>-1</dim>
				</port>
			</output>
		</layer>
		<layer id="68" name="__module.transformer.roberta.embeddings.word_embeddings/aten::embedding/Constant" type="Const" version="opset1">
			<data element_type="i32" shape="" offset="10" size="4" />
			<output>
				<port id="0" precision="I32" />
			</output>
		</layer>
		<layer id="69" name="__module.transformer.roberta.embeddings.word_embeddings/aten::embedding/Gather" type="Gather" version="opset8">
			<data batch_dims="0" />
			<input>
				<port id="0" precision="FP32">
					<dim>250002</dim>
					<dim>1024</dim>
				</port>
				<port id="1" precision="I32">
					<dim>-1</dim>
					<dim>-1</dim>
				</port>
				<port id="2" precision="I32" />
			</input>
			<output>
				<port id="3" precision="FP32" names="99,task_embeddings">
					<dim>-1</dim>
					<dim>-1</dim>
					<dim>1024</dim>
				</port>
			</output>
		</layer>
		<layer id="70" name="__module.transformer.roberta.embeddings/aten::index_put_/ShapeOf_0" type="ShapeOf" version="opset3">
			<data output_type="i32" />
			<input>
				<port id="0" precision="I64">
					<dim>-1</dim>
				</port>
			</input>
			<output>
				<port id="1" precision="I32">
					<dim>1</dim>
				</port>
			</output>
		</layer>
		<layer id="71" name="Constant_472808" type="Const" version="opset1">
			<data element_type="i32" shape="1" offset="514012346" size="4" />
			<rt_info>
				<attribute name="precise" version="0" />
			</rt_info>
			<output>
				<port id="0" precision="I32">
					<dim>1</dim>
				</port>
			</output>
		</layer>
		<layer id="72" name="Constant_472805" type="Const" version="opset1">
			<data element_type="i32" shape="1" offset="514012350" size="4" />
			<rt_info>
				<attribute name="precise" version="0" />
			</rt_info>
			<output>
				<port id="0" precision="I32">
					<dim>1</dim>
				</port>
			</output>
		</layer>
		<layer id="73" name="Constant_472804" type="Const" version="opset1">
			<data element_type="i32" shape="1" offset="514012346" size="4" />
			<rt_info>
				<attribute name="precise" version="0" />
			</rt_info>
			<output>
				<port id="0" precision="I32">
					<dim>1</dim>
				</port>
			</output>
		</layer>
		<layer id="74" name="Constant_472816" type="Const" version="opset1">
			<data element_type="i64" shape="1" offset="14" size="8" />
			<rt_info>
				<attribute name="precise" version="0" />
			</rt_info>
			<output>
				<port id="0" precision="I64">
					<dim>1</dim>
				</port>
			</output>
		</layer>
		<layer id="75" name="__module.transformer.roberta.embeddings/aten::index_put_/Slice" type="Slice" version="opset8">
			<input>
				<port id="0" precision="I32">
					<dim>3</dim>
				</port>
				<port id="1" precision="I32">
					<dim>1</dim>
				</port>
				<port id="2" precision="I32">
					<dim>1</dim>
				</port>
				<port id="3" precision="I32">
					<dim>1</dim>
				</port>
				<port id="4" precision="I64">
					<dim>1</dim>
				</port>
			</input>
			<output>
				<port id="5" precision="I32">
					<dim>2</dim>
				</port>
			</output>
		</layer>
		<layer id="76" name="__module.transformer.roberta.embeddings/aten::index_put_/Concat" type="Concat" version="opset1">
			<data axis="0" />
			<input>
				<port id="0" precision="I32">
					<dim>1</dim>
				</port>
				<port id="1" precision="I32">
					<dim>2</dim>
				</port>
			</input>
			<output>
				<port id="2" precision="I32">
					<dim>3</dim>
				</port>
			</output>
		</layer>
		<layer id="77" name="__module.transformer.roberta.embeddings/aten::index_put_/Broadcast" type="Broadcast" version="opset3">
			<data mode="numpy" />
			<input>
				<port id="0" precision="FP32">
					<dim>-1</dim>
					<dim>-1</dim>
					<dim>1024</dim>
				</port>
				<port id="1" precision="I32">
					<dim>3</dim>
				</port>
			</input>
			<output>
				<port id="2" precision="FP32">
					<dim>-1</dim>
					<dim>-1</dim>
					<dim>1024</dim>
				</port>
			</output>
		</layer>
		<layer id="78" name="__module.transformer.roberta.embeddings/aten::index_put_/ScatterNDUpdate" type="ScatterNDUpdate" version="opset4">
			<input>
				<port id="0" precision="FP32">
					<dim>-1</dim>
					<dim>-1</dim>
					<dim>1024</dim>
				</port>
				<port id="1" precision="I64">
					<dim>-1</dim>
					<dim>1</dim>
				</port>
				<port id="2" precision="FP32">
					<dim>-1</dim>
					<dim>-1</dim>
					<dim>1024</dim>
				</port>
			</input>
			<output>
				<port id="3" precision="FP32" names="69_2">
					<dim>-1</dim>
					<dim>-1</dim>
					<dim>1024</dim>
				</port>
			</output>
		</layer>
		<layer id="79" name="__module.transformer.roberta.embeddings/aten::index/Constant_1" type="Const" version="opset1">
			<data element_type="i32" shape="" offset="10" size="4" />
			<output>
				<port id="0" precision="I32" />
			</output>
		</layer>
		<layer id="80" name="__module.transformer.roberta.embeddings/aten::index/Gather_1" type="Gather" version="opset8">
			<data batch_dims="0" />
			<input>
				<port id="0" precision="FP32">
					<dim>-1</dim>
					<dim>-1</dim>
					<dim>1024</dim>
				</port>
				<port id="1" precision="I32">
					<dim>-1</dim>
				</port>
				<port id="2" precision="I32" />
			</input>
			<output>
				<port id="3" precision="FP32" names="136_1">
					<dim>-1</dim>
					<dim>-1</dim>
					<dim>1024</dim>
				</port>
			</output>
		</layer>
		<layer id="81" name="self.transformer.roberta.embeddings.token_type_embeddings.parametrizations.weight.original_compressed" type="Const" version="opset1">
			<data element_type="f16" shape="1, 1024" offset="514012354" size="2048" />
			<output>
				<port id="0" precision="FP16" names="self.transformer.roberta.embeddings.token_type_embeddings.parametrizations.weight.original">
					<dim>1</dim>
					<dim>1024</dim>
				</port>
			</output>
		</layer>
		<layer id="82" name="self.transformer.roberta.embeddings.token_type_embeddings.parametrizations.weight.original" type="Convert" version="opset1">
			<data destination_type="f32" />
			<rt_info>
				<attribute name="decompression" version="0" />
			</rt_info>
			<input>
				<port id="0" precision="FP16">
					<dim>1</dim>
					<dim>1024</dim>
				</port>
			</input>
			<output>
				<port id="1" precision="FP32">
					<dim>1</dim>
					<dim>1024</dim>
				</port>
			</output>
		</layer>
		<layer id="83" name="self.transformer.roberta.embeddings.token_type_embeddings.parametrizations.weight.0.lora_A_compressed" type="Const" version="opset1">
			<data element_type="f16" shape="1, 1, 4" offset="514014402" size="8" />
			<output>
				<port id="0" precision="FP16" names="self.transformer.roberta.embeddings.token_type_embeddings.parametrizations.weight.0.lora_A">
					<dim>1</dim>
					<dim>1</dim>
					<dim>4</dim>
				</port>
			</output>
		</layer>
		<layer id="84" name="self.transformer.roberta.embeddings.token_type_embeddings.parametrizations.weight.0.lora_A" type="Convert" version="opset1">
			<data destination_type="f32" />
			<rt_info>
				<attribute name="decompression" version="0" />
			</rt_info>
			<input>
				<port id="0" precision="FP16">
					<dim>1</dim>
					<dim>1</dim>
					<dim>4</dim>
				</port>
			</input>
			<output>
				<port id="1" precision="FP32">
					<dim>1</dim>
					<dim>1</dim>
					<dim>4</dim>
				</port>
			</output>
		</layer>
		<layer id="85" name="__module.transformer.roberta.embeddings.token_type_embeddings/aten::select/Gather" type="Gather" version="opset8">
			<data batch_dims="0" />
			<input>
				<port id="0" precision="FP32">
					<dim>1</dim>
					<dim>1</dim>
					<dim>4</dim>
				</port>
				<port id="1" precision="I64" />
				<port id="2" precision="I64" />
			</input>
			<output>
				<port id="3" precision="FP32" names="123_1">
					<dim>1</dim>
					<dim>4</dim>
				</port>
			</output>
		</layer>
		<layer id="86" name="self.transformer.roberta.embeddings.token_type_embeddings.parametrizations.weight.0.lora_B_compressed" type="Const" version="opset1">
			<data element_type="f16" shape="1, 4, 1024" offset="514014410" size="8192" />
			<output>
				<port id="0" precision="FP16" names="self.transformer.roberta.embeddings.token_type_embeddings.parametrizations.weight.0.lora_B">
					<dim>1</dim>
					<dim>4</dim>
					<dim>1024</dim>
				</port>
			</output>
		</layer>
		<layer id="87" name="self.transformer.roberta.embeddings.token_type_embeddings.parametrizations.weight.0.lora_B" type="Convert" version="opset1">
			<data destination_type="f32" />
			<rt_info>
				<attribute name="decompression" version="0" />
			</rt_info>
			<input>
				<port id="0" precision="FP16">
					<dim>1</dim>
					<dim>4</dim>
					<dim>1024</dim>
				</port>
			</input>
			<output>
				<port id="1" precision="FP32">
					<dim>1</dim>
					<dim>4</dim>
					<dim>1024</dim>
				</port>
			</output>
		</layer>
		<layer id="88" name="__module.transformer.roberta.embeddings.token_type_embeddings/aten::select/Gather_1" type="Gather" version="opset8">
			<data batch_dims="0" />
			<input>
				<port id="0" precision="FP32">
					<dim>1</dim>
					<dim>4</dim>
					<dim>1024</dim>
				</port>
				<port id="1" precision="I64" />
				<port id="2" precision="I64" />
			</input>
			<output>
				<port id="3" precision="FP32" names="122">
					<dim>4</dim>
					<dim>1024</dim>
				</port>
			</output>
		</layer>
		<layer id="89" name="__module.transformer.roberta.embeddings.token_type_embeddings/aten::matmul/MatMul" type="MatMul" version="opset1">
			<data transpose_a="false" transpose_b="false" />
			<input>
				<port id="0" precision="FP32">
					<dim>1</dim>
					<dim>4</dim>
				</port>
				<port id="1" precision="FP32">
					<dim>4</dim>
					<dim>1024</dim>
				</port>
			</input>
			<output>
				<port id="2" precision="FP32" names="124_1,128,129_1">
					<dim>1</dim>
					<dim>1024</dim>
				</port>
			</output>
		</layer>
		<layer id="90" name="__module.transformer.roberta.embeddings.token_type_embeddings/aten::add/Add" type="Add" version="opset1">
			<data auto_broadcast="numpy" />
			<input>
				<port id="0" precision="FP32">
					<dim>1</dim>
					<dim>1024</dim>
				</port>
				<port id="1" precision="FP32">
					<dim>1</dim>
					<dim>1024</dim>
				</port>
			</input>
			<output>
				<port id="2" precision="FP32" names="130_1">
					<dim>1</dim>
					<dim>1024</dim>
				</port>
			</output>
		</layer>
		<layer id="91" name="__module.transformer.roberta.embeddings/aten::zeros/Convert" type="Const" version="opset1">
			<data element_type="i64" shape="" offset="14" size="8" />
			<output>
				<port id="0" precision="I64" />
			</output>
		</layer>
		<layer id="92" name="Constant_674395" type="Const" version="opset1">
			<data element_type="i64" shape="1" offset="514022602" size="8" />
			<rt_info>
				<attribute name="precise" version="0" />
			</rt_info>
			<output>
				<port id="0" precision="I64">
					<dim>1</dim>
				</port>
			</output>
		</layer>
		<layer id="93" name="Constant_674396" type="Const" version="opset1">
			<data element_type="i64" shape="" offset="14" size="8" />
			<rt_info>
				<attribute name="precise" version="0" />
			</rt_info>
			<output>
				<port id="0" precision="I64" />
			</output>
		</layer>
		<layer id="94" name="Gather_674397" type="Gather" version="opset8">
			<data batch_dims="0" />
			<input>
				<port id="0" precision="I64">
					<dim>2</dim>
				</port>
				<port id="1" precision="I64">
					<dim>1</dim>
				</port>
				<port id="2" precision="I64" />
			</input>
			<output>
				<port id="3" precision="I64" names="1227,1231,1232,1467,1471,1472,1707,1711,1712,1947,1951,1952,218,2187,218_10,218_11,218_12,218_13,218_14,218_15,218_16,218_17,218_18,218_19,218_2,218_20,218_21,218_22,218_23,218_24,218_3,218_4,218_5,218_6,218_7,218_8,218_9,2191,2192,220,220_1,220_10,220_11,220_12,220_13,220_14,220_15,220_16,220_17,220_18,220_19,220_2,220_20,220_21,220_22,220_23,220_3,220_4,220_5,220_6,220_7,220_8,220_9,235,235_10,235_11,235_12,235_13,235_14,235_15,235_16,235_17,235_18,235_19,235_2,235_20,235_21,235_22,235_23,235_24,235_3,235_4,235_5,235_6,235_7,235_8,235_9,237,237_10,237_11,237_12,237_13,237_14,237_15,237_16,237_17,237_18,237_19,237_2,237_20,237_21,237_22,237_23,237_24,237_3,237_4,237_5,237_6,237_7,237_8,237_9,2427,2431,2432,2667,2671,2672,267_2,271_2,272_2,2907,2911,2912,3147,3151,3152,3387,3391,3392,3627,3631,3632,3867,3871,3872,4107,4111,4112,4347,4351,4352,4587,4591,4592,4827,4831,4832,5067,507,5071,5072,511,512,5307,5311,5312,5547,5551,5552,5787,5791,5792,61,61_10,61_11,61_12,61_13,61_14,61_15,61_16,61_17,61_18,61_19,61_2,61_20,61_21,61_22,61_23,61_24,61_3,61_4,61_5,61_6,61_7,61_8,61_9,62,63,63_10,63_11,63_12,63_13,63_14,63_15,63_16,63_17,63_18,63_19,63_2,63_20,63_21,63_22,63_23,63_24,63_3,63_4,63_5,63_6,63_7,63_8,63_9,67_1,747,751,752,78,78_10,78_11,78_12,78_13,78_14,78_15,78_16,78_17,78_18,78_19,78_2,78_20,78_21,78_22,78_23,78_24,78_3,78_4,78_5,78_6,78_7,78_8,78_9,80,80_10,80_11,80_12,80_13,80_14,80_15,80_16,80_17,80_18,80_19,80_2,80_20,80_21,80_22,80_23,80_24,80_3,80_4,80_5,80_6,80_7,80_8,80_9,987,991,992">
					<dim>1</dim>
				</port>
			</output>
		</layer>
		<layer id="95" name="__module.transformer.roberta.embeddings/aten::zeros/Broadcast" type="Broadcast" version="opset3">
			<data mode="numpy" />
			<input>
				<port id="0" precision="I64" />
				<port id="1" precision="I64">
					<dim>1</dim>
				</port>
			</input>
			<output>
				<port id="2" precision="I64" names="103_1">
					<dim>-1</dim>
				</port>
			</output>
		</layer>
		<layer id="96" name="__module.transformer.roberta.embeddings.token_type_embeddings/aten::embedding/Convert" type="Convert" version="opset1">
			<data destination_type="i32" />
			<input>
				<port id="0" precision="I64">
					<dim>-1</dim>
				</port>
			</input>
			<output>
				<port id="1" precision="I32">
					<dim>-1</dim>
				</port>
			</output>
		</layer>
		<layer id="97" name="__module.transformer.roberta.embeddings.token_type_embeddings/aten::embedding/Constant" type="Const" version="opset1">
			<data element_type="i32" shape="" offset="10" size="4" />
			<output>
				<port id="0" precision="I32" />
			</output>
		</layer>
		<layer id="98" name="__module.transformer.roberta.embeddings.token_type_embeddings/aten::embedding/Gather" type="Gather" version="opset8">
			<data batch_dims="0" />
			<input>
				<port id="0" precision="FP32">
					<dim>1</dim>
					<dim>1024</dim>
				</port>
				<port id="1" precision="I32">
					<dim>-1</dim>
				</port>
				<port id="2" precision="I32" />
			</input>
			<output>
				<port id="3" precision="FP32" names="131,task_token_type_embeddings">
					<dim>-1</dim>
					<dim>1024</dim>
				</port>
			</output>
		</layer>
		<layer id="99" name="__module.transformer.roberta.embeddings/aten::add/Add" type="Add" version="opset1">
			<data auto_broadcast="numpy" />
			<input>
				<port id="0" precision="FP32">
					<dim>-1</dim>
					<dim>-1</dim>
					<dim>1024</dim>
				</port>
				<port id="1" precision="FP32">
					<dim>-1</dim>
					<dim>1024</dim>
				</port>
			</input>
			<output>
				<port id="2" precision="FP32" names="137_1">
					<dim>-1</dim>
					<dim>-1</dim>
					<dim>1024</dim>
				</port>
			</output>
		</layer>
		<layer id="100" name="__module.transformer.roberta.embeddings/aten::index_put_/Broadcast_1" type="Broadcast" version="opset3">
			<data mode="numpy" />
			<input>
				<port id="0" precision="FP32">
					<dim>-1</dim>
					<dim>-1</dim>
					<dim>1024</dim>
				</port>
				<port id="1" precision="I32">
					<dim>3</dim>
				</port>
			</input>
			<output>
				<port id="2" precision="FP32">
					<dim>-1</dim>
					<dim>-1</dim>
					<dim>1024</dim>
				</port>
			</output>
		</layer>
		<layer id="101" name="__module.transformer.roberta.embeddings/aten::index_put_/ScatterNDUpdate_1" type="ScatterNDUpdate" version="opset4">
			<input>
				<port id="0" precision="FP32">
					<dim>-1</dim>
					<dim>-1</dim>
					<dim>1024</dim>
				</port>
				<port id="1" precision="I64">
					<dim>-1</dim>
					<dim>1</dim>
				</port>
				<port id="2" precision="FP32">
					<dim>-1</dim>
					<dim>-1</dim>
					<dim>1024</dim>
				</port>
			</input>
			<output>
				<port id="3" precision="FP32" names="101_1">
					<dim>-1</dim>
					<dim>-1</dim>
					<dim>1024</dim>
				</port>
			</output>
		</layer>
		<layer id="102" name="__module.transformer.roberta.emb_ln/aten::layer_norm/Multiply" type="Const" version="opset1">
			<data element_type="i32" shape="1" offset="22" size="4" />
			<output>
				<port id="0" precision="I32">
					<dim>1</dim>
				</port>
			</output>
		</layer>
		<layer id="103" name="__module.transformer.roberta.emb_ln/aten::layer_norm/MVN" type="MVN" version="opset6">
			<data eps="9.9999997473787516e-06" normalize_variance="true" eps_mode="INSIDE_SQRT" />
			<input>
				<port id="0" precision="FP32">
					<dim>-1</dim>
					<dim>-1</dim>
					<dim>1024</dim>
				</port>
				<port id="1" precision="I32">
					<dim>1</dim>
				</port>
			</input>
			<output>
				<port id="2" precision="FP32">
					<dim>-1</dim>
					<dim>-1</dim>
					<dim>1024</dim>
				</port>
			</output>
		</layer>
		<layer id="104" name="Constant_667477_compressed" type="Const" version="opset1">
			<data element_type="f16" shape="1, 1, 1024" offset="514022610" size="2048" />
			<output>
				<port id="0" precision="FP16">
					<dim>1</dim>
					<dim>1</dim>
					<dim>1024</dim>
				</port>
			</output>
		</layer>
		<layer id="105" name="Constant_667477" type="Convert" version="opset1">
			<data destination_type="f32" />
			<rt_info>
				<attribute name="decompression" version="0" />
			</rt_info>
			<input>
				<port id="0" precision="FP16">
					<dim>1</dim>
					<dim>1</dim>
					<dim>1024</dim>
				</port>
			</input>
			<output>
				<port id="1" precision="FP32">
					<dim>1</dim>
					<dim>1</dim>
					<dim>1024</dim>
				</port>
			</output>
		</layer>
		<layer id="106" name="__module.transformer.roberta.emb_ln/aten::layer_norm/Multiply_1" type="Multiply" version="opset1">
			<data auto_broadcast="numpy" />
			<input>
				<port id="0" precision="FP32">
					<dim>-1</dim>
					<dim>-1</dim>
					<dim>1024</dim>
				</port>
				<port id="1" precision="FP32">
					<dim>1</dim>
					<dim>1</dim>
					<dim>1024</dim>
				</port>
			</input>
			<output>
				<port id="2" precision="FP32">
					<dim>-1</dim>
					<dim>-1</dim>
					<dim>1024</dim>
				</port>
			</output>
		</layer>
		<layer id="107" name="Constant_667478_compressed" type="Const" version="opset1">
			<data element_type="f16" shape="1, 1, 1024" offset="514024658" size="2048" />
			<output>
				<port id="0" precision="FP16">
					<dim>1</dim>
					<dim>1</dim>
					<dim>1024</dim>
				</port>
			</output>
		</layer>
		<layer id="108" name="Constant_667478" type="Convert" version="opset1">
			<data destination_type="f32" />
			<rt_info>
				<attribute name="decompression" version="0" />
			</rt_info>
			<input>
				<port id="0" precision="FP16">
					<dim>1</dim>
					<dim>1</dim>
					<dim>1024</dim>
				</port>
			</input>
			<output>
				<port id="1" precision="FP32">
					<dim>1</dim>
					<dim>1</dim>
					<dim>1024</dim>
				</port>
			</output>
		</layer>
		<layer id="109" name="__module.transformer.roberta.emb_ln/aten::layer_norm/Add" type="Add" version="opset1">
			<data auto_broadcast="numpy" />
			<input>
				<port id="0" precision="FP32">
					<dim>-1</dim>
					<dim>-1</dim>
					<dim>1024</dim>
				</port>
				<port id="1" precision="FP32">
					<dim>1</dim>
					<dim>1</dim>
					<dim>1024</dim>
				</port>
			</input>
			<output>
				<port id="2" precision="FP32" names="143_1">
					<dim>-1</dim>
					<dim>-1</dim>
					<dim>1024</dim>
				</port>
			</output>
		</layer>
		<layer id="110" name="__module.transformer.roberta.encoder.layers.0.mixer/aten::index/Constant" type="Const" version="opset1">
			<data element_type="i32" shape="" offset="10" size="4" />
			<output>
				<port id="0" precision="I32" />
			</output>
		</layer>
		<layer id="111" name="__module.transformer.roberta.encoder.layers.0.mixer/aten::index/Gather" type="Gather" version="opset8">
			<data batch_dims="0" />
			<input>
				<port id="0" precision="FP32">
					<dim>-1</dim>
					<dim>-1</dim>
					<dim>1024</dim>
				</port>
				<port id="1" precision="I32">
					<dim>-1</dim>
				</port>
				<port id="2" precision="I32" />
			</input>
			<output>
				<port id="3" precision="FP32" names="219,input.11">
					<dim>-1</dim>
					<dim>-1</dim>
					<dim>1024</dim>
				</port>
			</output>
		</layer>
		<layer id="112" name="self.transformer.roberta.encoder.layers.0.mixer.Wqkv.parametrizations.weight.original_compressed" type="Const" version="opset1">
			<data element_type="f16" shape="3072, 1024" offset="514026706" size="6291456" />
			<output>
				<port id="0" precision="FP16" names="self.transformer.roberta.encoder.layers.0.mixer.Wqkv.parametrizations.weight.original">
					<dim>3072</dim>
					<dim>1024</dim>
				</port>
			</output>
		</layer>
		<layer id="113" name="self.transformer.roberta.encoder.layers.0.mixer.Wqkv.parametrizations.weight.original" type="Convert" version="opset1">
			<data destination_type="f32" />
			<rt_info>
				<attribute name="decompression" version="0" />
			</rt_info>
			<input>
				<port id="0" precision="FP16">
					<dim>3072</dim>
					<dim>1024</dim>
				</port>
			</input>
			<output>
				<port id="1" precision="FP32">
					<dim>3072</dim>
					<dim>1024</dim>
				</port>
			</output>
		</layer>
		<layer id="114" name="self.transformer.roberta.encoder.layers.0.mixer.Wqkv.parametrizations.weight.0.lora_B_compressed" type="Const" version="opset1">
			<data element_type="f16" shape="1, 3072, 4" offset="520318162" size="24576" />
			<output>
				<port id="0" precision="FP16" names="self.transformer.roberta.encoder.layers.0.mixer.Wqkv.parametrizations.weight.0.lora_B">
					<dim>1</dim>
					<dim>3072</dim>
					<dim>4</dim>
				</port>
			</output>
		</layer>
		<layer id="115" name="self.transformer.roberta.encoder.layers.0.mixer.Wqkv.parametrizations.weight.0.lora_B" type="Convert" version="opset1">
			<data destination_type="f32" />
			<rt_info>
				<attribute name="decompression" version="0" />
			</rt_info>
			<input>
				<port id="0" precision="FP16">
					<dim>1</dim>
					<dim>3072</dim>
					<dim>4</dim>
				</port>
			</input>
			<output>
				<port id="1" precision="FP32">
					<dim>1</dim>
					<dim>3072</dim>
					<dim>4</dim>
				</port>
			</output>
		</layer>
		<layer id="116" name="__module.transformer.roberta.encoder.layers.0.mixer.Wqkv/aten::select/Gather" type="Gather" version="opset8">
			<data batch_dims="0" />
			<input>
				<port id="0" precision="FP32">
					<dim>1</dim>
					<dim>3072</dim>
					<dim>4</dim>
				</port>
				<port id="1" precision="I64" />
				<port id="2" precision="I64" />
			</input>
			<output>
				<port id="3" precision="FP32" names="232_1">
					<dim>3072</dim>
					<dim>4</dim>
				</port>
			</output>
		</layer>
		<layer id="117" name="self.transformer.roberta.encoder.layers.0.mixer.Wqkv.parametrizations.weight.0.lora_A_compressed" type="Const" version="opset1">
			<data element_type="f16" shape="1, 4, 1024" offset="520342738" size="8192" />
			<output>
				<port id="0" precision="FP16" names="self.transformer.roberta.encoder.layers.0.mixer.Wqkv.parametrizations.weight.0.lora_A">
					<dim>1</dim>
					<dim>4</dim>
					<dim>1024</dim>
				</port>
			</output>
		</layer>
		<layer id="118" name="self.transformer.roberta.encoder.layers.0.mixer.Wqkv.parametrizations.weight.0.lora_A" type="Convert" version="opset1">
			<data destination_type="f32" />
			<rt_info>
				<attribute name="decompression" version="0" />
			</rt_info>
			<input>
				<port id="0" precision="FP16">
					<dim>1</dim>
					<dim>4</dim>
					<dim>1024</dim>
				</port>
			</input>
			<output>
				<port id="1" precision="FP32">
					<dim>1</dim>
					<dim>4</dim>
					<dim>1024</dim>
				</port>
			</output>
		</layer>
		<layer id="119" name="__module.transformer.roberta.encoder.layers.0.mixer.Wqkv/aten::select/Gather_1" type="Gather" version="opset8">
			<data batch_dims="0" />
			<input>
				<port id="0" precision="FP32">
					<dim>1</dim>
					<dim>4</dim>
					<dim>1024</dim>
				</port>
				<port id="1" precision="I64" />
				<port id="2" precision="I64" />
			</input>
			<output>
				<port id="3" precision="FP32" names="233">
					<dim>4</dim>
					<dim>1024</dim>
				</port>
			</output>
		</layer>
		<layer id="120" name="__module.transformer.roberta.encoder.layers.0.mixer.Wqkv/aten::matmul/MatMul" type="MatMul" version="opset1">
			<data transpose_a="false" transpose_b="false" />
			<input>
				<port id="0" precision="FP32">
					<dim>3072</dim>
					<dim>4</dim>
				</port>
				<port id="1" precision="FP32">
					<dim>4</dim>
					<dim>1024</dim>
				</port>
			</input>
			<output>
				<port id="2" precision="FP32" names="234_1,238_1,239_1">
					<dim>3072</dim>
					<dim>1024</dim>
				</port>
			</output>
		</layer>
		<layer id="121" name="__module.transformer.roberta.encoder.layers.0.mixer.Wqkv/aten::add/Add" type="Add" version="opset1">
			<data auto_broadcast="numpy" />
			<input>
				<port id="0" precision="FP32">
					<dim>3072</dim>
					<dim>1024</dim>
				</port>
				<port id="1" precision="FP32">
					<dim>3072</dim>
					<dim>1024</dim>
				</port>
			</input>
			<output>
				<port id="2" precision="FP32" names="240,weights.1">
					<dim>3072</dim>
					<dim>1024</dim>
				</port>
			</output>
		</layer>
		<layer id="122" name="__module.transformer.roberta.encoder.layers.0.mixer.Wqkv/aten::linear/MatMul" type="MatMul" version="opset1">
			<data transpose_a="false" transpose_b="true" />
			<input>
				<port id="0" precision="FP32">
					<dim>-1</dim>
					<dim>-1</dim>
					<dim>1024</dim>
				</port>
				<port id="1" precision="FP32">
					<dim>3072</dim>
					<dim>1024</dim>
				</port>
			</input>
			<output>
				<port id="2" precision="FP32">
					<dim>-1</dim>
					<dim>-1</dim>
					<dim>3072</dim>
				</port>
			</output>
		</layer>
		<layer id="123" name="Constant_667479_compressed" type="Const" version="opset1">
			<data element_type="f16" shape="1, 1, 3072" offset="520350930" size="6144" />
			<output>
				<port id="0" precision="FP16">
					<dim>1</dim>
					<dim>1</dim>
					<dim>3072</dim>
				</port>
			</output>
		</layer>
		<layer id="124" name="Constant_667479" type="Convert" version="opset1">
			<data destination_type="f32" />
			<rt_info>
				<attribute name="decompression" version="0" />
			</rt_info>
			<input>
				<port id="0" precision="FP16">
					<dim>1</dim>
					<dim>1</dim>
					<dim>3072</dim>
				</port>
			</input>
			<output>
				<port id="1" precision="FP32">
					<dim>1</dim>
					<dim>1</dim>
					<dim>3072</dim>
				</port>
			</output>
		</layer>
		<layer id="125" name="__module.transformer.roberta.encoder.layers.0.mixer.Wqkv/aten::linear/Add" type="Add" version="opset1">
			<data auto_broadcast="numpy" />
			<input>
				<port id="0" precision="FP32">
					<dim>-1</dim>
					<dim>-1</dim>
					<dim>3072</dim>
				</port>
				<port id="1" precision="FP32">
					<dim>1</dim>
					<dim>1</dim>
					<dim>3072</dim>
				</port>
			</input>
			<output>
				<port id="2" precision="FP32" names="241_1">
					<dim>-1</dim>
					<dim>-1</dim>
					<dim>3072</dim>
				</port>
			</output>
		</layer>
		<layer id="126" name="Constant_472856" type="Const" version="opset1">
			<data element_type="i32" shape="1" offset="514012346" size="4" />
			<rt_info>
				<attribute name="precise" version="0" />
			</rt_info>
			<output>
				<port id="0" precision="I32">
					<dim>1</dim>
				</port>
			</output>
		</layer>
		<layer id="127" name="Constant_472853" type="Const" version="opset1">
			<data element_type="i32" shape="1" offset="514012350" size="4" />
			<rt_info>
				<attribute name="precise" version="0" />
			</rt_info>
			<output>
				<port id="0" precision="I32">
					<dim>1</dim>
				</port>
			</output>
		</layer>
		<layer id="128" name="Constant_472852" type="Const" version="opset1">
			<data element_type="i32" shape="1" offset="514012346" size="4" />
			<rt_info>
				<attribute name="precise" version="0" />
			</rt_info>
			<output>
				<port id="0" precision="I32">
					<dim>1</dim>
				</port>
			</output>
		</layer>
		<layer id="129" name="Constant_472864" type="Const" version="opset1">
			<data element_type="i64" shape="1" offset="14" size="8" />
			<rt_info>
				<attribute name="precise" version="0" />
			</rt_info>
			<output>
				<port id="0" precision="I64">
					<dim>1</dim>
				</port>
			</output>
		</layer>
		<layer id="130" name="__module.transformer.roberta.encoder.layers.0.mixer/aten::index_put_/Slice" type="Slice" version="opset8">
			<input>
				<port id="0" precision="I32">
					<dim>3</dim>
				</port>
				<port id="1" precision="I32">
					<dim>1</dim>
				</port>
				<port id="2" precision="I32">
					<dim>1</dim>
				</port>
				<port id="3" precision="I32">
					<dim>1</dim>
				</port>
				<port id="4" precision="I64">
					<dim>1</dim>
				</port>
			</input>
			<output>
				<port id="5" precision="I32">
					<dim>2</dim>
				</port>
			</output>
		</layer>
		<layer id="131" name="__module.transformer.roberta.encoder.layers.0.mixer/aten::index_put_/Concat" type="Concat" version="opset1">
			<data axis="0" />
			<input>
				<port id="0" precision="I32">
					<dim>1</dim>
				</port>
				<port id="1" precision="I32">
					<dim>2</dim>
				</port>
			</input>
			<output>
				<port id="2" precision="I32">
					<dim>3</dim>
				</port>
			</output>
		</layer>
		<layer id="132" name="__module.transformer.roberta.encoder.layers.0.mixer/aten::index_put_/Broadcast" type="Broadcast" version="opset3">
			<data mode="numpy" />
			<input>
				<port id="0" precision="FP32">
					<dim>-1</dim>
					<dim>-1</dim>
					<dim>3072</dim>
				</port>
				<port id="1" precision="I32">
					<dim>3</dim>
				</port>
			</input>
			<output>
				<port id="2" precision="FP32">
					<dim>-1</dim>
					<dim>-1</dim>
					<dim>3072</dim>
				</port>
			</output>
		</layer>
		<layer id="133" name="__module.transformer.roberta.encoder.layers.0.mixer/aten::index_put_/ScatterNDUpdate" type="ScatterNDUpdate" version="opset4">
			<input>
				<port id="0" precision="FP32">
					<dim>-1</dim>
					<dim>-1</dim>
					<dim>3072</dim>
				</port>
				<port id="1" precision="I64">
					<dim>-1</dim>
					<dim>1</dim>
				</port>
				<port id="2" precision="FP32">
					<dim>-1</dim>
					<dim>-1</dim>
					<dim>3072</dim>
				</port>
			</input>
			<output>
				<port id="3" precision="FP32" names="210_2">
					<dim>-1</dim>
					<dim>-1</dim>
					<dim>3072</dim>
				</port>
			</output>
		</layer>
		<layer id="134" name="Constant_676757" type="Const" version="opset1">
			<data element_type="i64" shape="5" offset="520357074" size="40" />
			<rt_info>
				<attribute name="precise" version="0" />
			</rt_info>
			<output>
				<port id="0" precision="I64">
					<dim>5</dim>
				</port>
			</output>
		</layer>
		<layer id="135" name="__module.transformer.roberta.encoder.layers.0.mixer/aten::reshape/Reshape" type="Reshape" version="opset1">
			<data special_zero="true" />
			<input>
				<port id="0" precision="FP32">
					<dim>-1</dim>
					<dim>-1</dim>
					<dim>3072</dim>
				</port>
				<port id="1" precision="I64">
					<dim>5</dim>
				</port>
			</input>
			<output>
				<port id="2" precision="FP32" names="0,181_2,186_2,24_1,251_1,29_2,338_1,343_1,qkv">
					<dim>-1</dim>
					<dim>-1</dim>
					<dim>3</dim>
					<dim>16</dim>
					<dim>64</dim>
				</port>
			</output>
		</layer>
		<layer id="136" name="31" type="Const" version="opset1">
			<data element_type="i64" shape="" offset="14" size="8" />
			<output>
				<port id="0" precision="I64" names="31_2" />
			</output>
		</layer>
		<layer id="137" name="30" type="Const" version="opset1">
			<data element_type="i64" shape="" offset="520357114" size="8" />
			<output>
				<port id="0" precision="I64" names="30_2" />
			</output>
		</layer>
		<layer id="138" name="__module.transformer.roberta.encoder.layers.0.mixer.rotary_emb/aten::select/Gather" type="Gather" version="opset8">
			<data batch_dims="0" />
			<input>
				<port id="0" precision="FP32">
					<dim>-1</dim>
					<dim>-1</dim>
					<dim>3</dim>
					<dim>16</dim>
					<dim>64</dim>
				</port>
				<port id="1" precision="I64" />
				<port id="2" precision="I64" />
			</input>
			<output>
				<port id="3" precision="FP32" names="32_2">
					<dim>-1</dim>
					<dim>-1</dim>
					<dim>16</dim>
					<dim>64</dim>
				</port>
			</output>
		</layer>
		<layer id="139" name="Constant_342646" type="Const" version="opset1">
			<data element_type="i64" shape="1" offset="14" size="8" />
			<output>
				<port id="0" precision="I64">
					<dim>1</dim>
				</port>
			</output>
		</layer>
		<layer id="140" name="__module.transformer.roberta.encoder.layers.0.mixer.rotary_emb/aten::slice/Reshape" type="Const" version="opset1">
			<data element_type="i64" shape="1" offset="520357122" size="8" />
			<output>
				<port id="0" precision="I64">
					<dim>1</dim>
				</port>
			</output>
		</layer>
		<layer id="141" name="Constant_342713" type="Const" version="opset1">
			<data element_type="i64" shape="1" offset="514022602" size="8" />
			<output>
				<port id="0" precision="I64">
					<dim>1</dim>
				</port>
			</output>
		</layer>
		<layer id="142" name="Constant_342644" type="Const" version="opset1">
			<data element_type="i64" shape="1" offset="520357130" size="8" />
			<output>
				<port id="0" precision="I64">
					<dim>1</dim>
				</port>
			</output>
		</layer>
		<layer id="143" name="__module.transformer.roberta.encoder.layers.0.mixer.rotary_emb/aten::slice/Slice_2" type="Slice" version="opset8">
			<input>
				<port id="0" precision="FP32">
					<dim>-1</dim>
					<dim>-1</dim>
					<dim>16</dim>
					<dim>64</dim>
				</port>
				<port id="1" precision="I64">
					<dim>1</dim>
				</port>
				<port id="2" precision="I64">
					<dim>1</dim>
				</port>
				<port id="3" precision="I64">
					<dim>1</dim>
				</port>
				<port id="4" precision="I64">
					<dim>1</dim>
				</port>
			</input>
			<output>
				<port id="5" precision="FP32" names="152_2,157_2">
					<dim>-1</dim>
					<dim>-1</dim>
					<dim>16</dim>
					<dim>64</dim>
				</port>
			</output>
		</layer>
		<layer id="144" name="Constant_341356_compressed" type="Const" version="opset1">
			<data element_type="f16" shape="512, 32" offset="520357138" size="32768" />
			<output>
				<port id="0" precision="FP16" names="1,45_1,cos.1,cos.103,cos.109,cos.115,cos.121,cos.127,cos.13,cos.133,cos.139,cos.19,cos.25,cos.31,cos.37,cos.43,cos.49,cos.55,cos.61,cos.67,cos.7,cos.73,cos.79,cos.85,cos.91,cos.97">
					<dim>512</dim>
					<dim>32</dim>
				</port>
			</output>
		</layer>
		<layer id="145" name="Constant_341356" type="Convert" version="opset1">
			<data destination_type="f32" />
			<rt_info>
				<attribute name="decompression" version="0" />
			</rt_info>
			<input>
				<port id="0" precision="FP16">
					<dim>512</dim>
					<dim>32</dim>
				</port>
			</input>
			<output>
				<port id="1" precision="FP32">
					<dim>512</dim>
					<dim>32</dim>
				</port>
			</output>
		</layer>
		<layer id="146" name="Constant_341969" type="Const" version="opset1">
			<data element_type="i64" shape="1" offset="14" size="8" />
			<output>
				<port id="0" precision="I64">
					<dim>1</dim>
				</port>
			</output>
		</layer>
		<layer id="147" name="Constant_341976" type="Const" version="opset1">
			<data element_type="i64" shape="1" offset="514022602" size="8" />
			<output>
				<port id="0" precision="I64">
					<dim>1</dim>
				</port>
			</output>
		</layer>
		<layer id="148" name="Constant_341967" type="Const" version="opset1">
			<data element_type="i64" shape="1" offset="14" size="8" />
			<output>
				<port id="0" precision="I64">
					<dim>1</dim>
				</port>
			</output>
		</layer>
		<layer id="149" name="__module.transformer.roberta.encoder.layers.0.mixer.rotary_emb/aten::slice/Slice_3" type="Slice" version="opset8">
			<input>
				<port id="0" precision="FP32">
					<dim>512</dim>
					<dim>32</dim>
				</port>
				<port id="1" precision="I64">
					<dim>1</dim>
				</port>
				<port id="2" precision="I64">
					<dim>1</dim>
				</port>
				<port id="3" precision="I64">
					<dim>1</dim>
				</port>
				<port id="4" precision="I64">
					<dim>1</dim>
				</port>
			</input>
			<output>
				<port id="5" precision="FP32" names="230,230_10,230_11,230_12,230_13,230_14,230_15,230_16,230_17,230_18,230_19,230_2,230_20,230_21,230_22,230_23,230_24,230_3,230_4,230_5,230_6,230_7,230_8,230_9,73,73_10,73_11,73_12,73_13,73_14,73_15,73_16,73_17,73_18,73_19,73_2,73_20,73_21,73_22,73_23,73_24,73_3,73_4,73_5,73_6,73_7,73_8,73_9,x.975,x.991">
					<dim>-1</dim>
					<dim>32</dim>
				</port>
			</output>
		</layer>
		<layer id="150" name="109" type="Const" version="opset1">
			<data element_type="i64" shape="" offset="514022602" size="8" />
			<output>
				<port id="0" precision="I64" names="109_2" />
			</output>
		</layer>
		<layer id="151" name="__module.transformer.roberta.encoder.layers.0.mixer.rotary_emb/aten::unsqueeze/Unsqueeze" type="Unsqueeze" version="opset1">
			<input>
				<port id="0" precision="FP32">
					<dim>-1</dim>
					<dim>32</dim>
				</port>
				<port id="1" precision="I64" />
			</input>
			<output>
				<port id="2" precision="FP32" names="110,110_10,110_11,110_12,110_13,110_14,110_15,110_16,110_17,110_18,110_19,110_2,110_20,110_21,110_22,110_23,110_24,110_3,110_4,110_5,110_6,110_7,110_8,110_9,267,267_1,267_10,267_11,267_12,267_13,267_14,267_15,267_16,267_17,267_18,267_19,267_20,267_21,267_22,267_23,267_24,267_3,267_4,267_5,267_6,267_7,267_8,267_9,x.977,x.993">
					<dim>-1</dim>
					<dim>1</dim>
					<dim>32</dim>
				</port>
			</output>
		</layer>
		<layer id="152" name="__module.transformer.roberta.encoder.layers.0.mixer.rotary_emb/aten::expand/Abs" type="Const" version="opset1">
			<data element_type="i64" shape="3" offset="520389906" size="24" />
			<rt_info>
				<attribute name="precise" version="0" />
			</rt_info>
			<output>
				<port id="0" precision="I64">
					<dim>3</dim>
				</port>
			</output>
		</layer>
		<layer id="153" name="__module.transformer.roberta.encoder.layers.0.mixer.rotary_emb/aten::expand/Broadcast" type="Broadcast" version="opset3">
			<data mode="bidirectional" />
			<input>
				<port id="0" precision="FP32">
					<dim>-1</dim>
					<dim>1</dim>
					<dim>32</dim>
				</port>
				<port id="1" precision="I64">
					<dim>3</dim>
				</port>
			</input>
			<output>
				<port id="2" precision="FP32" names="116,116_10,116_11,116_12,116_13,116_14,116_15,116_16,116_17,116_18,116_19,116_2,116_20,116_21,116_22,116_23,116_24,116_3,116_4,116_5,116_6,116_7,116_8,116_9,273,273_1,273_10,273_11,273_12,273_13,273_14,273_15,273_16,273_17,273_18,273_19,273_20,273_21,273_22,273_23,273_24,273_3,273_4,273_5,273_6,273_7,273_8,273_9,x.979,x.995">
					<dim>-1</dim>
					<dim>2</dim>
					<dim>32</dim>
				</port>
			</output>
		</layer>
		<layer id="154" name="Constant_676758" type="Const" version="opset1">
			<data element_type="i64" shape="3" offset="520389930" size="24" />
			<rt_info>
				<attribute name="precise" version="0" />
			</rt_info>
			<output>
				<port id="0" precision="I64">
					<dim>3</dim>
				</port>
			</output>
		</layer>
		<layer id="155" name="__module.transformer.roberta.encoder.layers.0.mixer.rotary_emb/aten::reshape/Reshape" type="Reshape" version="opset1">
			<data special_zero="true" />
			<input>
				<port id="0" precision="FP32">
					<dim>-1</dim>
					<dim>2</dim>
					<dim>32</dim>
				</port>
				<port id="1" precision="I64">
					<dim>3</dim>
				</port>
			</input>
			<output>
				<port id="2" precision="FP32" names="119,119_10,119_11,119_12,119_13,119_14,119_15,119_16,119_17,119_18,119_19,119_2,119_20,119_21,119_22,119_23,119_24,119_3,119_4,119_5,119_6,119_7,119_8,119_9,276,276_1,276_10,276_11,276_12,276_13,276_14,276_15,276_16,276_17,276_18,276_19,276_20,276_21,276_22,276_23,276_24,276_3,276_4,276_5,276_6,276_7,276_8,276_9,cos,cos.141">
					<dim>-1</dim>
					<dim>1</dim>
					<dim>64</dim>
				</port>
			</output>
		</layer>
		<layer id="156" name="__module.transformer.roberta.encoder.layers.0.mixer.rotary_emb/aten::mul/Multiply_3" type="Multiply" version="opset1">
			<data auto_broadcast="numpy" />
			<input>
				<port id="0" precision="FP32">
					<dim>-1</dim>
					<dim>-1</dim>
					<dim>16</dim>
					<dim>64</dim>
				</port>
				<port id="1" precision="FP32">
					<dim>-1</dim>
					<dim>1</dim>
					<dim>64</dim>
				</port>
			</input>
			<output>
				<port id="2" precision="FP32" names="153_2">
					<dim>-1</dim>
					<dim>-1</dim>
					<dim>16</dim>
					<dim>64</dim>
				</port>
			</output>
		</layer>
		<layer id="157" name="159" type="Const" version="opset1">
			<data element_type="i64" shape="" offset="520389954" size="8" />
			<output>
				<port id="0" precision="I64" names="159_2" />
			</output>
		</layer>
		<layer id="158" name="__module.transformer.roberta.encoder.layers.0.mixer.rotary_emb/prim::ListUnpack/ShapeOf" type="ShapeOf" version="opset3">
			<data output_type="i32" />
			<input>
				<port id="0" precision="FP32">
					<dim>-1</dim>
					<dim>-1</dim>
					<dim>16</dim>
					<dim>64</dim>
				</port>
			</input>
			<output>
				<port id="1" precision="I32">
					<dim>4</dim>
				</port>
			</output>
		</layer>
		<layer id="159" name="Constant_445717" type="Const" version="opset1">
			<data element_type="i32" shape="1" offset="10" size="4" />
			<output>
				<port id="0" precision="I32">
					<dim>1</dim>
				</port>
			</output>
		</layer>
		<layer id="160" name="__module.transformer.roberta.encoder.layers.0.mixer.rotary_emb/prim::ListUnpack/Gather" type="Gather" version="opset8">
			<data batch_dims="0" />
			<input>
				<port id="0" precision="I32">
					<dim>4</dim>
				</port>
				<port id="1" precision="I64" />
				<port id="2" precision="I32">
					<dim>1</dim>
				</port>
			</input>
			<output>
				<port id="3" precision="I32" />
			</output>
		</layer>
		<layer id="161" name="__module.transformer.roberta.encoder.layers.0.mixer.rotary_emb/prim::ListUnpack/Convert" type="Const" version="opset1">
			<data element_type="i32" shape="" offset="520389962" size="4" />
			<output>
				<port id="0" precision="I32" />
			</output>
		</layer>
		<layer id="162" name="__module.transformer.roberta.encoder.layers.0.mixer.rotary_emb/prim::ListUnpack/Divide" type="Divide" version="opset1">
			<data auto_broadcast="numpy" m_pythondiv="true" />
			<input>
				<port id="0" precision="I32" />
				<port id="1" precision="I32" />
			</input>
			<output>
				<port id="2" precision="I32" />
			</output>
		</layer>
		<layer id="163" name="__module.transformer.roberta.encoder.layers.0.mixer.rotary_emb/prim::ListUnpack/Mod" type="Mod" version="opset1">
			<data auto_broadcast="numpy" />
			<input>
				<port id="0" precision="I32" />
				<port id="1" precision="I32" />
			</input>
			<output>
				<port id="2" precision="I32" />
			</output>
		</layer>
		<layer id="164" name="__module.transformer.roberta.encoder.layers.0.mixer.rotary_emb/prim::ListUnpack/Greater" type="Greater" version="opset1">
			<data auto_broadcast="numpy" />
			<input>
				<port id="0" precision="I32" />
				<port id="1" precision="I32">
					<dim>1</dim>
				</port>
			</input>
			<output>
				<port id="2" precision="BOOL">
					<dim>1</dim>
				</port>
			</output>
		</layer>
		<layer id="165" name="__module.transformer.roberta.encoder.layers.0.mixer.rotary_emb/prim::ListUnpack/Convert_0" type="Convert" version="opset1">
			<data destination_type="i32" />
			<input>
				<port id="0" precision="BOOL">
					<dim>1</dim>
				</port>
			</input>
			<output>
				<port id="1" precision="I32">
					<dim>1</dim>
				</port>
			</output>
		</layer>
		<layer id="166" name="__module.transformer.roberta.encoder.layers.0.mixer.rotary_emb/prim::ListUnpack/Add" type="Add" version="opset1">
			<data auto_broadcast="numpy" />
			<input>
				<port id="0" precision="I32" />
				<port id="1" precision="I32">
					<dim>1</dim>
				</port>
			</input>
			<output>
				<port id="2" precision="I32">
					<dim>1</dim>
				</port>
			</output>
		</layer>
		<layer id="167" name="Constant_445718" type="Const" version="opset1">
			<data element_type="i32" shape="1" offset="22" size="4" />
			<output>
				<port id="0" precision="I32">
					<dim>1</dim>
				</port>
			</output>
		</layer>
		<layer id="168" name="__module.transformer.roberta.encoder.layers.0.mixer.rotary_emb/prim::ListUnpack/Concat" type="Concat" version="opset1">
			<data axis="0" />
			<input>
				<port id="0" precision="I32">
					<dim>1</dim>
				</port>
				<port id="1" precision="I32">
					<dim>1</dim>
				</port>
			</input>
			<output>
				<port id="2" precision="I32">
					<dim>2</dim>
				</port>
			</output>
		</layer>
		<layer id="169" name="__module.transformer.roberta.encoder.layers.0.mixer.rotary_emb/prim::ListUnpack/VariadicSplit" type="VariadicSplit" version="opset1">
			<input>
				<port id="0" precision="FP32">
					<dim>-1</dim>
					<dim>-1</dim>
					<dim>16</dim>
					<dim>64</dim>
				</port>
				<port id="1" precision="I64" />
				<port id="2" precision="I32">
					<dim>2</dim>
				</port>
			</input>
			<output>
				<port id="3" precision="FP32" names="161_2">
					<dim>-1</dim>
					<dim>-1</dim>
					<dim>16</dim>
					<dim>32</dim>
				</port>
				<port id="4" precision="FP32" names="162_2">
					<dim>-1</dim>
					<dim>-1</dim>
					<dim>16</dim>
					<dim>32</dim>
				</port>
			</output>
		</layer>
		<layer id="170" name="Constant_667480_compressed" type="Const" version="opset1">
			<data element_type="f16" shape="1, 1, 1, 1" offset="520389966" size="2" />
			<output>
				<port id="0" precision="FP16">
					<dim>1</dim>
					<dim>1</dim>
					<dim>1</dim>
					<dim>1</dim>
				</port>
			</output>
		</layer>
		<layer id="171" name="Constant_667480" type="Convert" version="opset1">
			<data destination_type="f32" />
			<rt_info>
				<attribute name="decompression" version="0" />
			</rt_info>
			<input>
				<port id="0" precision="FP16">
					<dim>1</dim>
					<dim>1</dim>
					<dim>1</dim>
					<dim>1</dim>
				</port>
			</input>
			<output>
				<port id="1" precision="FP32">
					<dim>1</dim>
					<dim>1</dim>
					<dim>1</dim>
					<dim>1</dim>
				</port>
			</output>
		</layer>
		<layer id="172" name="__module.transformer.roberta.encoder.layers.0.mixer.rotary_emb/aten::neg/Multiply" type="Multiply" version="opset1">
			<data auto_broadcast="numpy" />
			<input>
				<port id="0" precision="FP32">
					<dim>-1</dim>
					<dim>-1</dim>
					<dim>16</dim>
					<dim>32</dim>
				</port>
				<port id="1" precision="FP32">
					<dim>1</dim>
					<dim>1</dim>
					<dim>1</dim>
					<dim>1</dim>
				</port>
			</input>
			<output>
				<port id="2" precision="FP32" names="163_2">
					<dim>-1</dim>
					<dim>-1</dim>
					<dim>16</dim>
					<dim>32</dim>
				</port>
			</output>
		</layer>
		<layer id="173" name="__module.transformer.roberta.encoder.layers.0.mixer.rotary_emb/aten::cat/Concat" type="Concat" version="opset1">
			<data axis="-1" />
			<input>
				<port id="0" precision="FP32">
					<dim>-1</dim>
					<dim>-1</dim>
					<dim>16</dim>
					<dim>32</dim>
				</port>
				<port id="1" precision="FP32">
					<dim>-1</dim>
					<dim>-1</dim>
					<dim>16</dim>
					<dim>32</dim>
				</port>
			</input>
			<output>
				<port id="2" precision="FP32" names="166_2">
					<dim>-1</dim>
					<dim>-1</dim>
					<dim>16</dim>
					<dim>64</dim>
				</port>
			</output>
		</layer>
		<layer id="174" name="Constant_341358_compressed" type="Const" version="opset1">
			<data element_type="f16" shape="512, 32" offset="520389968" size="32768" />
			<output>
				<port id="0" precision="FP16" names="2,46,sin.1,sin.103,sin.109,sin.115,sin.121,sin.127,sin.13,sin.133,sin.139,sin.19,sin.25,sin.31,sin.37,sin.43,sin.49,sin.55,sin.61,sin.67,sin.7,sin.73,sin.79,sin.85,sin.91,sin.97">
					<dim>512</dim>
					<dim>32</dim>
				</port>
			</output>
		</layer>
		<layer id="175" name="Constant_341358" type="Convert" version="opset1">
			<data destination_type="f32" />
			<rt_info>
				<attribute name="decompression" version="0" />
			</rt_info>
			<input>
				<port id="0" precision="FP16">
					<dim>512</dim>
					<dim>32</dim>
				</port>
			</input>
			<output>
				<port id="1" precision="FP32">
					<dim>512</dim>
					<dim>32</dim>
				</port>
			</output>
		</layer>
		<layer id="176" name="Constant_342002" type="Const" version="opset1">
			<data element_type="i64" shape="1" offset="14" size="8" />
			<output>
				<port id="0" precision="I64">
					<dim>1</dim>
				</port>
			</output>
		</layer>
		<layer id="177" name="Constant_342009" type="Const" version="opset1">
			<data element_type="i64" shape="1" offset="514022602" size="8" />
			<output>
				<port id="0" precision="I64">
					<dim>1</dim>
				</port>
			</output>
		</layer>
		<layer id="178" name="Constant_342000" type="Const" version="opset1">
			<data element_type="i64" shape="1" offset="14" size="8" />
			<output>
				<port id="0" precision="I64">
					<dim>1</dim>
				</port>
			</output>
		</layer>
		<layer id="179" name="__module.transformer.roberta.encoder.layers.0.mixer.rotary_emb/aten::slice/Slice_5" type="Slice" version="opset8">
			<input>
				<port id="0" precision="FP32">
					<dim>512</dim>
					<dim>32</dim>
				</port>
				<port id="1" precision="I64">
					<dim>1</dim>
				</port>
				<port id="2" precision="I64">
					<dim>1</dim>
				</port>
				<port id="3" precision="I64">
					<dim>1</dim>
				</port>
				<port id="4" precision="I64">
					<dim>1</dim>
				</port>
			</input>
			<output>
				<port id="5" precision="FP32" names="247,247_1,247_10,247_11,247_12,247_13,247_14,247_15,247_16,247_17,247_18,247_19,247_2,247_20,247_21,247_22,247_23,247_3,247_4,247_5,247_6,247_7,247_8,247_9,90,90_10,90_11,90_12,90_13,90_14,90_15,90_16,90_17,90_18,90_19,90_2,90_20,90_21,90_22,90_23,90_24,90_3,90_4,90_5,90_6,90_7,90_8,90_9,x.981,x.997">
					<dim>-1</dim>
					<dim>32</dim>
				</port>
			</output>
		</layer>
		<layer id="180" name="138" type="Const" version="opset1">
			<data element_type="i64" shape="" offset="514022602" size="8" />
			<output>
				<port id="0" precision="I64" names="138_2" />
			</output>
		</layer>
		<layer id="181" name="__module.transformer.roberta.encoder.layers.0.mixer.rotary_emb/aten::unsqueeze/Unsqueeze_1" type="Unsqueeze" version="opset1">
			<input>
				<port id="0" precision="FP32">
					<dim>-1</dim>
					<dim>32</dim>
				</port>
				<port id="1" precision="I64" />
			</input>
			<output>
				<port id="2" precision="FP32" names="139,139_1,139_10,139_11,139_12,139_13,139_14,139_15,139_16,139_17,139_18,139_19,139_2,139_20,139_21,139_22,139_23,139_3,139_4,139_5,139_6,139_7,139_8,139_9,296,296_1,296_10,296_11,296_12,296_13,296_14,296_15,296_16,296_17,296_18,296_19,296_20,296_21,296_22,296_23,296_24,296_3,296_4,296_5,296_6,296_7,296_8,296_9,x.983,x.999">
					<dim>-1</dim>
					<dim>1</dim>
					<dim>32</dim>
				</port>
			</output>
		</layer>
		<layer id="182" name="__module.transformer.roberta.encoder.layers.0.mixer.rotary_emb/aten::expand/Abs_1" type="Const" version="opset1">
			<data element_type="i64" shape="3" offset="520389906" size="24" />
			<rt_info>
				<attribute name="precise" version="0" />
			</rt_info>
			<output>
				<port id="0" precision="I64">
					<dim>3</dim>
				</port>
			</output>
		</layer>
		<layer id="183" name="__module.transformer.roberta.encoder.layers.0.mixer.rotary_emb/aten::expand/Broadcast_1" type="Broadcast" version="opset3">
			<data mode="bidirectional" />
			<input>
				<port id="0" precision="FP32">
					<dim>-1</dim>
					<dim>1</dim>
					<dim>32</dim>
				</port>
				<port id="1" precision="I64">
					<dim>3</dim>
				</port>
			</input>
			<output>
				<port id="2" precision="FP32" names="145,145_10,145_11,145_12,145_13,145_14,145_15,145_16,145_17,145_18,145_19,145_2,145_20,145_21,145_22,145_23,145_24,145_3,145_4,145_5,145_6,145_7,145_8,145_9,302,302_1,302_10,302_11,302_12,302_13,302_14,302_15,302_16,302_17,302_18,302_19,302_20,302_21,302_22,302_23,302_24,302_3,302_4,302_5,302_6,302_7,302_8,302_9,x.1001,x.985">
					<dim>-1</dim>
					<dim>2</dim>
					<dim>32</dim>
				</port>
			</output>
		</layer>
		<layer id="184" name="Constant_676759" type="Const" version="opset1">
			<data element_type="i64" shape="3" offset="520389930" size="24" />
			<rt_info>
				<attribute name="precise" version="0" />
			</rt_info>
			<output>
				<port id="0" precision="I64">
					<dim>3</dim>
				</port>
			</output>
		</layer>
		<layer id="185" name="__module.transformer.roberta.encoder.layers.0.mixer.rotary_emb/aten::reshape/Reshape_1" type="Reshape" version="opset1">
			<data special_zero="true" />
			<input>
				<port id="0" precision="FP32">
					<dim>-1</dim>
					<dim>2</dim>
					<dim>32</dim>
				</port>
				<port id="1" precision="I64">
					<dim>3</dim>
				</port>
			</input>
			<output>
				<port id="2" precision="FP32" names="148,148_10,148_11,148_12,148_13,148_14,148_15,148_16,148_17,148_18,148_19,148_2,148_20,148_21,148_22,148_23,148_24,148_3,148_4,148_5,148_6,148_7,148_8,148_9,305,305_1,305_10,305_11,305_12,305_13,305_14,305_15,305_16,305_17,305_18,305_19,305_20,305_21,305_22,305_23,305_24,305_3,305_4,305_5,305_6,305_7,305_8,305_9,sin,sin.141">
					<dim>-1</dim>
					<dim>1</dim>
					<dim>64</dim>
				</port>
			</output>
		</layer>
		<layer id="186" name="__module.transformer.roberta.encoder.layers.0.mixer.rotary_emb/aten::mul/Multiply_6" type="Multiply" version="opset1">
			<data auto_broadcast="numpy" />
			<input>
				<port id="0" precision="FP32">
					<dim>-1</dim>
					<dim>-1</dim>
					<dim>16</dim>
					<dim>64</dim>
				</port>
				<port id="1" precision="FP32">
					<dim>-1</dim>
					<dim>1</dim>
					<dim>64</dim>
				</port>
			</input>
			<output>
				<port id="2" precision="FP32" names="167_2">
					<dim>-1</dim>
					<dim>-1</dim>
					<dim>16</dim>
					<dim>64</dim>
				</port>
			</output>
		</layer>
		<layer id="187" name="__module.transformer.roberta.encoder.layers.0.mixer.rotary_emb/aten::add/Add" type="Add" version="opset1">
			<data auto_broadcast="numpy" />
			<input>
				<port id="0" precision="FP32">
					<dim>-1</dim>
					<dim>-1</dim>
					<dim>16</dim>
					<dim>64</dim>
				</port>
				<port id="1" precision="FP32">
					<dim>-1</dim>
					<dim>-1</dim>
					<dim>16</dim>
					<dim>64</dim>
				</port>
			</input>
			<output>
				<port id="2" precision="FP32" names="169_2,176_2">
					<dim>-1</dim>
					<dim>-1</dim>
					<dim>16</dim>
					<dim>64</dim>
				</port>
			</output>
		</layer>
		<layer id="188" name="348" type="Const" version="opset1">
			<data element_type="i64" shape="" offset="520357114" size="8" />
			<output>
				<port id="0" precision="I64" names="348_1" />
			</output>
		</layer>
		<layer id="189" name="Unsqueeze_426876" type="Unsqueeze" version="opset1">
			<input>
				<port id="0" precision="FP32">
					<dim>-1</dim>
					<dim>-1</dim>
					<dim>16</dim>
					<dim>64</dim>
				</port>
				<port id="1" precision="I64" />
			</input>
			<output>
				<port id="2" precision="FP32">
					<dim>-1</dim>
					<dim>-1</dim>
					<dim>1</dim>
					<dim>16</dim>
					<dim>64</dim>
				</port>
			</output>
		</layer>
		<layer id="190" name="188" type="Const" version="opset1">
			<data element_type="i64" shape="" offset="514022602" size="8" />
			<output>
				<port id="0" precision="I64" names="188_2" />
			</output>
		</layer>
		<layer id="191" name="187" type="Const" version="opset1">
			<data element_type="i64" shape="" offset="520357114" size="8" />
			<output>
				<port id="0" precision="I64" names="187_2" />
			</output>
		</layer>
		<layer id="192" name="__module.transformer.roberta.encoder.layers.0.mixer.rotary_emb/aten::select/Gather_1" type="Gather" version="opset8">
			<data batch_dims="0" />
			<input>
				<port id="0" precision="FP32">
					<dim>-1</dim>
					<dim>-1</dim>
					<dim>3</dim>
					<dim>16</dim>
					<dim>64</dim>
				</port>
				<port id="1" precision="I64" />
				<port id="2" precision="I64" />
			</input>
			<output>
				<port id="3" precision="FP32" names="189_2">
					<dim>-1</dim>
					<dim>-1</dim>
					<dim>16</dim>
					<dim>64</dim>
				</port>
			</output>
		</layer>
		<layer id="193" name="Constant_343667" type="Const" version="opset1">
			<data element_type="i64" shape="1" offset="14" size="8" />
			<output>
				<port id="0" precision="I64">
					<dim>1</dim>
				</port>
			</output>
		</layer>
		<layer id="194" name="Constant_343734" type="Const" version="opset1">
			<data element_type="i64" shape="1" offset="514022602" size="8" />
			<output>
				<port id="0" precision="I64">
					<dim>1</dim>
				</port>
			</output>
		</layer>
		<layer id="195" name="Constant_343665" type="Const" version="opset1">
			<data element_type="i64" shape="1" offset="520357130" size="8" />
			<output>
				<port id="0" precision="I64">
					<dim>1</dim>
				</port>
			</output>
		</layer>
		<layer id="196" name="__module.transformer.roberta.encoder.layers.0.mixer.rotary_emb/aten::slice/Slice_9" type="Slice" version="opset8">
			<input>
				<port id="0" precision="FP32">
					<dim>-1</dim>
					<dim>-1</dim>
					<dim>16</dim>
					<dim>64</dim>
				</port>
				<port id="1" precision="I64">
					<dim>1</dim>
				</port>
				<port id="2" precision="I64">
					<dim>1</dim>
				</port>
				<port id="3" precision="I64">
					<dim>1</dim>
				</port>
				<port id="4" precision="I64">
					<dim>1</dim>
				</port>
			</input>
			<output>
				<port id="5" precision="FP32" names="309_1,314_1">
					<dim>-1</dim>
					<dim>-1</dim>
					<dim>16</dim>
					<dim>64</dim>
				</port>
			</output>
		</layer>
		<layer id="197" name="__module.transformer.roberta.encoder.layers.0.mixer.rotary_emb/aten::mul/Multiply_10" type="Multiply" version="opset1">
			<data auto_broadcast="numpy" />
			<input>
				<port id="0" precision="FP32">
					<dim>-1</dim>
					<dim>-1</dim>
					<dim>16</dim>
					<dim>64</dim>
				</port>
				<port id="1" precision="FP32">
					<dim>-1</dim>
					<dim>1</dim>
					<dim>64</dim>
				</port>
			</input>
			<output>
				<port id="2" precision="FP32" names="310_1">
					<dim>-1</dim>
					<dim>-1</dim>
					<dim>16</dim>
					<dim>64</dim>
				</port>
			</output>
		</layer>
		<layer id="198" name="316" type="Const" version="opset1">
			<data element_type="i64" shape="" offset="520389954" size="8" />
			<output>
				<port id="0" precision="I64" names="316_1" />
			</output>
		</layer>
		<layer id="199" name="__module.transformer.roberta.encoder.layers.0.mixer.rotary_emb/prim::ListUnpack/VariadicSplit_1" type="VariadicSplit" version="opset1">
			<input>
				<port id="0" precision="FP32">
					<dim>-1</dim>
					<dim>-1</dim>
					<dim>16</dim>
					<dim>64</dim>
				</port>
				<port id="1" precision="I64" />
				<port id="2" precision="I32">
					<dim>2</dim>
				</port>
			</input>
			<output>
				<port id="3" precision="FP32" names="318_1">
					<dim>-1</dim>
					<dim>-1</dim>
					<dim>16</dim>
					<dim>32</dim>
				</port>
				<port id="4" precision="FP32" names="319_1">
					<dim>-1</dim>
					<dim>-1</dim>
					<dim>16</dim>
					<dim>32</dim>
				</port>
			</output>
		</layer>
		<layer id="200" name="Constant_667481_compressed" type="Const" version="opset1">
			<data element_type="f16" shape="1, 1, 1, 1" offset="520389966" size="2" />
			<output>
				<port id="0" precision="FP16">
					<dim>1</dim>
					<dim>1</dim>
					<dim>1</dim>
					<dim>1</dim>
				</port>
			</output>
		</layer>
		<layer id="201" name="Constant_667481" type="Convert" version="opset1">
			<data destination_type="f32" />
			<rt_info>
				<attribute name="decompression" version="0" />
			</rt_info>
			<input>
				<port id="0" precision="FP16">
					<dim>1</dim>
					<dim>1</dim>
					<dim>1</dim>
					<dim>1</dim>
				</port>
			</input>
			<output>
				<port id="1" precision="FP32">
					<dim>1</dim>
					<dim>1</dim>
					<dim>1</dim>
					<dim>1</dim>
				</port>
			</output>
		</layer>
		<layer id="202" name="__module.transformer.roberta.encoder.layers.0.mixer.rotary_emb/aten::neg/Multiply_1" type="Multiply" version="opset1">
			<data auto_broadcast="numpy" />
			<input>
				<port id="0" precision="FP32">
					<dim>-1</dim>
					<dim>-1</dim>
					<dim>16</dim>
					<dim>32</dim>
				</port>
				<port id="1" precision="FP32">
					<dim>1</dim>
					<dim>1</dim>
					<dim>1</dim>
					<dim>1</dim>
				</port>
			</input>
			<output>
				<port id="2" precision="FP32" names="320_1">
					<dim>-1</dim>
					<dim>-1</dim>
					<dim>16</dim>
					<dim>32</dim>
				</port>
			</output>
		</layer>
		<layer id="203" name="__module.transformer.roberta.encoder.layers.0.mixer.rotary_emb/aten::cat/Concat_2" type="Concat" version="opset1">
			<data axis="-1" />
			<input>
				<port id="0" precision="FP32">
					<dim>-1</dim>
					<dim>-1</dim>
					<dim>16</dim>
					<dim>32</dim>
				</port>
				<port id="1" precision="FP32">
					<dim>-1</dim>
					<dim>-1</dim>
					<dim>16</dim>
					<dim>32</dim>
				</port>
			</input>
			<output>
				<port id="2" precision="FP32" names="323_1">
					<dim>-1</dim>
					<dim>-1</dim>
					<dim>16</dim>
					<dim>64</dim>
				</port>
			</output>
		</layer>
		<layer id="204" name="__module.transformer.roberta.encoder.layers.0.mixer.rotary_emb/aten::mul/Multiply_13" type="Multiply" version="opset1">
			<data auto_broadcast="numpy" />
			<input>
				<port id="0" precision="FP32">
					<dim>-1</dim>
					<dim>-1</dim>
					<dim>16</dim>
					<dim>64</dim>
				</port>
				<port id="1" precision="FP32">
					<dim>-1</dim>
					<dim>1</dim>
					<dim>64</dim>
				</port>
			</input>
			<output>
				<port id="2" precision="FP32" names="324_1">
					<dim>-1</dim>
					<dim>-1</dim>
					<dim>16</dim>
					<dim>64</dim>
				</port>
			</output>
		</layer>
		<layer id="205" name="__module.transformer.roberta.encoder.layers.0.mixer.rotary_emb/aten::add/Add_1" type="Add" version="opset1">
			<data auto_broadcast="numpy" />
			<input>
				<port id="0" precision="FP32">
					<dim>-1</dim>
					<dim>-1</dim>
					<dim>16</dim>
					<dim>64</dim>
				</port>
				<port id="1" precision="FP32">
					<dim>-1</dim>
					<dim>-1</dim>
					<dim>16</dim>
					<dim>64</dim>
				</port>
			</input>
			<output>
				<port id="2" precision="FP32" names="326_1,333_1">
					<dim>-1</dim>
					<dim>-1</dim>
					<dim>16</dim>
					<dim>64</dim>
				</port>
			</output>
		</layer>
		<layer id="206" name="Unsqueeze_426877" type="Unsqueeze" version="opset1">
			<input>
				<port id="0" precision="FP32">
					<dim>-1</dim>
					<dim>-1</dim>
					<dim>16</dim>
					<dim>64</dim>
				</port>
				<port id="1" precision="I64" />
			</input>
			<output>
				<port id="2" precision="FP32">
					<dim>-1</dim>
					<dim>-1</dim>
					<dim>1</dim>
					<dim>16</dim>
					<dim>64</dim>
				</port>
			</output>
		</layer>
		<layer id="207" name="345" type="Const" version="opset1">
			<data element_type="i64" shape="" offset="520357114" size="8" />
			<output>
				<port id="0" precision="I64" names="345_1" />
			</output>
		</layer>
		<layer id="208" name="344" type="Const" version="opset1">
			<data element_type="i64" shape="" offset="520357114" size="8" />
			<output>
				<port id="0" precision="I64" names="344_1" />
			</output>
		</layer>
		<layer id="209" name="__module.transformer.roberta.encoder.layers.0.mixer.rotary_emb/aten::select/Gather_2" type="Gather" version="opset8">
			<data batch_dims="0" />
			<input>
				<port id="0" precision="FP32">
					<dim>-1</dim>
					<dim>-1</dim>
					<dim>3</dim>
					<dim>16</dim>
					<dim>64</dim>
				</port>
				<port id="1" precision="I64" />
				<port id="2" precision="I64" />
			</input>
			<output>
				<port id="3" precision="FP32" names="346_1">
					<dim>-1</dim>
					<dim>-1</dim>
					<dim>16</dim>
					<dim>64</dim>
				</port>
			</output>
		</layer>
		<layer id="210" name="Unsqueeze_426878" type="Unsqueeze" version="opset1">
			<input>
				<port id="0" precision="FP32">
					<dim>-1</dim>
					<dim>-1</dim>
					<dim>16</dim>
					<dim>64</dim>
				</port>
				<port id="1" precision="I64" />
			</input>
			<output>
				<port id="2" precision="FP32">
					<dim>-1</dim>
					<dim>-1</dim>
					<dim>1</dim>
					<dim>16</dim>
					<dim>64</dim>
				</port>
			</output>
		</layer>
		<layer id="211" name="__module.transformer.roberta.encoder.layers.0.mixer.rotary_emb/prim::PythonOp" type="Concat" version="opset1">
			<data axis="2" />
			<input>
				<port id="0" precision="FP32">
					<dim>-1</dim>
					<dim>-1</dim>
					<dim>1</dim>
					<dim>16</dim>
					<dim>64</dim>
				</port>
				<port id="1" precision="FP32">
					<dim>-1</dim>
					<dim>-1</dim>
					<dim>1</dim>
					<dim>16</dim>
					<dim>64</dim>
				</port>
				<port id="2" precision="FP32">
					<dim>-1</dim>
					<dim>-1</dim>
					<dim>1</dim>
					<dim>16</dim>
					<dim>64</dim>
				</port>
			</input>
			<output>
				<port id="3" precision="FP32" names="349_1">
					<dim>-1</dim>
					<dim>-1</dim>
					<dim>3</dim>
					<dim>16</dim>
					<dim>64</dim>
				</port>
			</output>
		</layer>
		<layer id="212" name="50" type="Const" version="opset1">
			<data element_type="i64" shape="" offset="520357114" size="8" />
			<output>
				<port id="0" precision="I64" names="50_1" />
			</output>
		</layer>
		<layer id="213" name="__module.transformer.roberta.encoder.layers.0.mixer.inner_attn/prim::ListUnpack/Split" type="Split" version="opset1">
			<data num_splits="3" />
			<input>
				<port id="0" precision="FP32">
					<dim>-1</dim>
					<dim>-1</dim>
					<dim>3</dim>
					<dim>16</dim>
					<dim>64</dim>
				</port>
				<port id="1" precision="I64" />
			</input>
			<output>
				<port id="2" precision="FP32">
					<dim>-1</dim>
					<dim>-1</dim>
					<dim>1</dim>
					<dim>16</dim>
					<dim>64</dim>
				</port>
				<port id="3" precision="FP32">
					<dim>-1</dim>
					<dim>-1</dim>
					<dim>1</dim>
					<dim>16</dim>
					<dim>64</dim>
				</port>
				<port id="4" precision="FP32">
					<dim>-1</dim>
					<dim>-1</dim>
					<dim>1</dim>
					<dim>16</dim>
					<dim>64</dim>
				</port>
			</output>
		</layer>
		<layer id="214" name="__module.transformer.roberta.encoder.layers.0.mixer.inner_attn/prim::ListUnpack/Squeeze" type="Squeeze" version="opset1">
			<input>
				<port id="0" precision="FP32">
					<dim>-1</dim>
					<dim>-1</dim>
					<dim>1</dim>
					<dim>16</dim>
					<dim>64</dim>
				</port>
				<port id="1" precision="I64" />
			</input>
			<output>
				<port id="2" precision="FP32" names="256,q.1">
					<dim>-1</dim>
					<dim>-1</dim>
					<dim>16</dim>
					<dim>64</dim>
				</port>
			</output>
		</layer>
		<layer id="215" name="__module.transformer.roberta.encoder.layers.0.mixer.inner_attn/prim::ListUnpack/Squeeze_0" type="Squeeze" version="opset1">
			<input>
				<port id="0" precision="FP32">
					<dim>-1</dim>
					<dim>-1</dim>
					<dim>1</dim>
					<dim>16</dim>
					<dim>64</dim>
				</port>
				<port id="1" precision="I64" />
			</input>
			<output>
				<port id="2" precision="FP32" names="257_2">
					<dim>-1</dim>
					<dim>-1</dim>
					<dim>16</dim>
					<dim>64</dim>
				</port>
			</output>
		</layer>
		<layer id="216" name="Constant_667482_compressed" type="Const" version="opset1">
			<data element_type="f16" shape="1, 1, 1, 1" offset="520422736" size="2" />
			<output>
				<port id="0" precision="FP16">
					<dim>1</dim>
					<dim>1</dim>
					<dim>1</dim>
					<dim>1</dim>
				</port>
			</output>
		</layer>
		<layer id="217" name="Constant_667482" type="Convert" version="opset1">
			<data destination_type="f32" />
			<rt_info>
				<attribute name="decompression" version="0" />
			</rt_info>
			<input>
				<port id="0" precision="FP16">
					<dim>1</dim>
					<dim>1</dim>
					<dim>1</dim>
					<dim>1</dim>
				</port>
			</input>
			<output>
				<port id="1" precision="FP32">
					<dim>1</dim>
					<dim>1</dim>
					<dim>1</dim>
					<dim>1</dim>
				</port>
			</output>
		</layer>
		<layer id="218" name="__module.transformer.roberta.encoder.layers.0.mixer.inner_attn/aten::mul/Multiply" type="Multiply" version="opset1">
			<data auto_broadcast="numpy" />
			<input>
				<port id="0" precision="FP32">
					<dim>-1</dim>
					<dim>-1</dim>
					<dim>16</dim>
					<dim>64</dim>
				</port>
				<port id="1" precision="FP32">
					<dim>1</dim>
					<dim>1</dim>
					<dim>1</dim>
					<dim>1</dim>
				</port>
			</input>
			<output>
				<port id="2" precision="FP32" names="259">
					<dim>-1</dim>
					<dim>-1</dim>
					<dim>16</dim>
					<dim>64</dim>
				</port>
			</output>
		</layer>
		<layer id="219" name="__module.transformer.roberta.encoder.layers.0.mixer.inner_attn/aten::einsum" type="Einsum" version="opset7">
			<data equation="bthd,bshd->bhts" />
			<input>
				<port id="0" precision="FP32">
					<dim>-1</dim>
					<dim>-1</dim>
					<dim>16</dim>
					<dim>64</dim>
				</port>
				<port id="1" precision="FP32">
					<dim>-1</dim>
					<dim>-1</dim>
					<dim>16</dim>
					<dim>64</dim>
				</port>
			</input>
			<output>
				<port id="2" precision="FP32" names="261_2">
					<dim>-1</dim>
					<dim>16</dim>
					<dim>-1</dim>
					<dim>-1</dim>
				</port>
			</output>
		</layer>
		<layer id="220" name="Constant_667483" type="Const" version="opset1">
			<data element_type="i64" shape="1, 1" offset="514022602" size="8" />
			<output>
				<port id="0" precision="I64">
					<dim>1</dim>
					<dim>1</dim>
				</port>
			</output>
		</layer>
		<layer id="221" name="aten::ne/NotEqual" type="NotEqual" version="opset1">
			<data auto_broadcast="numpy" />
			<input>
				<port id="0" precision="I64">
					<dim>-1</dim>
					<dim>-1</dim>
				</port>
				<port id="1" precision="I64">
					<dim>1</dim>
					<dim>1</dim>
				</port>
			</input>
			<output>
				<port id="2" precision="BOOL" names="17">
					<dim>-1</dim>
					<dim>-1</dim>
				</port>
			</output>
		</layer>
		<layer id="222" name="aten::to/Convert" type="Convert" version="opset1">
			<data destination_type="i64" />
			<input>
				<port id="0" precision="BOOL">
					<dim>-1</dim>
					<dim>-1</dim>
				</port>
			</input>
			<output>
				<port id="1" precision="I64" names="22_1">
					<dim>-1</dim>
					<dim>-1</dim>
				</port>
			</output>
		</layer>
		<layer id="223" name="__module.transformer.roberta.encoder/aten::to/Convert" type="Convert" version="opset1">
			<data destination_type="boolean" />
			<input>
				<port id="0" precision="I64">
					<dim>-1</dim>
					<dim>-1</dim>
				</port>
			</input>
			<output>
				<port id="1" precision="BOOL" names="193_1">
					<dim>-1</dim>
					<dim>-1</dim>
				</port>
			</output>
		</layer>
		<layer id="224" name="__module.transformer.roberta.encoder.layers.0.mixer.inner_attn/aten::masked_fill_/ConvertLike_compressed" type="Const" version="opset1">
			<data element_type="f16" shape="" offset="0" size="2" />
			<output>
				<port id="0" precision="FP16" />
			</output>
		</layer>
		<layer id="225" name="__module.transformer.roberta.encoder.layers.0.mixer.inner_attn/aten::masked_fill_/ConvertLike" type="Convert" version="opset1">
			<data destination_type="f32" />
			<rt_info>
				<attribute name="decompression" version="0" />
			</rt_info>
			<input>
				<port id="0" precision="FP16" />
			</input>
			<output>
				<port id="1" precision="FP32" />
			</output>
		</layer>
		<layer id="226" name="__module.transformer.roberta.encoder.layers.0.mixer.inner_attn/aten::full/Convert_compressed" type="Const" version="opset1">
			<data element_type="f16" shape="" offset="520422738" size="2" />
			<output>
				<port id="0" precision="FP16" />
			</output>
		</layer>
		<layer id="227" name="__module.transformer.roberta.encoder.layers.0.mixer.inner_attn/aten::full/Convert" type="Convert" version="opset1">
			<data destination_type="f32" />
			<rt_info>
				<attribute name="decompression" version="0" />
			</rt_info>
			<input>
				<port id="0" precision="FP16" />
			</input>
			<output>
				<port id="1" precision="FP32" />
			</output>
		</layer>
		<layer id="228" name="__module.transformer.roberta.encoder.layers.0.mixer.inner_attn/aten::full/Broadcast" type="Broadcast" version="opset3">
			<data mode="numpy" />
			<input>
				<port id="0" precision="FP32" />
				<port id="1" precision="I64">
					<dim>2</dim>
				</port>
			</input>
			<output>
				<port id="2" precision="FP32" names="1223_1,1463_1,1703_1,1943_1,2183_1,2423_1,263_2,2663_1,2903_1,3143_1,3383_1,3623_1,3863_1,4103_1,4343_1,4583_1,4823_1,503_1,5063_1,5303_1,5543_1,5783_1,743_1,983_1">
					<dim>-1</dim>
					<dim>-1</dim>
				</port>
			</output>
		</layer>
		<layer id="229" name="__module.transformer.roberta.encoder.layers.0.mixer.inner_attn/aten::masked_fill_/Select" type="Select" version="opset1">
			<data auto_broadcast="numpy" />
			<input>
				<port id="0" precision="BOOL">
					<dim>-1</dim>
					<dim>-1</dim>
				</port>
				<port id="1" precision="FP32" />
				<port id="2" precision="FP32">
					<dim>-1</dim>
					<dim>-1</dim>
				</port>
			</input>
			<output>
				<port id="3" precision="FP32" names="1223,1463,1703,1943,2183,2423,263_3,2663,2903,3143,3383,3623,3863,4103,4343,4583,4823,503,5063,5303,5543,5783,743,983,padding_mask,padding_mask.11,padding_mask.13,padding_mask.15,padding_mask.17,padding_mask.19,padding_mask.21,padding_mask.23,padding_mask.25,padding_mask.27,padding_mask.29,padding_mask.3,padding_mask.31,padding_mask.33,padding_mask.35,padding_mask.37,padding_mask.39,padding_mask.41,padding_mask.43,padding_mask.45,padding_mask.5,padding_mask.7,padding_mask.9">
					<dim>-1</dim>
					<dim>-1</dim>
				</port>
			</output>
		</layer>
		<layer id="230" name="Constant_676760" type="Const" version="opset1">
			<data element_type="i64" shape="4" offset="520422740" size="32" />
			<rt_info>
				<attribute name="precise" version="0" />
			</rt_info>
			<output>
				<port id="0" precision="I64">
					<dim>4</dim>
				</port>
			</output>
		</layer>
		<layer id="231" name="__module.transformer.roberta.encoder.layers.0.mixer.inner_attn/aten::reshape/Reshape" type="Reshape" version="opset1">
			<data special_zero="true" />
			<input>
				<port id="0" precision="FP32">
					<dim>-1</dim>
					<dim>-1</dim>
				</port>
				<port id="1" precision="I64">
					<dim>4</dim>
				</port>
			</input>
			<output>
				<port id="2" precision="FP32" names="1234,1474,1714,1954,2194,2434,2674,274_2,2914,3154,3394,3634,3874,4114,4354,4594,4834,5074,514,5314,5554,5794,754,994">
					<dim>-1</dim>
					<dim>1</dim>
					<dim>1</dim>
					<dim>-1</dim>
				</port>
			</output>
		</layer>
		<layer id="232" name="__module.transformer.roberta.encoder.layers.0.mixer.inner_attn/aten::add/Add" type="Add" version="opset1">
			<data auto_broadcast="numpy" />
			<input>
				<port id="0" precision="FP32">
					<dim>-1</dim>
					<dim>16</dim>
					<dim>-1</dim>
					<dim>-1</dim>
				</port>
				<port id="1" precision="FP32">
					<dim>-1</dim>
					<dim>1</dim>
					<dim>1</dim>
					<dim>-1</dim>
				</port>
			</input>
			<output>
				<port id="2" precision="FP32" names="275_2">
					<dim>-1</dim>
					<dim>16</dim>
					<dim>-1</dim>
					<dim>-1</dim>
				</port>
			</output>
		</layer>
		<layer id="233" name="__module.transformer.roberta.encoder.layers.0.mixer.inner_attn/aten::softmax/Softmax" type="SoftMax" version="opset8">
			<data axis="-1" />
			<input>
				<port id="0" precision="FP32">
					<dim>-1</dim>
					<dim>16</dim>
					<dim>-1</dim>
					<dim>-1</dim>
				</port>
			</input>
			<output>
				<port id="1" precision="FP32" names="276_2">
					<dim>-1</dim>
					<dim>16</dim>
					<dim>-1</dim>
					<dim>-1</dim>
				</port>
			</output>
		</layer>
		<layer id="234" name="__module.transformer.roberta.encoder.layers.0.mixer.inner_attn/prim::ListUnpack/Squeeze_1" type="Squeeze" version="opset1">
			<input>
				<port id="0" precision="FP32">
					<dim>-1</dim>
					<dim>-1</dim>
					<dim>1</dim>
					<dim>16</dim>
					<dim>64</dim>
				</port>
				<port id="1" precision="I64" />
			</input>
			<output>
				<port id="2" precision="FP32" names="258_2">
					<dim>-1</dim>
					<dim>-1</dim>
					<dim>16</dim>
					<dim>64</dim>
				</port>
			</output>
		</layer>
		<layer id="235" name="__module.transformer.roberta.encoder.layers.0.mixer.inner_attn/aten::einsum_1" type="Einsum" version="opset7">
			<data equation="bhts,bshd->bthd" />
			<input>
				<port id="0" precision="FP32">
					<dim>-1</dim>
					<dim>16</dim>
					<dim>-1</dim>
					<dim>-1</dim>
				</port>
				<port id="1" precision="FP32">
					<dim>-1</dim>
					<dim>-1</dim>
					<dim>16</dim>
					<dim>64</dim>
				</port>
			</input>
			<output>
				<port id="2" precision="FP32" names="279,x.41">
					<dim>-1</dim>
					<dim>-1</dim>
					<dim>16</dim>
					<dim>64</dim>
				</port>
			</output>
		</layer>
		<layer id="236" name="Constant_676761" type="Const" version="opset1">
			<data element_type="i64" shape="3" offset="520422772" size="24" />
			<rt_info>
				<attribute name="precise" version="0" />
			</rt_info>
			<output>
				<port id="0" precision="I64">
					<dim>3</dim>
				</port>
			</output>
		</layer>
		<layer id="237" name="__module.transformer.roberta.encoder.layers.0.mixer/aten::reshape/Reshape_1" type="Reshape" version="opset1">
			<data special_zero="true" />
			<input>
				<port id="0" precision="FP32">
					<dim>-1</dim>
					<dim>-1</dim>
					<dim>16</dim>
					<dim>64</dim>
				</port>
				<port id="1" precision="I64">
					<dim>3</dim>
				</port>
			</input>
			<output>
				<port id="2" precision="FP32" names="296_2">
					<dim>-1</dim>
					<dim>-1</dim>
					<dim>1024</dim>
				</port>
			</output>
		</layer>
		<layer id="238" name="__module.transformer.roberta.encoder.layers.0.mixer/aten::index/Constant_1" type="Const" version="opset1">
			<data element_type="i32" shape="" offset="10" size="4" />
			<output>
				<port id="0" precision="I32" />
			</output>
		</layer>
		<layer id="239" name="__module.transformer.roberta.encoder.layers.0.mixer/aten::index/Gather_1" type="Gather" version="opset8">
			<data batch_dims="0" />
			<input>
				<port id="0" precision="FP32">
					<dim>-1</dim>
					<dim>-1</dim>
					<dim>1024</dim>
				</port>
				<port id="1" precision="I32">
					<dim>-1</dim>
				</port>
				<port id="2" precision="I32" />
			</input>
			<output>
				<port id="3" precision="FP32" names="312_2">
					<dim>-1</dim>
					<dim>-1</dim>
					<dim>1024</dim>
				</port>
			</output>
		</layer>
		<layer id="240" name="self.transformer.roberta.encoder.layers.0.mixer.out_proj.parametrizations.weight.original_compressed" type="Const" version="opset1">
			<data element_type="f16" shape="1024, 1024" offset="520422796" size="2097152" />
			<output>
				<port id="0" precision="FP16" names="self.transformer.roberta.encoder.layers.0.mixer.out_proj.parametrizations.weight.original">
					<dim>1024</dim>
					<dim>1024</dim>
				</port>
			</output>
		</layer>
		<layer id="241" name="self.transformer.roberta.encoder.layers.0.mixer.out_proj.parametrizations.weight.original" type="Convert" version="opset1">
			<data destination_type="f32" />
			<rt_info>
				<attribute name="decompression" version="0" />
			</rt_info>
			<input>
				<port id="0" precision="FP16">
					<dim>1024</dim>
					<dim>1024</dim>
				</port>
			</input>
			<output>
				<port id="1" precision="FP32">
					<dim>1024</dim>
					<dim>1024</dim>
				</port>
			</output>
		</layer>
		<layer id="242" name="self.transformer.roberta.encoder.layers.0.mixer.out_proj.parametrizations.weight.0.lora_B_compressed" type="Const" version="opset1">
			<data element_type="f16" shape="1, 1024, 4" offset="522519948" size="8192" />
			<output>
				<port id="0" precision="FP16" names="self.transformer.roberta.encoder.layers.0.mixer.out_proj.parametrizations.weight.0.lora_B">
					<dim>1</dim>
					<dim>1024</dim>
					<dim>4</dim>
				</port>
			</output>
		</layer>
		<layer id="243" name="self.transformer.roberta.encoder.layers.0.mixer.out_proj.parametrizations.weight.0.lora_B" type="Convert" version="opset1">
			<data destination_type="f32" />
			<rt_info>
				<attribute name="decompression" version="0" />
			</rt_info>
			<input>
				<port id="0" precision="FP16">
					<dim>1</dim>
					<dim>1024</dim>
					<dim>4</dim>
				</port>
			</input>
			<output>
				<port id="1" precision="FP32">
					<dim>1</dim>
					<dim>1024</dim>
					<dim>4</dim>
				</port>
			</output>
		</layer>
		<layer id="244" name="__module.transformer.roberta.encoder.layers.0.mixer.out_proj/aten::select/Gather" type="Gather" version="opset8">
			<data batch_dims="0" />
			<input>
				<port id="0" precision="FP32">
					<dim>1</dim>
					<dim>1024</dim>
					<dim>4</dim>
				</port>
				<port id="1" precision="I64" />
				<port id="2" precision="I64" />
			</input>
			<output>
				<port id="3" precision="FP32" names="325_2">
					<dim>1024</dim>
					<dim>4</dim>
				</port>
			</output>
		</layer>
		<layer id="245" name="self.transformer.roberta.encoder.layers.0.mixer.out_proj.parametrizations.weight.0.lora_A_compressed" type="Const" version="opset1">
			<data element_type="f16" shape="1, 4, 1024" offset="522528140" size="8192" />
			<output>
				<port id="0" precision="FP16" names="self.transformer.roberta.encoder.layers.0.mixer.out_proj.parametrizations.weight.0.lora_A">
					<dim>1</dim>
					<dim>4</dim>
					<dim>1024</dim>
				</port>
			</output>
		</layer>
		<layer id="246" name="self.transformer.roberta.encoder.layers.0.mixer.out_proj.parametrizations.weight.0.lora_A" type="Convert" version="opset1">
			<data destination_type="f32" />
			<rt_info>
				<attribute name="decompression" version="0" />
			</rt_info>
			<input>
				<port id="0" precision="FP16">
					<dim>1</dim>
					<dim>4</dim>
					<dim>1024</dim>
				</port>
			</input>
			<output>
				<port id="1" precision="FP32">
					<dim>1</dim>
					<dim>4</dim>
					<dim>1024</dim>
				</port>
			</output>
		</layer>
		<layer id="247" name="__module.transformer.roberta.encoder.layers.0.mixer.out_proj/aten::select/Gather_1" type="Gather" version="opset8">
			<data batch_dims="0" />
			<input>
				<port id="0" precision="FP32">
					<dim>1</dim>
					<dim>4</dim>
					<dim>1024</dim>
				</port>
				<port id="1" precision="I64" />
				<port id="2" precision="I64" />
			</input>
			<output>
				<port id="3" precision="FP32" names="326_2">
					<dim>4</dim>
					<dim>1024</dim>
				</port>
			</output>
		</layer>
		<layer id="248" name="__module.transformer.roberta.encoder.layers.0.mixer.out_proj/aten::matmul/MatMul" type="MatMul" version="opset1">
			<data transpose_a="false" transpose_b="false" />
			<input>
				<port id="0" precision="FP32">
					<dim>1024</dim>
					<dim>4</dim>
				</port>
				<port id="1" precision="FP32">
					<dim>4</dim>
					<dim>1024</dim>
				</port>
			</input>
			<output>
				<port id="2" precision="FP32" names="327_2,331_2,332_2">
					<dim>1024</dim>
					<dim>1024</dim>
				</port>
			</output>
		</layer>
		<layer id="249" name="__module.transformer.roberta.encoder.layers.0.mixer.out_proj/aten::add/Add" type="Add" version="opset1">
			<data auto_broadcast="numpy" />
			<input>
				<port id="0" precision="FP32">
					<dim>1024</dim>
					<dim>1024</dim>
				</port>
				<port id="1" precision="FP32">
					<dim>1024</dim>
					<dim>1024</dim>
				</port>
			</input>
			<output>
				<port id="2" precision="FP32" names="333_2">
					<dim>1024</dim>
					<dim>1024</dim>
				</port>
			</output>
		</layer>
		<layer id="250" name="__module.transformer.roberta.encoder.layers.0.mixer.out_proj/aten::linear/MatMul" type="MatMul" version="opset1">
			<data transpose_a="false" transpose_b="true" />
			<input>
				<port id="0" precision="FP32">
					<dim>-1</dim>
					<dim>-1</dim>
					<dim>1024</dim>
				</port>
				<port id="1" precision="FP32">
					<dim>1024</dim>
					<dim>1024</dim>
				</port>
			</input>
			<output>
				<port id="2" precision="FP32">
					<dim>-1</dim>
					<dim>-1</dim>
					<dim>1024</dim>
				</port>
			</output>
		</layer>
		<layer id="251" name="Constant_667484_compressed" type="Const" version="opset1">
			<data element_type="f16" shape="1, 1, 1024" offset="522536332" size="2048" />
			<output>
				<port id="0" precision="FP16">
					<dim>1</dim>
					<dim>1</dim>
					<dim>1024</dim>
				</port>
			</output>
		</layer>
		<layer id="252" name="Constant_667484" type="Convert" version="opset1">
			<data destination_type="f32" />
			<rt_info>
				<attribute name="decompression" version="0" />
			</rt_info>
			<input>
				<port id="0" precision="FP16">
					<dim>1</dim>
					<dim>1</dim>
					<dim>1024</dim>
				</port>
			</input>
			<output>
				<port id="1" precision="FP32">
					<dim>1</dim>
					<dim>1</dim>
					<dim>1024</dim>
				</port>
			</output>
		</layer>
		<layer id="253" name="__module.transformer.roberta.encoder.layers.0.mixer.out_proj/aten::linear/Add" type="Add" version="opset1">
			<data auto_broadcast="numpy" />
			<input>
				<port id="0" precision="FP32">
					<dim>-1</dim>
					<dim>-1</dim>
					<dim>1024</dim>
				</port>
				<port id="1" precision="FP32">
					<dim>1</dim>
					<dim>1</dim>
					<dim>1024</dim>
				</port>
			</input>
			<output>
				<port id="2" precision="FP32" names="334_2">
					<dim>-1</dim>
					<dim>-1</dim>
					<dim>1024</dim>
				</port>
			</output>
		</layer>
		<layer id="254" name="__module.transformer.roberta.encoder.layers.0.mixer/aten::index_put_/Broadcast_1" type="Broadcast" version="opset3">
			<data mode="numpy" />
			<input>
				<port id="0" precision="FP32">
					<dim>-1</dim>
					<dim>-1</dim>
					<dim>1024</dim>
				</port>
				<port id="1" precision="I32">
					<dim>3</dim>
				</port>
			</input>
			<output>
				<port id="2" precision="FP32">
					<dim>-1</dim>
					<dim>-1</dim>
					<dim>1024</dim>
				</port>
			</output>
		</layer>
		<layer id="255" name="__module.transformer.roberta.encoder.layers.0.mixer/aten::index_put_/ScatterNDUpdate_1" type="ScatterNDUpdate" version="opset4">
			<input>
				<port id="0" precision="FP32">
					<dim>-1</dim>
					<dim>-1</dim>
					<dim>1024</dim>
				</port>
				<port id="1" precision="I64">
					<dim>-1</dim>
					<dim>1</dim>
				</port>
				<port id="2" precision="FP32">
					<dim>-1</dim>
					<dim>-1</dim>
					<dim>1024</dim>
				</port>
			</input>
			<output>
				<port id="3" precision="FP32" names="303_3">
					<dim>-1</dim>
					<dim>-1</dim>
					<dim>1024</dim>
				</port>
			</output>
		</layer>
		<layer id="256" name="__module.transformer.roberta.encoder.layers.0/aten::add/Add" type="Add" version="opset1">
			<data auto_broadcast="numpy" />
			<input>
				<port id="0" precision="FP32">
					<dim>-1</dim>
					<dim>-1</dim>
					<dim>1024</dim>
				</port>
				<port id="1" precision="FP32">
					<dim>-1</dim>
					<dim>-1</dim>
					<dim>1024</dim>
				</port>
			</input>
			<output>
				<port id="2" precision="FP32" names="338_2,339_2">
					<dim>-1</dim>
					<dim>-1</dim>
					<dim>1024</dim>
				</port>
			</output>
		</layer>
		<layer id="257" name="__module.transformer.roberta.encoder.layers.0.norm1/aten::layer_norm/Multiply" type="Const" version="opset1">
			<data element_type="i32" shape="1" offset="22" size="4" />
			<output>
				<port id="0" precision="I32">
					<dim>1</dim>
				</port>
			</output>
		</layer>
		<layer id="258" name="__module.transformer.roberta.encoder.layers.0.norm1/aten::layer_norm/MVN" type="MVN" version="opset6">
			<data eps="9.9999997473787516e-06" normalize_variance="true" eps_mode="INSIDE_SQRT" />
			<input>
				<port id="0" precision="FP32">
					<dim>-1</dim>
					<dim>-1</dim>
					<dim>1024</dim>
				</port>
				<port id="1" precision="I32">
					<dim>1</dim>
				</port>
			</input>
			<output>
				<port id="2" precision="FP32">
					<dim>-1</dim>
					<dim>-1</dim>
					<dim>1024</dim>
				</port>
			</output>
		</layer>
		<layer id="259" name="Constant_667485_compressed" type="Const" version="opset1">
			<data element_type="f16" shape="1, 1, 1024" offset="522538380" size="2048" />
			<output>
				<port id="0" precision="FP16">
					<dim>1</dim>
					<dim>1</dim>
					<dim>1024</dim>
				</port>
			</output>
		</layer>
		<layer id="260" name="Constant_667485" type="Convert" version="opset1">
			<data destination_type="f32" />
			<rt_info>
				<attribute name="decompression" version="0" />
			</rt_info>
			<input>
				<port id="0" precision="FP16">
					<dim>1</dim>
					<dim>1</dim>
					<dim>1024</dim>
				</port>
			</input>
			<output>
				<port id="1" precision="FP32">
					<dim>1</dim>
					<dim>1</dim>
					<dim>1024</dim>
				</port>
			</output>
		</layer>
		<layer id="261" name="__module.transformer.roberta.encoder.layers.0.norm1/aten::layer_norm/Multiply_1" type="Multiply" version="opset1">
			<data auto_broadcast="numpy" />
			<input>
				<port id="0" precision="FP32">
					<dim>-1</dim>
					<dim>-1</dim>
					<dim>1024</dim>
				</port>
				<port id="1" precision="FP32">
					<dim>1</dim>
					<dim>1</dim>
					<dim>1024</dim>
				</port>
			</input>
			<output>
				<port id="2" precision="FP32">
					<dim>-1</dim>
					<dim>-1</dim>
					<dim>1024</dim>
				</port>
			</output>
		</layer>
		<layer id="262" name="Constant_667486_compressed" type="Const" version="opset1">
			<data element_type="f16" shape="1, 1, 1024" offset="522540428" size="2048" />
			<output>
				<port id="0" precision="FP16">
					<dim>1</dim>
					<dim>1</dim>
					<dim>1024</dim>
				</port>
			</output>
		</layer>
		<layer id="263" name="Constant_667486" type="Convert" version="opset1">
			<data destination_type="f32" />
			<rt_info>
				<attribute name="decompression" version="0" />
			</rt_info>
			<input>
				<port id="0" precision="FP16">
					<dim>1</dim>
					<dim>1</dim>
					<dim>1024</dim>
				</port>
			</input>
			<output>
				<port id="1" precision="FP32">
					<dim>1</dim>
					<dim>1</dim>
					<dim>1024</dim>
				</port>
			</output>
		</layer>
		<layer id="264" name="__module.transformer.roberta.encoder.layers.0.norm1/aten::layer_norm/Add" type="Add" version="opset1">
			<data auto_broadcast="numpy" />
			<input>
				<port id="0" precision="FP32">
					<dim>-1</dim>
					<dim>-1</dim>
					<dim>1024</dim>
				</port>
				<port id="1" precision="FP32">
					<dim>1</dim>
					<dim>1</dim>
					<dim>1024</dim>
				</port>
			</input>
			<output>
				<port id="2" precision="FP32" names="343_2">
					<dim>-1</dim>
					<dim>-1</dim>
					<dim>1024</dim>
				</port>
			</output>
		</layer>
		<layer id="265" name="__module.transformer.roberta.encoder.layers.0.mlp/aten::index/Constant" type="Const" version="opset1">
			<data element_type="i32" shape="" offset="10" size="4" />
			<output>
				<port id="0" precision="I32" />
			</output>
		</layer>
		<layer id="266" name="__module.transformer.roberta.encoder.layers.0.mlp/aten::index/Gather" type="Gather" version="opset8">
			<data batch_dims="0" />
			<input>
				<port id="0" precision="FP32">
					<dim>-1</dim>
					<dim>-1</dim>
					<dim>1024</dim>
				</port>
				<port id="1" precision="I32">
					<dim>-1</dim>
				</port>
				<port id="2" precision="I32" />
			</input>
			<output>
				<port id="3" precision="FP32" names="361,input.21">
					<dim>-1</dim>
					<dim>-1</dim>
					<dim>1024</dim>
				</port>
			</output>
		</layer>
		<layer id="267" name="self.transformer.roberta.encoder.layers.0.mlp.fc1.parametrizations.weight.original_compressed" type="Const" version="opset1">
			<data element_type="f16" shape="4096, 1024" offset="522542476" size="8388608" />
			<output>
				<port id="0" precision="FP16" names="self.transformer.roberta.encoder.layers.0.mlp.fc1.parametrizations.weight.original">
					<dim>4096</dim>
					<dim>1024</dim>
				</port>
			</output>
		</layer>
		<layer id="268" name="self.transformer.roberta.encoder.layers.0.mlp.fc1.parametrizations.weight.original" type="Convert" version="opset1">
			<data destination_type="f32" />
			<rt_info>
				<attribute name="decompression" version="0" />
			</rt_info>
			<input>
				<port id="0" precision="FP16">
					<dim>4096</dim>
					<dim>1024</dim>
				</port>
			</input>
			<output>
				<port id="1" precision="FP32">
					<dim>4096</dim>
					<dim>1024</dim>
				</port>
			</output>
		</layer>
		<layer id="269" name="self.transformer.roberta.encoder.layers.0.mlp.fc1.parametrizations.weight.0.lora_B_compressed" type="Const" version="opset1">
			<data element_type="f16" shape="1, 4096, 4" offset="530931084" size="32768" />
			<output>
				<port id="0" precision="FP16" names="self.transformer.roberta.encoder.layers.0.mlp.fc1.parametrizations.weight.0.lora_B">
					<dim>1</dim>
					<dim>4096</dim>
					<dim>4</dim>
				</port>
			</output>
		</layer>
		<layer id="270" name="self.transformer.roberta.encoder.layers.0.mlp.fc1.parametrizations.weight.0.lora_B" type="Convert" version="opset1">
			<data destination_type="f32" />
			<rt_info>
				<attribute name="decompression" version="0" />
			</rt_info>
			<input>
				<port id="0" precision="FP16">
					<dim>1</dim>
					<dim>4096</dim>
					<dim>4</dim>
				</port>
			</input>
			<output>
				<port id="1" precision="FP32">
					<dim>1</dim>
					<dim>4096</dim>
					<dim>4</dim>
				</port>
			</output>
		</layer>
		<layer id="271" name="__module.transformer.roberta.encoder.layers.0.mlp.fc1/aten::select/Gather" type="Gather" version="opset8">
			<data batch_dims="0" />
			<input>
				<port id="0" precision="FP32">
					<dim>1</dim>
					<dim>4096</dim>
					<dim>4</dim>
				</port>
				<port id="1" precision="I64" />
				<port id="2" precision="I64" />
			</input>
			<output>
				<port id="3" precision="FP32" names="374">
					<dim>4096</dim>
					<dim>4</dim>
				</port>
			</output>
		</layer>
		<layer id="272" name="self.transformer.roberta.encoder.layers.0.mlp.fc1.parametrizations.weight.0.lora_A_compressed" type="Const" version="opset1">
			<data element_type="f16" shape="1, 4, 1024" offset="530963852" size="8192" />
			<output>
				<port id="0" precision="FP16" names="self.transformer.roberta.encoder.layers.0.mlp.fc1.parametrizations.weight.0.lora_A">
					<dim>1</dim>
					<dim>4</dim>
					<dim>1024</dim>
				</port>
			</output>
		</layer>
		<layer id="273" name="self.transformer.roberta.encoder.layers.0.mlp.fc1.parametrizations.weight.0.lora_A" type="Convert" version="opset1">
			<data destination_type="f32" />
			<rt_info>
				<attribute name="decompression" version="0" />
			</rt_info>
			<input>
				<port id="0" precision="FP16">
					<dim>1</dim>
					<dim>4</dim>
					<dim>1024</dim>
				</port>
			</input>
			<output>
				<port id="1" precision="FP32">
					<dim>1</dim>
					<dim>4</dim>
					<dim>1024</dim>
				</port>
			</output>
		</layer>
		<layer id="274" name="__module.transformer.roberta.encoder.layers.0.mlp.fc1/aten::select/Gather_1" type="Gather" version="opset8">
			<data batch_dims="0" />
			<input>
				<port id="0" precision="FP32">
					<dim>1</dim>
					<dim>4</dim>
					<dim>1024</dim>
				</port>
				<port id="1" precision="I64" />
				<port id="2" precision="I64" />
			</input>
			<output>
				<port id="3" precision="FP32" names="375">
					<dim>4</dim>
					<dim>1024</dim>
				</port>
			</output>
		</layer>
		<layer id="275" name="__module.transformer.roberta.encoder.layers.0.mlp.fc1/aten::matmul/MatMul" type="MatMul" version="opset1">
			<data transpose_a="false" transpose_b="false" />
			<input>
				<port id="0" precision="FP32">
					<dim>4096</dim>
					<dim>4</dim>
				</port>
				<port id="1" precision="FP32">
					<dim>4</dim>
					<dim>1024</dim>
				</port>
			</input>
			<output>
				<port id="2" precision="FP32" names="376,380,381">
					<dim>4096</dim>
					<dim>1024</dim>
				</port>
			</output>
		</layer>
		<layer id="276" name="__module.transformer.roberta.encoder.layers.0.mlp.fc1/aten::add/Add" type="Add" version="opset1">
			<data auto_broadcast="numpy" />
			<input>
				<port id="0" precision="FP32">
					<dim>4096</dim>
					<dim>1024</dim>
				</port>
				<port id="1" precision="FP32">
					<dim>4096</dim>
					<dim>1024</dim>
				</port>
			</input>
			<output>
				<port id="2" precision="FP32" names="382,weights.5">
					<dim>4096</dim>
					<dim>1024</dim>
				</port>
			</output>
		</layer>
		<layer id="277" name="__module.transformer.roberta.encoder.layers.0.mlp.fc1/aten::linear/MatMul" type="MatMul" version="opset1">
			<data transpose_a="false" transpose_b="true" />
			<input>
				<port id="0" precision="FP32">
					<dim>-1</dim>
					<dim>-1</dim>
					<dim>1024</dim>
				</port>
				<port id="1" precision="FP32">
					<dim>4096</dim>
					<dim>1024</dim>
				</port>
			</input>
			<output>
				<port id="2" precision="FP32">
					<dim>-1</dim>
					<dim>-1</dim>
					<dim>4096</dim>
				</port>
			</output>
		</layer>
		<layer id="278" name="Constant_667487_compressed" type="Const" version="opset1">
			<data element_type="f16" shape="1, 1, 4096" offset="530972044" size="8192" />
			<output>
				<port id="0" precision="FP16">
					<dim>1</dim>
					<dim>1</dim>
					<dim>4096</dim>
				</port>
			</output>
		</layer>
		<layer id="279" name="Constant_667487" type="Convert" version="opset1">
			<data destination_type="f32" />
			<rt_info>
				<attribute name="decompression" version="0" />
			</rt_info>
			<input>
				<port id="0" precision="FP16">
					<dim>1</dim>
					<dim>1</dim>
					<dim>4096</dim>
				</port>
			</input>
			<output>
				<port id="1" precision="FP32">
					<dim>1</dim>
					<dim>1</dim>
					<dim>4096</dim>
				</port>
			</output>
		</layer>
		<layer id="280" name="__module.transformer.roberta.encoder.layers.0.mlp.fc1/aten::linear/Add" type="Add" version="opset1">
			<data auto_broadcast="numpy" />
			<input>
				<port id="0" precision="FP32">
					<dim>-1</dim>
					<dim>-1</dim>
					<dim>4096</dim>
				</port>
				<port id="1" precision="FP32">
					<dim>1</dim>
					<dim>1</dim>
					<dim>4096</dim>
				</port>
			</input>
			<output>
				<port id="2" precision="FP32" names="383,task_y.1">
					<dim>-1</dim>
					<dim>-1</dim>
					<dim>4096</dim>
				</port>
			</output>
		</layer>
		<layer id="281" name="Constant_472904" type="Const" version="opset1">
			<data element_type="i32" shape="1" offset="514012346" size="4" />
			<rt_info>
				<attribute name="precise" version="0" />
			</rt_info>
			<output>
				<port id="0" precision="I32">
					<dim>1</dim>
				</port>
			</output>
		</layer>
		<layer id="282" name="Constant_472901" type="Const" version="opset1">
			<data element_type="i32" shape="1" offset="514012350" size="4" />
			<rt_info>
				<attribute name="precise" version="0" />
			</rt_info>
			<output>
				<port id="0" precision="I32">
					<dim>1</dim>
				</port>
			</output>
		</layer>
		<layer id="283" name="Constant_472900" type="Const" version="opset1">
			<data element_type="i32" shape="1" offset="514012346" size="4" />
			<rt_info>
				<attribute name="precise" version="0" />
			</rt_info>
			<output>
				<port id="0" precision="I32">
					<dim>1</dim>
				</port>
			</output>
		</layer>
		<layer id="284" name="Constant_472912" type="Const" version="opset1">
			<data element_type="i64" shape="1" offset="14" size="8" />
			<rt_info>
				<attribute name="precise" version="0" />
			</rt_info>
			<output>
				<port id="0" precision="I64">
					<dim>1</dim>
				</port>
			</output>
		</layer>
		<layer id="285" name="__module.transformer.roberta.encoder.layers.0.mlp/aten::index_put_/Slice" type="Slice" version="opset8">
			<input>
				<port id="0" precision="I32">
					<dim>3</dim>
				</port>
				<port id="1" precision="I32">
					<dim>1</dim>
				</port>
				<port id="2" precision="I32">
					<dim>1</dim>
				</port>
				<port id="3" precision="I32">
					<dim>1</dim>
				</port>
				<port id="4" precision="I64">
					<dim>1</dim>
				</port>
			</input>
			<output>
				<port id="5" precision="I32">
					<dim>2</dim>
				</port>
			</output>
		</layer>
		<layer id="286" name="__module.transformer.roberta.encoder.layers.0.mlp/aten::index_put_/Concat" type="Concat" version="opset1">
			<data axis="0" />
			<input>
				<port id="0" precision="I32">
					<dim>1</dim>
				</port>
				<port id="1" precision="I32">
					<dim>2</dim>
				</port>
			</input>
			<output>
				<port id="2" precision="I32">
					<dim>3</dim>
				</port>
			</output>
		</layer>
		<layer id="287" name="__module.transformer.roberta.encoder.layers.0.mlp/aten::index_put_/Broadcast" type="Broadcast" version="opset3">
			<data mode="numpy" />
			<input>
				<port id="0" precision="FP32">
					<dim>-1</dim>
					<dim>-1</dim>
					<dim>4096</dim>
				</port>
				<port id="1" precision="I32">
					<dim>3</dim>
				</port>
			</input>
			<output>
				<port id="2" precision="FP32">
					<dim>-1</dim>
					<dim>-1</dim>
					<dim>4096</dim>
				</port>
			</output>
		</layer>
		<layer id="288" name="__module.transformer.roberta.encoder.layers.0.mlp/aten::index_put_/ScatterNDUpdate" type="ScatterNDUpdate" version="opset4">
			<input>
				<port id="0" precision="FP32">
					<dim>-1</dim>
					<dim>-1</dim>
					<dim>4096</dim>
				</port>
				<port id="1" precision="I64">
					<dim>-1</dim>
					<dim>1</dim>
				</port>
				<port id="2" precision="FP32">
					<dim>-1</dim>
					<dim>-1</dim>
					<dim>4096</dim>
				</port>
			</input>
			<output>
				<port id="3" precision="FP32" names="352,y.1">
					<dim>-1</dim>
					<dim>-1</dim>
					<dim>4096</dim>
				</port>
			</output>
		</layer>
		<layer id="289" name="__module.transformer.roberta.encoder.layers.0.mlp/aten::gelu/Gelu" type="Gelu" version="opset7">
			<data approximation_mode="ERF" />
			<input>
				<port id="0" precision="FP32">
					<dim>-1</dim>
					<dim>-1</dim>
					<dim>4096</dim>
				</port>
			</input>
			<output>
				<port id="1" precision="FP32" names="386,y.5">
					<dim>-1</dim>
					<dim>-1</dim>
					<dim>4096</dim>
				</port>
			</output>
		</layer>
		<layer id="290" name="__module.transformer.roberta.encoder.layers.0.mlp/aten::index/Constant_1" type="Const" version="opset1">
			<data element_type="i32" shape="" offset="10" size="4" />
			<output>
				<port id="0" precision="I32" />
			</output>
		</layer>
		<layer id="291" name="__module.transformer.roberta.encoder.layers.0.mlp/aten::index/Gather_1" type="Gather" version="opset8">
			<data batch_dims="0" />
			<input>
				<port id="0" precision="FP32">
					<dim>-1</dim>
					<dim>-1</dim>
					<dim>4096</dim>
				</port>
				<port id="1" precision="I32">
					<dim>-1</dim>
				</port>
				<port id="2" precision="I32" />
			</input>
			<output>
				<port id="3" precision="FP32" names="402,input.23">
					<dim>-1</dim>
					<dim>-1</dim>
					<dim>4096</dim>
				</port>
			</output>
		</layer>
		<layer id="292" name="self.transformer.roberta.encoder.layers.0.mlp.fc2.parametrizations.weight.original_compressed" type="Const" version="opset1">
			<data element_type="f16" shape="1024, 4096" offset="530980236" size="8388608" />
			<output>
				<port id="0" precision="FP16" names="self.transformer.roberta.encoder.layers.0.mlp.fc2.parametrizations.weight.original">
					<dim>1024</dim>
					<dim>4096</dim>
				</port>
			</output>
		</layer>
		<layer id="293" name="self.transformer.roberta.encoder.layers.0.mlp.fc2.parametrizations.weight.original" type="Convert" version="opset1">
			<data destination_type="f32" />
			<rt_info>
				<attribute name="decompression" version="0" />
			</rt_info>
			<input>
				<port id="0" precision="FP16">
					<dim>1024</dim>
					<dim>4096</dim>
				</port>
			</input>
			<output>
				<port id="1" precision="FP32">
					<dim>1024</dim>
					<dim>4096</dim>
				</port>
			</output>
		</layer>
		<layer id="294" name="self.transformer.roberta.encoder.layers.0.mlp.fc2.parametrizations.weight.0.lora_B_compressed" type="Const" version="opset1">
			<data element_type="f16" shape="1, 1024, 4" offset="539368844" size="8192" />
			<output>
				<port id="0" precision="FP16" names="self.transformer.roberta.encoder.layers.0.mlp.fc2.parametrizations.weight.0.lora_B">
					<dim>1</dim>
					<dim>1024</dim>
					<dim>4</dim>
				</port>
			</output>
		</layer>
		<layer id="295" name="self.transformer.roberta.encoder.layers.0.mlp.fc2.parametrizations.weight.0.lora_B" type="Convert" version="opset1">
			<data destination_type="f32" />
			<rt_info>
				<attribute name="decompression" version="0" />
			</rt_info>
			<input>
				<port id="0" precision="FP16">
					<dim>1</dim>
					<dim>1024</dim>
					<dim>4</dim>
				</port>
			</input>
			<output>
				<port id="1" precision="FP32">
					<dim>1</dim>
					<dim>1024</dim>
					<dim>4</dim>
				</port>
			</output>
		</layer>
		<layer id="296" name="__module.transformer.roberta.encoder.layers.0.mlp.fc2/aten::select/Gather" type="Gather" version="opset8">
			<data batch_dims="0" />
			<input>
				<port id="0" precision="FP32">
					<dim>1</dim>
					<dim>1024</dim>
					<dim>4</dim>
				</port>
				<port id="1" precision="I64" />
				<port id="2" precision="I64" />
			</input>
			<output>
				<port id="3" precision="FP32" names="415">
					<dim>1024</dim>
					<dim>4</dim>
				</port>
			</output>
		</layer>
		<layer id="297" name="self.transformer.roberta.encoder.layers.0.mlp.fc2.parametrizations.weight.0.lora_A_compressed" type="Const" version="opset1">
			<data element_type="f16" shape="1, 4, 4096" offset="539377036" size="32768" />
			<output>
				<port id="0" precision="FP16" names="self.transformer.roberta.encoder.layers.0.mlp.fc2.parametrizations.weight.0.lora_A">
					<dim>1</dim>
					<dim>4</dim>
					<dim>4096</dim>
				</port>
			</output>
		</layer>
		<layer id="298" name="self.transformer.roberta.encoder.layers.0.mlp.fc2.parametrizations.weight.0.lora_A" type="Convert" version="opset1">
			<data destination_type="f32" />
			<rt_info>
				<attribute name="decompression" version="0" />
			</rt_info>
			<input>
				<port id="0" precision="FP16">
					<dim>1</dim>
					<dim>4</dim>
					<dim>4096</dim>
				</port>
			</input>
			<output>
				<port id="1" precision="FP32">
					<dim>1</dim>
					<dim>4</dim>
					<dim>4096</dim>
				</port>
			</output>
		</layer>
		<layer id="299" name="__module.transformer.roberta.encoder.layers.0.mlp.fc2/aten::select/Gather_1" type="Gather" version="opset8">
			<data batch_dims="0" />
			<input>
				<port id="0" precision="FP32">
					<dim>1</dim>
					<dim>4</dim>
					<dim>4096</dim>
				</port>
				<port id="1" precision="I64" />
				<port id="2" precision="I64" />
			</input>
			<output>
				<port id="3" precision="FP32" names="416">
					<dim>4</dim>
					<dim>4096</dim>
				</port>
			</output>
		</layer>
		<layer id="300" name="__module.transformer.roberta.encoder.layers.0.mlp.fc2/aten::matmul/MatMul" type="MatMul" version="opset1">
			<data transpose_a="false" transpose_b="false" />
			<input>
				<port id="0" precision="FP32">
					<dim>1024</dim>
					<dim>4</dim>
				</port>
				<port id="1" precision="FP32">
					<dim>4</dim>
					<dim>4096</dim>
				</port>
			</input>
			<output>
				<port id="2" precision="FP32" names="417,421,422">
					<dim>1024</dim>
					<dim>4096</dim>
				</port>
			</output>
		</layer>
		<layer id="301" name="__module.transformer.roberta.encoder.layers.0.mlp.fc2/aten::add/Add" type="Add" version="opset1">
			<data auto_broadcast="numpy" />
			<input>
				<port id="0" precision="FP32">
					<dim>1024</dim>
					<dim>4096</dim>
				</port>
				<port id="1" precision="FP32">
					<dim>1024</dim>
					<dim>4096</dim>
				</port>
			</input>
			<output>
				<port id="2" precision="FP32" names="423,weights.7">
					<dim>1024</dim>
					<dim>4096</dim>
				</port>
			</output>
		</layer>
		<layer id="302" name="__module.transformer.roberta.encoder.layers.0.mlp.fc2/aten::linear/MatMul" type="MatMul" version="opset1">
			<data transpose_a="false" transpose_b="true" />
			<input>
				<port id="0" precision="FP32">
					<dim>-1</dim>
					<dim>-1</dim>
					<dim>4096</dim>
				</port>
				<port id="1" precision="FP32">
					<dim>1024</dim>
					<dim>4096</dim>
				</port>
			</input>
			<output>
				<port id="2" precision="FP32">
					<dim>-1</dim>
					<dim>-1</dim>
					<dim>1024</dim>
				</port>
			</output>
		</layer>
		<layer id="303" name="Constant_667488_compressed" type="Const" version="opset1">
			<data element_type="f16" shape="1, 1, 1024" offset="539409804" size="2048" />
			<output>
				<port id="0" precision="FP16">
					<dim>1</dim>
					<dim>1</dim>
					<dim>1024</dim>
				</port>
			</output>
		</layer>
		<layer id="304" name="Constant_667488" type="Convert" version="opset1">
			<data destination_type="f32" />
			<rt_info>
				<attribute name="decompression" version="0" />
			</rt_info>
			<input>
				<port id="0" precision="FP16">
					<dim>1</dim>
					<dim>1</dim>
					<dim>1024</dim>
				</port>
			</input>
			<output>
				<port id="1" precision="FP32">
					<dim>1</dim>
					<dim>1</dim>
					<dim>1024</dim>
				</port>
			</output>
		</layer>
		<layer id="305" name="__module.transformer.roberta.encoder.layers.0.mlp.fc2/aten::linear/Add" type="Add" version="opset1">
			<data auto_broadcast="numpy" />
			<input>
				<port id="0" precision="FP32">
					<dim>-1</dim>
					<dim>-1</dim>
					<dim>1024</dim>
				</port>
				<port id="1" precision="FP32">
					<dim>1</dim>
					<dim>1</dim>
					<dim>1024</dim>
				</port>
			</input>
			<output>
				<port id="2" precision="FP32" names="424,task_out.3">
					<dim>-1</dim>
					<dim>-1</dim>
					<dim>1024</dim>
				</port>
			</output>
		</layer>
		<layer id="306" name="__module.transformer.roberta.encoder.layers.0.mlp/aten::index_put_/Broadcast_1" type="Broadcast" version="opset3">
			<data mode="numpy" />
			<input>
				<port id="0" precision="FP32">
					<dim>-1</dim>
					<dim>-1</dim>
					<dim>1024</dim>
				</port>
				<port id="1" precision="I32">
					<dim>3</dim>
				</port>
			</input>
			<output>
				<port id="2" precision="FP32">
					<dim>-1</dim>
					<dim>-1</dim>
					<dim>1024</dim>
				</port>
			</output>
		</layer>
		<layer id="307" name="__module.transformer.roberta.encoder.layers.0.mlp/aten::index_put_/ScatterNDUpdate_1" type="ScatterNDUpdate" version="opset4">
			<input>
				<port id="0" precision="FP32">
					<dim>-1</dim>
					<dim>-1</dim>
					<dim>1024</dim>
				</port>
				<port id="1" precision="I64">
					<dim>-1</dim>
					<dim>1</dim>
				</port>
				<port id="2" precision="FP32">
					<dim>-1</dim>
					<dim>-1</dim>
					<dim>1024</dim>
				</port>
			</input>
			<output>
				<port id="3" precision="FP32" names="393,out.3">
					<dim>-1</dim>
					<dim>-1</dim>
					<dim>1024</dim>
				</port>
			</output>
		</layer>
		<layer id="308" name="__module.transformer.roberta.encoder.layers.0/aten::add/Add_1" type="Add" version="opset1">
			<data auto_broadcast="numpy" />
			<input>
				<port id="0" precision="FP32">
					<dim>-1</dim>
					<dim>-1</dim>
					<dim>1024</dim>
				</port>
				<port id="1" precision="FP32">
					<dim>-1</dim>
					<dim>-1</dim>
					<dim>1024</dim>
				</port>
			</input>
			<output>
				<port id="2" precision="FP32" names="428,429,input.27">
					<dim>-1</dim>
					<dim>-1</dim>
					<dim>1024</dim>
				</port>
			</output>
		</layer>
		<layer id="309" name="__module.transformer.roberta.encoder.layers.0.norm2/aten::layer_norm/Multiply" type="Const" version="opset1">
			<data element_type="i32" shape="1" offset="22" size="4" />
			<output>
				<port id="0" precision="I32">
					<dim>1</dim>
				</port>
			</output>
		</layer>
		<layer id="310" name="__module.transformer.roberta.encoder.layers.0.norm2/aten::layer_norm/MVN" type="MVN" version="opset6">
			<data eps="9.9999997473787516e-06" normalize_variance="true" eps_mode="INSIDE_SQRT" />
			<input>
				<port id="0" precision="FP32">
					<dim>-1</dim>
					<dim>-1</dim>
					<dim>1024</dim>
				</port>
				<port id="1" precision="I32">
					<dim>1</dim>
				</port>
			</input>
			<output>
				<port id="2" precision="FP32">
					<dim>-1</dim>
					<dim>-1</dim>
					<dim>1024</dim>
				</port>
			</output>
		</layer>
		<layer id="311" name="Constant_667489_compressed" type="Const" version="opset1">
			<data element_type="f16" shape="1, 1, 1024" offset="539411852" size="2048" />
			<output>
				<port id="0" precision="FP16">
					<dim>1</dim>
					<dim>1</dim>
					<dim>1024</dim>
				</port>
			</output>
		</layer>
		<layer id="312" name="Constant_667489" type="Convert" version="opset1">
			<data destination_type="f32" />
			<rt_info>
				<attribute name="decompression" version="0" />
			</rt_info>
			<input>
				<port id="0" precision="FP16">
					<dim>1</dim>
					<dim>1</dim>
					<dim>1024</dim>
				</port>
			</input>
			<output>
				<port id="1" precision="FP32">
					<dim>1</dim>
					<dim>1</dim>
					<dim>1024</dim>
				</port>
			</output>
		</layer>
		<layer id="313" name="__module.transformer.roberta.encoder.layers.0.norm2/aten::layer_norm/Multiply_1" type="Multiply" version="opset1">
			<data auto_broadcast="numpy" />
			<input>
				<port id="0" precision="FP32">
					<dim>-1</dim>
					<dim>-1</dim>
					<dim>1024</dim>
				</port>
				<port id="1" precision="FP32">
					<dim>1</dim>
					<dim>1</dim>
					<dim>1024</dim>
				</port>
			</input>
			<output>
				<port id="2" precision="FP32">
					<dim>-1</dim>
					<dim>-1</dim>
					<dim>1024</dim>
				</port>
			</output>
		</layer>
		<layer id="314" name="Constant_667490_compressed" type="Const" version="opset1">
			<data element_type="f16" shape="1, 1, 1024" offset="539413900" size="2048" />
			<output>
				<port id="0" precision="FP16">
					<dim>1</dim>
					<dim>1</dim>
					<dim>1024</dim>
				</port>
			</output>
		</layer>
		<layer id="315" name="Constant_667490" type="Convert" version="opset1">
			<data destination_type="f32" />
			<rt_info>
				<attribute name="decompression" version="0" />
			</rt_info>
			<input>
				<port id="0" precision="FP16">
					<dim>1</dim>
					<dim>1</dim>
					<dim>1024</dim>
				</port>
			</input>
			<output>
				<port id="1" precision="FP32">
					<dim>1</dim>
					<dim>1</dim>
					<dim>1024</dim>
				</port>
			</output>
		</layer>
		<layer id="316" name="__module.transformer.roberta.encoder.layers.0.norm2/aten::layer_norm/Add" type="Add" version="opset1">
			<data auto_broadcast="numpy" />
			<input>
				<port id="0" precision="FP32">
					<dim>-1</dim>
					<dim>-1</dim>
					<dim>1024</dim>
				</port>
				<port id="1" precision="FP32">
					<dim>1</dim>
					<dim>1</dim>
					<dim>1024</dim>
				</port>
			</input>
			<output>
				<port id="2" precision="FP32" names="433,x.45">
					<dim>-1</dim>
					<dim>-1</dim>
					<dim>1024</dim>
				</port>
			</output>
		</layer>
		<layer id="317" name="__module.transformer.roberta.encoder.layers.1.mixer/aten::index/Constant" type="Const" version="opset1">
			<data element_type="i32" shape="" offset="10" size="4" />
			<output>
				<port id="0" precision="I32" />
			</output>
		</layer>
		<layer id="318" name="__module.transformer.roberta.encoder.layers.1.mixer/aten::index/Gather" type="Gather" version="opset8">
			<data batch_dims="0" />
			<input>
				<port id="0" precision="FP32">
					<dim>-1</dim>
					<dim>-1</dim>
					<dim>1024</dim>
				</port>
				<port id="1" precision="I32">
					<dim>-1</dim>
				</port>
				<port id="2" precision="I32" />
			</input>
			<output>
				<port id="3" precision="FP32" names="459,input.29">
					<dim>-1</dim>
					<dim>-1</dim>
					<dim>1024</dim>
				</port>
			</output>
		</layer>
		<layer id="319" name="self.transformer.roberta.encoder.layers.1.mixer.Wqkv.parametrizations.weight.original_compressed" type="Const" version="opset1">
			<data element_type="f16" shape="3072, 1024" offset="539415948" size="6291456" />
			<output>
				<port id="0" precision="FP16" names="self.transformer.roberta.encoder.layers.1.mixer.Wqkv.parametrizations.weight.original">
					<dim>3072</dim>
					<dim>1024</dim>
				</port>
			</output>
		</layer>
		<layer id="320" name="self.transformer.roberta.encoder.layers.1.mixer.Wqkv.parametrizations.weight.original" type="Convert" version="opset1">
			<data destination_type="f32" />
			<rt_info>
				<attribute name="decompression" version="0" />
			</rt_info>
			<input>
				<port id="0" precision="FP16">
					<dim>3072</dim>
					<dim>1024</dim>
				</port>
			</input>
			<output>
				<port id="1" precision="FP32">
					<dim>3072</dim>
					<dim>1024</dim>
				</port>
			</output>
		</layer>
		<layer id="321" name="self.transformer.roberta.encoder.layers.1.mixer.Wqkv.parametrizations.weight.0.lora_B_compressed" type="Const" version="opset1">
			<data element_type="f16" shape="1, 3072, 4" offset="545707404" size="24576" />
			<output>
				<port id="0" precision="FP16" names="self.transformer.roberta.encoder.layers.1.mixer.Wqkv.parametrizations.weight.0.lora_B">
					<dim>1</dim>
					<dim>3072</dim>
					<dim>4</dim>
				</port>
			</output>
		</layer>
		<layer id="322" name="self.transformer.roberta.encoder.layers.1.mixer.Wqkv.parametrizations.weight.0.lora_B" type="Convert" version="opset1">
			<data destination_type="f32" />
			<rt_info>
				<attribute name="decompression" version="0" />
			</rt_info>
			<input>
				<port id="0" precision="FP16">
					<dim>1</dim>
					<dim>3072</dim>
					<dim>4</dim>
				</port>
			</input>
			<output>
				<port id="1" precision="FP32">
					<dim>1</dim>
					<dim>3072</dim>
					<dim>4</dim>
				</port>
			</output>
		</layer>
		<layer id="323" name="__module.transformer.roberta.encoder.layers.1.mixer.Wqkv/aten::select/Gather" type="Gather" version="opset8">
			<data batch_dims="0" />
			<input>
				<port id="0" precision="FP32">
					<dim>1</dim>
					<dim>3072</dim>
					<dim>4</dim>
				</port>
				<port id="1" precision="I64" />
				<port id="2" precision="I64" />
			</input>
			<output>
				<port id="3" precision="FP32" names="472">
					<dim>3072</dim>
					<dim>4</dim>
				</port>
			</output>
		</layer>
		<layer id="324" name="self.transformer.roberta.encoder.layers.1.mixer.Wqkv.parametrizations.weight.0.lora_A_compressed" type="Const" version="opset1">
			<data element_type="f16" shape="1, 4, 1024" offset="545731980" size="8192" />
			<output>
				<port id="0" precision="FP16" names="self.transformer.roberta.encoder.layers.1.mixer.Wqkv.parametrizations.weight.0.lora_A">
					<dim>1</dim>
					<dim>4</dim>
					<dim>1024</dim>
				</port>
			</output>
		</layer>
		<layer id="325" name="self.transformer.roberta.encoder.layers.1.mixer.Wqkv.parametrizations.weight.0.lora_A" type="Convert" version="opset1">
			<data destination_type="f32" />
			<rt_info>
				<attribute name="decompression" version="0" />
			</rt_info>
			<input>
				<port id="0" precision="FP16">
					<dim>1</dim>
					<dim>4</dim>
					<dim>1024</dim>
				</port>
			</input>
			<output>
				<port id="1" precision="FP32">
					<dim>1</dim>
					<dim>4</dim>
					<dim>1024</dim>
				</port>
			</output>
		</layer>
		<layer id="326" name="__module.transformer.roberta.encoder.layers.1.mixer.Wqkv/aten::select/Gather_1" type="Gather" version="opset8">
			<data batch_dims="0" />
			<input>
				<port id="0" precision="FP32">
					<dim>1</dim>
					<dim>4</dim>
					<dim>1024</dim>
				</port>
				<port id="1" precision="I64" />
				<port id="2" precision="I64" />
			</input>
			<output>
				<port id="3" precision="FP32" names="473">
					<dim>4</dim>
					<dim>1024</dim>
				</port>
			</output>
		</layer>
		<layer id="327" name="__module.transformer.roberta.encoder.layers.1.mixer.Wqkv/aten::matmul/MatMul" type="MatMul" version="opset1">
…
		<edge from-layer="3033" from-port="2" to-layer="3034" to-port="0" />
		<edge from-layer="3034" from-port="2" to-layer="3035" to-port="2" />
		<edge from-layer="3035" from-port="3" to-layer="3036" to-port="0" />
		<edge from-layer="3036" from-port="2" to-layer="3038" to-port="0" />
		<edge from-layer="3037" from-port="0" to-layer="3038" to-port="1" />
		<edge from-layer="3038" from-port="2" to-layer="3041" to-port="0" />
		<edge from-layer="3039" from-port="0" to-layer="3040" to-port="0" />
		<edge from-layer="3040" from-port="1" to-layer="3041" to-port="1" />
		<edge from-layer="3041" from-port="2" to-layer="3044" to-port="0" />
		<edge from-layer="3042" from-port="0" to-layer="3043" to-port="0" />
		<edge from-layer="3043" from-port="1" to-layer="3044" to-port="1" />
		<edge from-layer="3044" from-port="2" to-layer="3046" to-port="0" />
		<edge from-layer="3044" from-port="2" to-layer="3082" to-port="1" />
		<edge from-layer="3045" from-port="0" to-layer="3046" to-port="2" />
		<edge from-layer="3046" from-port="3" to-layer="3057" to-port="0" />
		<edge from-layer="3047" from-port="0" to-layer="3048" to-port="0" />
		<edge from-layer="3048" from-port="1" to-layer="3056" to-port="0" />
		<edge from-layer="3049" from-port="0" to-layer="3050" to-port="0" />
		<edge from-layer="3050" from-port="1" to-layer="3051" to-port="0" />
		<edge from-layer="3051" from-port="3" to-layer="3055" to-port="0" />
		<edge from-layer="3052" from-port="0" to-layer="3053" to-port="0" />
		<edge from-layer="3053" from-port="1" to-layer="3054" to-port="0" />
		<edge from-layer="3054" from-port="3" to-layer="3055" to-port="1" />
		<edge from-layer="3055" from-port="2" to-layer="3056" to-port="1" />
		<edge from-layer="3056" from-port="2" to-layer="3057" to-port="1" />
		<edge from-layer="3057" from-port="2" to-layer="3060" to-port="0" />
		<edge from-layer="3058" from-port="0" to-layer="3059" to-port="0" />
		<edge from-layer="3059" from-port="1" to-layer="3060" to-port="1" />
		<edge from-layer="3060" from-port="2" to-layer="3061" to-port="0" />
		<edge from-layer="3061" from-port="2" to-layer="3062" to-port="2" />
		<edge from-layer="3062" from-port="3" to-layer="3063" to-port="0" />
		<edge from-layer="3063" from-port="1" to-layer="3065" to-port="0" />
		<edge from-layer="3064" from-port="0" to-layer="3065" to-port="2" />
		<edge from-layer="3065" from-port="3" to-layer="3076" to-port="0" />
		<edge from-layer="3066" from-port="0" to-layer="3067" to-port="0" />
		<edge from-layer="3067" from-port="1" to-layer="3075" to-port="0" />
		<edge from-layer="3068" from-port="0" to-layer="3069" to-port="0" />
		<edge from-layer="3069" from-port="1" to-layer="3070" to-port="0" />
		<edge from-layer="3070" from-port="3" to-layer="3074" to-port="0" />
		<edge from-layer="3071" from-port="0" to-layer="3072" to-port="0" />
		<edge from-layer="3072" from-port="1" to-layer="3073" to-port="0" />
		<edge from-layer="3073" from-port="3" to-layer="3074" to-port="1" />
		<edge from-layer="3074" from-port="2" to-layer="3075" to-port="1" />
		<edge from-layer="3075" from-port="2" to-layer="3076" to-port="1" />
		<edge from-layer="3076" from-port="2" to-layer="3079" to-port="0" />
		<edge from-layer="3077" from-port="0" to-layer="3078" to-port="0" />
		<edge from-layer="3078" from-port="1" to-layer="3079" to-port="1" />
		<edge from-layer="3079" from-port="2" to-layer="3080" to-port="0" />
		<edge from-layer="3080" from-port="2" to-layer="3081" to-port="2" />
		<edge from-layer="3081" from-port="3" to-layer="3082" to-port="0" />
		<edge from-layer="3082" from-port="2" to-layer="3084" to-port="0" />
		<edge from-layer="3083" from-port="0" to-layer="3084" to-port="1" />
		<edge from-layer="3084" from-port="2" to-layer="3087" to-port="0" />
		<edge from-layer="3085" from-port="0" to-layer="3086" to-port="0" />
		<edge from-layer="3086" from-port="1" to-layer="3087" to-port="1" />
		<edge from-layer="3087" from-port="2" to-layer="3090" to-port="0" />
		<edge from-layer="3088" from-port="0" to-layer="3089" to-port="0" />
		<edge from-layer="3089" from-port="1" to-layer="3090" to-port="1" />
		<edge from-layer="3090" from-port="2" to-layer="3092" to-port="0" />
		<edge from-layer="3090" from-port="2" to-layer="3182" to-port="1" />
		<edge from-layer="3091" from-port="0" to-layer="3092" to-port="2" />
		<edge from-layer="3092" from-port="3" to-layer="3103" to-port="0" />
		<edge from-layer="3093" from-port="0" to-layer="3094" to-port="0" />
		<edge from-layer="3094" from-port="1" to-layer="3102" to-port="0" />
		<edge from-layer="3095" from-port="0" to-layer="3096" to-port="0" />
		<edge from-layer="3096" from-port="1" to-layer="3097" to-port="0" />
		<edge from-layer="3097" from-port="3" to-layer="3101" to-port="0" />
		<edge from-layer="3098" from-port="0" to-layer="3099" to-port="0" />
		<edge from-layer="3099" from-port="1" to-layer="3100" to-port="0" />
		<edge from-layer="3100" from-port="3" to-layer="3101" to-port="1" />
		<edge from-layer="3101" from-port="2" to-layer="3102" to-port="1" />
		<edge from-layer="3102" from-port="2" to-layer="3103" to-port="1" />
		<edge from-layer="3103" from-port="2" to-layer="3106" to-port="0" />
		<edge from-layer="3104" from-port="0" to-layer="3105" to-port="0" />
		<edge from-layer="3105" from-port="1" to-layer="3106" to-port="1" />
		<edge from-layer="3106" from-port="2" to-layer="3107" to-port="0" />
		<edge from-layer="3107" from-port="2" to-layer="3108" to-port="2" />
		<edge from-layer="3108" from-port="3" to-layer="3110" to-port="0" />
		<edge from-layer="3109" from-port="0" to-layer="3110" to-port="1" />
		<edge from-layer="3110" from-port="2" to-layer="3113" to-port="0" />
		<edge from-layer="3110" from-port="2" to-layer="3131" to-port="0" />
		<edge from-layer="3110" from-port="2" to-layer="3148" to-port="0" />
		<edge from-layer="3111" from-port="0" to-layer="3113" to-port="1" />
		<edge from-layer="3112" from-port="0" to-layer="3113" to-port="2" />
		<edge from-layer="3113" from-port="3" to-layer="3117" to-port="0" />
		<edge from-layer="3114" from-port="0" to-layer="3117" to-port="1" />
		<edge from-layer="3115" from-port="0" to-layer="3117" to-port="3" />
		<edge from-layer="3116" from-port="0" to-layer="3117" to-port="4" />
		<edge from-layer="3117" from-port="5" to-layer="3120" to-port="0" />
		<edge from-layer="3117" from-port="5" to-layer="3118" to-port="0" />
		<edge from-layer="3118" from-port="2" to-layer="3126" to-port="0" />
		<edge from-layer="3119" from-port="0" to-layer="3120" to-port="1" />
		<edge from-layer="3120" from-port="3" to-layer="3124" to-port="1" />
		<edge from-layer="3120" from-port="4" to-layer="3123" to-port="0" />
		<edge from-layer="3121" from-port="0" to-layer="3122" to-port="0" />
		<edge from-layer="3122" from-port="1" to-layer="3123" to-port="1" />
		<edge from-layer="3123" from-port="2" to-layer="3124" to-port="0" />
		<edge from-layer="3124" from-port="2" to-layer="3125" to-port="0" />
		<edge from-layer="3125" from-port="2" to-layer="3126" to-port="1" />
		<edge from-layer="3126" from-port="2" to-layer="3128" to-port="0" />
		<edge from-layer="3127" from-port="0" to-layer="3149" to-port="1" />
		<edge from-layer="3127" from-port="0" to-layer="3145" to-port="1" />
		<edge from-layer="3127" from-port="0" to-layer="3128" to-port="1" />
		<edge from-layer="3128" from-port="2" to-layer="3150" to-port="0" />
		<edge from-layer="3129" from-port="0" to-layer="3131" to-port="1" />
		<edge from-layer="3130" from-port="0" to-layer="3131" to-port="2" />
		<edge from-layer="3131" from-port="3" to-layer="3135" to-port="0" />
		<edge from-layer="3132" from-port="0" to-layer="3135" to-port="1" />
		<edge from-layer="3133" from-port="0" to-layer="3135" to-port="3" />
		<edge from-layer="3134" from-port="0" to-layer="3135" to-port="4" />
		<edge from-layer="3135" from-port="5" to-layer="3138" to-port="0" />
		<edge from-layer="3135" from-port="5" to-layer="3136" to-port="0" />
		<edge from-layer="3136" from-port="2" to-layer="3144" to-port="0" />
		<edge from-layer="3137" from-port="0" to-layer="3138" to-port="1" />
		<edge from-layer="3138" from-port="3" to-layer="3142" to-port="1" />
		<edge from-layer="3138" from-port="4" to-layer="3141" to-port="0" />
		<edge from-layer="3139" from-port="0" to-layer="3140" to-port="0" />
		<edge from-layer="3140" from-port="1" to-layer="3141" to-port="1" />
		<edge from-layer="3141" from-port="2" to-layer="3142" to-port="0" />
		<edge from-layer="3142" from-port="2" to-layer="3143" to-port="0" />
		<edge from-layer="3143" from-port="2" to-layer="3144" to-port="1" />
		<edge from-layer="3144" from-port="2" to-layer="3145" to-port="0" />
		<edge from-layer="3145" from-port="2" to-layer="3150" to-port="1" />
		<edge from-layer="3146" from-port="0" to-layer="3148" to-port="1" />
		<edge from-layer="3147" from-port="0" to-layer="3148" to-port="2" />
		<edge from-layer="3148" from-port="3" to-layer="3149" to-port="0" />
		<edge from-layer="3149" from-port="2" to-layer="3150" to-port="2" />
		<edge from-layer="3150" from-port="3" to-layer="3151" to-port="0" />
		<edge from-layer="3151" from-port="4" to-layer="3160" to-port="0" />
		<edge from-layer="3151" from-port="2" to-layer="3152" to-port="0" />
		<edge from-layer="3151" from-port="3" to-layer="3153" to-port="0" />
		<edge from-layer="3152" from-port="2" to-layer="3157" to-port="0" />
		<edge from-layer="3153" from-port="2" to-layer="3156" to-port="0" />
		<edge from-layer="3154" from-port="0" to-layer="3155" to-port="0" />
		<edge from-layer="3155" from-port="1" to-layer="3156" to-port="1" />
		<edge from-layer="3156" from-port="2" to-layer="3157" to-port="1" />
		<edge from-layer="3157" from-port="2" to-layer="3158" to-port="0" />
		<edge from-layer="3158" from-port="2" to-layer="3159" to-port="0" />
		<edge from-layer="3159" from-port="1" to-layer="3161" to-port="0" />
		<edge from-layer="3160" from-port="2" to-layer="3161" to-port="1" />
		<edge from-layer="3161" from-port="2" to-layer="3163" to-port="0" />
		<edge from-layer="3162" from-port="0" to-layer="3163" to-port="1" />
		<edge from-layer="3163" from-port="2" to-layer="3165" to-port="0" />
		<edge from-layer="3164" from-port="0" to-layer="3165" to-port="2" />
		<edge from-layer="3165" from-port="3" to-layer="3176" to-port="0" />
		<edge from-layer="3166" from-port="0" to-layer="3167" to-port="0" />
		<edge from-layer="3167" from-port="1" to-layer="3175" to-port="0" />
		<edge from-layer="3168" from-port="0" to-layer="3169" to-port="0" />
		<edge from-layer="3169" from-port="1" to-layer="3170" to-port="0" />
		<edge from-layer="3170" from-port="3" to-layer="3174" to-port="0" />
		<edge from-layer="3171" from-port="0" to-layer="3172" to-port="0" />
		<edge from-layer="3172" from-port="1" to-layer="3173" to-port="0" />
		<edge from-layer="3173" from-port="3" to-layer="3174" to-port="1" />
		<edge from-layer="3174" from-port="2" to-layer="3175" to-port="1" />
		<edge from-layer="3175" from-port="2" to-layer="3176" to-port="1" />
		<edge from-layer="3176" from-port="2" to-layer="3179" to-port="0" />
		<edge from-layer="3177" from-port="0" to-layer="3178" to-port="0" />
		<edge from-layer="3178" from-port="1" to-layer="3179" to-port="1" />
		<edge from-layer="3179" from-port="2" to-layer="3180" to-port="0" />
		<edge from-layer="3180" from-port="2" to-layer="3181" to-port="2" />
		<edge from-layer="3181" from-port="3" to-layer="3182" to-port="0" />
		<edge from-layer="3182" from-port="2" to-layer="3184" to-port="0" />
		<edge from-layer="3183" from-port="0" to-layer="3184" to-port="1" />
		<edge from-layer="3184" from-port="2" to-layer="3187" to-port="0" />
		<edge from-layer="3185" from-port="0" to-layer="3186" to-port="0" />
		<edge from-layer="3186" from-port="1" to-layer="3187" to-port="1" />
		<edge from-layer="3187" from-port="2" to-layer="3190" to-port="0" />
		<edge from-layer="3188" from-port="0" to-layer="3189" to-port="0" />
		<edge from-layer="3189" from-port="1" to-layer="3190" to-port="1" />
		<edge from-layer="3190" from-port="2" to-layer="3228" to-port="1" />
		<edge from-layer="3190" from-port="2" to-layer="3192" to-port="0" />
		<edge from-layer="3191" from-port="0" to-layer="3192" to-port="2" />
		<edge from-layer="3192" from-port="3" to-layer="3203" to-port="0" />
		<edge from-layer="3193" from-port="0" to-layer="3194" to-port="0" />
		<edge from-layer="3194" from-port="1" to-layer="3202" to-port="0" />
		<edge from-layer="3195" from-port="0" to-layer="3196" to-port="0" />
		<edge from-layer="3196" from-port="1" to-layer="3197" to-port="0" />
		<edge from-layer="3197" from-port="3" to-layer="3201" to-port="0" />
		<edge from-layer="3198" from-port="0" to-layer="3199" to-port="0" />
		<edge from-layer="3199" from-port="1" to-layer="3200" to-port="0" />
		<edge from-layer="3200" from-port="3" to-layer="3201" to-port="1" />
		<edge from-layer="3201" from-port="2" to-layer="3202" to-port="1" />
		<edge from-layer="3202" from-port="2" to-layer="3203" to-port="1" />
		<edge from-layer="3203" from-port="2" to-layer="3206" to-port="0" />
		<edge from-layer="3204" from-port="0" to-layer="3205" to-port="0" />
		<edge from-layer="3205" from-port="1" to-layer="3206" to-port="1" />
		<edge from-layer="3206" from-port="2" to-layer="3207" to-port="0" />
		<edge from-layer="3207" from-port="2" to-layer="3208" to-port="2" />
		<edge from-layer="3208" from-port="3" to-layer="3209" to-port="0" />
		<edge from-layer="3209" from-port="1" to-layer="3211" to-port="0" />
		<edge from-layer="3210" from-port="0" to-layer="3211" to-port="2" />
		<edge from-layer="3211" from-port="3" to-layer="3222" to-port="0" />
		<edge from-layer="3212" from-port="0" to-layer="3213" to-port="0" />
		<edge from-layer="3213" from-port="1" to-layer="3221" to-port="0" />
		<edge from-layer="3214" from-port="0" to-layer="3215" to-port="0" />
		<edge from-layer="3215" from-port="1" to-layer="3216" to-port="0" />
		<edge from-layer="3216" from-port="3" to-layer="3220" to-port="0" />
		<edge from-layer="3217" from-port="0" to-layer="3218" to-port="0" />
		<edge from-layer="3218" from-port="1" to-layer="3219" to-port="0" />
		<edge from-layer="3219" from-port="3" to-layer="3220" to-port="1" />
		<edge from-layer="3220" from-port="2" to-layer="3221" to-port="1" />
		<edge from-layer="3221" from-port="2" to-layer="3222" to-port="1" />
		<edge from-layer="3222" from-port="2" to-layer="3225" to-port="0" />
		<edge from-layer="3223" from-port="0" to-layer="3224" to-port="0" />
		<edge from-layer="3224" from-port="1" to-layer="3225" to-port="1" />
		<edge from-layer="3225" from-port="2" to-layer="3226" to-port="0" />
		<edge from-layer="3226" from-port="2" to-layer="3227" to-port="2" />
		<edge from-layer="3227" from-port="3" to-layer="3228" to-port="0" />
		<edge from-layer="3228" from-port="2" to-layer="3230" to-port="0" />
		<edge from-layer="3229" from-port="0" to-layer="3230" to-port="1" />
		<edge from-layer="3230" from-port="2" to-layer="3233" to-port="0" />
		<edge from-layer="3231" from-port="0" to-layer="3232" to-port="0" />
		<edge from-layer="3232" from-port="1" to-layer="3233" to-port="1" />
		<edge from-layer="3233" from-port="2" to-layer="3236" to-port="0" />
		<edge from-layer="3234" from-port="0" to-layer="3235" to-port="0" />
		<edge from-layer="3235" from-port="1" to-layer="3236" to-port="1" />
		<edge from-layer="3236" from-port="2" to-layer="3238" to-port="0" />
		<edge from-layer="3236" from-port="2" to-layer="3328" to-port="1" />
		<edge from-layer="3237" from-port="0" to-layer="3238" to-port="2" />
		<edge from-layer="3238" from-port="3" to-layer="3249" to-port="0" />
		<edge from-layer="3239" from-port="0" to-layer="3240" to-port="0" />
		<edge from-layer="3240" from-port="1" to-layer="3248" to-port="0" />
		<edge from-layer="3241" from-port="0" to-layer="3242" to-port="0" />
		<edge from-layer="3242" from-port="1" to-layer="3243" to-port="0" />
		<edge from-layer="3243" from-port="3" to-layer="3247" to-port="0" />
		<edge from-layer="3244" from-port="0" to-layer="3245" to-port="0" />
		<edge from-layer="3245" from-port="1" to-layer="3246" to-port="0" />
		<edge from-layer="3246" from-port="3" to-layer="3247" to-port="1" />
		<edge from-layer="3247" from-port="2" to-layer="3248" to-port="1" />
		<edge from-layer="3248" from-port="2" to-layer="3249" to-port="1" />
		<edge from-layer="3249" from-port="2" to-layer="3252" to-port="0" />
		<edge from-layer="3250" from-port="0" to-layer="3251" to-port="0" />
		<edge from-layer="3251" from-port="1" to-layer="3252" to-port="1" />
		<edge from-layer="3252" from-port="2" to-layer="3253" to-port="0" />
		<edge from-layer="3253" from-port="2" to-layer="3254" to-port="2" />
		<edge from-layer="3254" from-port="3" to-layer="3256" to-port="0" />
		<edge from-layer="3255" from-port="0" to-layer="3256" to-port="1" />
		<edge from-layer="3256" from-port="2" to-layer="3259" to-port="0" />
		<edge from-layer="3256" from-port="2" to-layer="3294" to-port="0" />
		<edge from-layer="3256" from-port="2" to-layer="3277" to-port="0" />
		<edge from-layer="3257" from-port="0" to-layer="3259" to-port="1" />
		<edge from-layer="3258" from-port="0" to-layer="3259" to-port="2" />
		<edge from-layer="3259" from-port="3" to-layer="3263" to-port="0" />
		<edge from-layer="3260" from-port="0" to-layer="3263" to-port="1" />
		<edge from-layer="3261" from-port="0" to-layer="3263" to-port="3" />
		<edge from-layer="3262" from-port="0" to-layer="3263" to-port="4" />
		<edge from-layer="3263" from-port="5" to-layer="3264" to-port="0" />
		<edge from-layer="3263" from-port="5" to-layer="3266" to-port="0" />
		<edge from-layer="3264" from-port="2" to-layer="3272" to-port="0" />
		<edge from-layer="3265" from-port="0" to-layer="3266" to-port="1" />
		<edge from-layer="3266" from-port="4" to-layer="3269" to-port="0" />
		<edge from-layer="3266" from-port="3" to-layer="3270" to-port="1" />
		<edge from-layer="3267" from-port="0" to-layer="3268" to-port="0" />
		<edge from-layer="3268" from-port="1" to-layer="3269" to-port="1" />
		<edge from-layer="3269" from-port="2" to-layer="3270" to-port="0" />
		<edge from-layer="3270" from-port="2" to-layer="3271" to-port="0" />
		<edge from-layer="3271" from-port="2" to-layer="3272" to-port="1" />
		<edge from-layer="3272" from-port="2" to-layer="3274" to-port="0" />
		<edge from-layer="3273" from-port="0" to-layer="3295" to-port="1" />
		<edge from-layer="3273" from-port="0" to-layer="3274" to-port="1" />
		<edge from-layer="3273" from-port="0" to-layer="3291" to-port="1" />
		<edge from-layer="3274" from-port="2" to-layer="3296" to-port="0" />
		<edge from-layer="3275" from-port="0" to-layer="3277" to-port="1" />
		<edge from-layer="3276" from-port="0" to-layer="3277" to-port="2" />
		<edge from-layer="3277" from-port="3" to-layer="3281" to-port="0" />
		<edge from-layer="3278" from-port="0" to-layer="3281" to-port="1" />
		<edge from-layer="3279" from-port="0" to-layer="3281" to-port="3" />
		<edge from-layer="3280" from-port="0" to-layer="3281" to-port="4" />
		<edge from-layer="3281" from-port="5" to-layer="3284" to-port="0" />
		<edge from-layer="3281" from-port="5" to-layer="3282" to-port="0" />
		<edge from-layer="3282" from-port="2" to-layer="3290" to-port="0" />
		<edge from-layer="3283" from-port="0" to-layer="3284" to-port="1" />
		<edge from-layer="3284" from-port="3" to-layer="3288" to-port="1" />
		<edge from-layer="3284" from-port="4" to-layer="3287" to-port="0" />
		<edge from-layer="3285" from-port="0" to-layer="3286" to-port="0" />
		<edge from-layer="3286" from-port="1" to-layer="3287" to-port="1" />
		<edge from-layer="3287" from-port="2" to-layer="3288" to-port="0" />
		<edge from-layer="3288" from-port="2" to-layer="3289" to-port="0" />
		<edge from-layer="3289" from-port="2" to-layer="3290" to-port="1" />
		<edge from-layer="3290" from-port="2" to-layer="3291" to-port="0" />
		<edge from-layer="3291" from-port="2" to-layer="3296" to-port="1" />
		<edge from-layer="3292" from-port="0" to-layer="3294" to-port="1" />
		<edge from-layer="3293" from-port="0" to-layer="3294" to-port="2" />
		<edge from-layer="3294" from-port="3" to-layer="3295" to-port="0" />
		<edge from-layer="3295" from-port="2" to-layer="3296" to-port="2" />
		<edge from-layer="3296" from-port="3" to-layer="3297" to-port="0" />
		<edge from-layer="3297" from-port="4" to-layer="3306" to-port="0" />
		<edge from-layer="3297" from-port="2" to-layer="3298" to-port="0" />
		<edge from-layer="3297" from-port="3" to-layer="3299" to-port="0" />
		<edge from-layer="3298" from-port="2" to-layer="3303" to-port="0" />
		<edge from-layer="3299" from-port="2" to-layer="3302" to-port="0" />
		<edge from-layer="3300" from-port="0" to-layer="3301" to-port="0" />
		<edge from-layer="3301" from-port="1" to-layer="3302" to-port="1" />
		<edge from-layer="3302" from-port="2" to-layer="3303" to-port="1" />
		<edge from-layer="3303" from-port="2" to-layer="3304" to-port="0" />
		<edge from-layer="3304" from-port="2" to-layer="3305" to-port="0" />
		<edge from-layer="3305" from-port="1" to-layer="3307" to-port="0" />
		<edge from-layer="3306" from-port="2" to-layer="3307" to-port="1" />
		<edge from-layer="3307" from-port="2" to-layer="3309" to-port="0" />
		<edge from-layer="3308" from-port="0" to-layer="3309" to-port="1" />
		<edge from-layer="3309" from-port="2" to-layer="3311" to-port="0" />
		<edge from-layer="3310" from-port="0" to-layer="3311" to-port="2" />
		<edge from-layer="3311" from-port="3" to-layer="3322" to-port="0" />
		<edge from-layer="3312" from-port="0" to-layer="3313" to-port="0" />
		<edge from-layer="3313" from-port="1" to-layer="3321" to-port="0" />
		<edge from-layer="3314" from-port="0" to-layer="3315" to-port="0" />
		<edge from-layer="3315" from-port="1" to-layer="3316" to-port="0" />
		<edge from-layer="3316" from-port="3" to-layer="3320" to-port="0" />
		<edge from-layer="3317" from-port="0" to-layer="3318" to-port="0" />
		<edge from-layer="3318" from-port="1" to-layer="3319" to-port="0" />
		<edge from-layer="3319" from-port="3" to-layer="3320" to-port="1" />
		<edge from-layer="3320" from-port="2" to-layer="3321" to-port="1" />
		<edge from-layer="3321" from-port="2" to-layer="3322" to-port="1" />
		<edge from-layer="3322" from-port="2" to-layer="3325" to-port="0" />
		<edge from-layer="3323" from-port="0" to-layer="3324" to-port="0" />
		<edge from-layer="3324" from-port="1" to-layer="3325" to-port="1" />
		<edge from-layer="3325" from-port="2" to-layer="3326" to-port="0" />
		<edge from-layer="3326" from-port="2" to-layer="3327" to-port="2" />
		<edge from-layer="3327" from-port="3" to-layer="3328" to-port="0" />
		<edge from-layer="3328" from-port="2" to-layer="3330" to-port="0" />
		<edge from-layer="3329" from-port="0" to-layer="3330" to-port="1" />
		<edge from-layer="3330" from-port="2" to-layer="3333" to-port="0" />
		<edge from-layer="3331" from-port="0" to-layer="3332" to-port="0" />
		<edge from-layer="3332" from-port="1" to-layer="3333" to-port="1" />
		<edge from-layer="3333" from-port="2" to-layer="3336" to-port="0" />
		<edge from-layer="3334" from-port="0" to-layer="3335" to-port="0" />
		<edge from-layer="3335" from-port="1" to-layer="3336" to-port="1" />
		<edge from-layer="3336" from-port="2" to-layer="3338" to-port="0" />
		<edge from-layer="3336" from-port="2" to-layer="3374" to-port="1" />
		<edge from-layer="3337" from-port="0" to-layer="3338" to-port="2" />
		<edge from-layer="3338" from-port="3" to-layer="3349" to-port="0" />
		<edge from-layer="3339" from-port="0" to-layer="3340" to-port="0" />
		<edge from-layer="3340" from-port="1" to-layer="3348" to-port="0" />
		<edge from-layer="3341" from-port="0" to-layer="3342" to-port="0" />
		<edge from-layer="3342" from-port="1" to-layer="3343" to-port="0" />
		<edge from-layer="3343" from-port="3" to-layer="3347" to-port="0" />
		<edge from-layer="3344" from-port="0" to-layer="3345" to-port="0" />
		<edge from-layer="3345" from-port="1" to-layer="3346" to-port="0" />
		<edge from-layer="3346" from-port="3" to-layer="3347" to-port="1" />
		<edge from-layer="3347" from-port="2" to-layer="3348" to-port="1" />
		<edge from-layer="3348" from-port="2" to-layer="3349" to-port="1" />
		<edge from-layer="3349" from-port="2" to-layer="3352" to-port="0" />
		<edge from-layer="3350" from-port="0" to-layer="3351" to-port="0" />
		<edge from-layer="3351" from-port="1" to-layer="3352" to-port="1" />
		<edge from-layer="3352" from-port="2" to-layer="3353" to-port="0" />
		<edge from-layer="3353" from-port="2" to-layer="3354" to-port="2" />
		<edge from-layer="3354" from-port="3" to-layer="3355" to-port="0" />
		<edge from-layer="3355" from-port="1" to-layer="3357" to-port="0" />
		<edge from-layer="3356" from-port="0" to-layer="3357" to-port="2" />
		<edge from-layer="3357" from-port="3" to-layer="3368" to-port="0" />
		<edge from-layer="3358" from-port="0" to-layer="3359" to-port="0" />
		<edge from-layer="3359" from-port="1" to-layer="3367" to-port="0" />
		<edge from-layer="3360" from-port="0" to-layer="3361" to-port="0" />
		<edge from-layer="3361" from-port="1" to-layer="3362" to-port="0" />
		<edge from-layer="3362" from-port="3" to-layer="3366" to-port="0" />
		<edge from-layer="3363" from-port="0" to-layer="3364" to-port="0" />
		<edge from-layer="3364" from-port="1" to-layer="3365" to-port="0" />
		<edge from-layer="3365" from-port="3" to-layer="3366" to-port="1" />
		<edge from-layer="3366" from-port="2" to-layer="3367" to-port="1" />
		<edge from-layer="3367" from-port="2" to-layer="3368" to-port="1" />
		<edge from-layer="3368" from-port="2" to-layer="3371" to-port="0" />
		<edge from-layer="3369" from-port="0" to-layer="3370" to-port="0" />
		<edge from-layer="3370" from-port="1" to-layer="3371" to-port="1" />
		<edge from-layer="3371" from-port="2" to-layer="3372" to-port="0" />
		<edge from-layer="3372" from-port="2" to-layer="3373" to-port="2" />
		<edge from-layer="3373" from-port="3" to-layer="3374" to-port="0" />
		<edge from-layer="3374" from-port="2" to-layer="3376" to-port="0" />
		<edge from-layer="3375" from-port="0" to-layer="3376" to-port="1" />
		<edge from-layer="3376" from-port="2" to-layer="3379" to-port="0" />
		<edge from-layer="3377" from-port="0" to-layer="3378" to-port="0" />
		<edge from-layer="3378" from-port="1" to-layer="3379" to-port="1" />
		<edge from-layer="3379" from-port="2" to-layer="3382" to-port="0" />
		<edge from-layer="3380" from-port="0" to-layer="3381" to-port="0" />
		<edge from-layer="3381" from-port="1" to-layer="3382" to-port="1" />
		<edge from-layer="3382" from-port="2" to-layer="3384" to-port="0" />
		<edge from-layer="3382" from-port="2" to-layer="3474" to-port="1" />
		<edge from-layer="3383" from-port="0" to-layer="3384" to-port="2" />
		<edge from-layer="3384" from-port="3" to-layer="3395" to-port="0" />
		<edge from-layer="3385" from-port="0" to-layer="3386" to-port="0" />
		<edge from-layer="3386" from-port="1" to-layer="3394" to-port="0" />
		<edge from-layer="3387" from-port="0" to-layer="3388" to-port="0" />
		<edge from-layer="3388" from-port="1" to-layer="3389" to-port="0" />
		<edge from-layer="3389" from-port="3" to-layer="3393" to-port="0" />
		<edge from-layer="3390" from-port="0" to-layer="3391" to-port="0" />
		<edge from-layer="3391" from-port="1" to-layer="3392" to-port="0" />
		<edge from-layer="3392" from-port="3" to-layer="3393" to-port="1" />
		<edge from-layer="3393" from-port="2" to-layer="3394" to-port="1" />
		<edge from-layer="3394" from-port="2" to-layer="3395" to-port="1" />
		<edge from-layer="3395" from-port="2" to-layer="3398" to-port="0" />
		<edge from-layer="3396" from-port="0" to-layer="3397" to-port="0" />
		<edge from-layer="3397" from-port="1" to-layer="3398" to-port="1" />
		<edge from-layer="3398" from-port="2" to-layer="3399" to-port="0" />
		<edge from-layer="3399" from-port="2" to-layer="3400" to-port="2" />
		<edge from-layer="3400" from-port="3" to-layer="3402" to-port="0" />
		<edge from-layer="3401" from-port="0" to-layer="3402" to-port="1" />
		<edge from-layer="3402" from-port="2" to-layer="3405" to-port="0" />
		<edge from-layer="3402" from-port="2" to-layer="3440" to-port="0" />
		<edge from-layer="3402" from-port="2" to-layer="3423" to-port="0" />
		<edge from-layer="3403" from-port="0" to-layer="3405" to-port="1" />
		<edge from-layer="3404" from-port="0" to-layer="3405" to-port="2" />
		<edge from-layer="3405" from-port="3" to-layer="3409" to-port="0" />
		<edge from-layer="3406" from-port="0" to-layer="3409" to-port="1" />
		<edge from-layer="3407" from-port="0" to-layer="3409" to-port="3" />
		<edge from-layer="3408" from-port="0" to-layer="3409" to-port="4" />
		<edge from-layer="3409" from-port="5" to-layer="3412" to-port="0" />
		<edge from-layer="3409" from-port="5" to-layer="3410" to-port="0" />
		<edge from-layer="3410" from-port="2" to-layer="3418" to-port="0" />
		<edge from-layer="3411" from-port="0" to-layer="3412" to-port="1" />
		<edge from-layer="3412" from-port="4" to-layer="3415" to-port="0" />
		<edge from-layer="3412" from-port="3" to-layer="3416" to-port="1" />
		<edge from-layer="3413" from-port="0" to-layer="3414" to-port="0" />
		<edge from-layer="3414" from-port="1" to-layer="3415" to-port="1" />
		<edge from-layer="3415" from-port="2" to-layer="3416" to-port="0" />
		<edge from-layer="3416" from-port="2" to-layer="3417" to-port="0" />
		<edge from-layer="3417" from-port="2" to-layer="3418" to-port="1" />
		<edge from-layer="3418" from-port="2" to-layer="3420" to-port="0" />
		<edge from-layer="3419" from-port="0" to-layer="3420" to-port="1" />
		<edge from-layer="3419" from-port="0" to-layer="3437" to-port="1" />
		<edge from-layer="3419" from-port="0" to-layer="3441" to-port="1" />
		<edge from-layer="3420" from-port="2" to-layer="3442" to-port="0" />
		<edge from-layer="3421" from-port="0" to-layer="3423" to-port="1" />
		<edge from-layer="3422" from-port="0" to-layer="3423" to-port="2" />
		<edge from-layer="3423" from-port="3" to-layer="3427" to-port="0" />
		<edge from-layer="3424" from-port="0" to-layer="3427" to-port="1" />
		<edge from-layer="3425" from-port="0" to-layer="3427" to-port="3" />
		<edge from-layer="3426" from-port="0" to-layer="3427" to-port="4" />
		<edge from-layer="3427" from-port="5" to-layer="3428" to-port="0" />
		<edge from-layer="3427" from-port="5" to-layer="3430" to-port="0" />
		<edge from-layer="3428" from-port="2" to-layer="3436" to-port="0" />
		<edge from-layer="3429" from-port="0" to-layer="3430" to-port="1" />
		<edge from-layer="3430" from-port="4" to-layer="3433" to-port="0" />
		<edge from-layer="3430" from-port="3" to-layer="3434" to-port="1" />
		<edge from-layer="3431" from-port="0" to-layer="3432" to-port="0" />
		<edge from-layer="3432" from-port="1" to-layer="3433" to-port="1" />
		<edge from-layer="3433" from-port="2" to-layer="3434" to-port="0" />
		<edge from-layer="3434" from-port="2" to-layer="3435" to-port="0" />
		<edge from-layer="3435" from-port="2" to-layer="3436" to-port="1" />
		<edge from-layer="3436" from-port="2" to-layer="3437" to-port="0" />
		<edge from-layer="3437" from-port="2" to-layer="3442" to-port="1" />
		<edge from-layer="3438" from-port="0" to-layer="3440" to-port="1" />
		<edge from-layer="3439" from-port="0" to-layer="3440" to-port="2" />
		<edge from-layer="3440" from-port="3" to-layer="3441" to-port="0" />
		<edge from-layer="3441" from-port="2" to-layer="3442" to-port="2" />
		<edge from-layer="3442" from-port="3" to-layer="3443" to-port="0" />
		<edge from-layer="3443" from-port="2" to-layer="3444" to-port="0" />
		<edge from-layer="3443" from-port="3" to-layer="3445" to-port="0" />
		<edge from-layer="3443" from-port="4" to-layer="3452" to-port="0" />
		<edge from-layer="3444" from-port="2" to-layer="3449" to-port="0" />
		<edge from-layer="3445" from-port="2" to-layer="3448" to-port="0" />
		<edge from-layer="3446" from-port="0" to-layer="3447" to-port="0" />
		<edge from-layer="3447" from-port="1" to-layer="3448" to-port="1" />
		<edge from-layer="3448" from-port="2" to-layer="3449" to-port="1" />
		<edge from-layer="3449" from-port="2" to-layer="3450" to-port="0" />
		<edge from-layer="3450" from-port="2" to-layer="3451" to-port="0" />
		<edge from-layer="3451" from-port="1" to-layer="3453" to-port="0" />
		<edge from-layer="3452" from-port="2" to-layer="3453" to-port="1" />
		<edge from-layer="3453" from-port="2" to-layer="3455" to-port="0" />
		<edge from-layer="3454" from-port="0" to-layer="3455" to-port="1" />
		<edge from-layer="3455" from-port="2" to-layer="3457" to-port="0" />
		<edge from-layer="3456" from-port="0" to-layer="3457" to-port="2" />
		<edge from-layer="3457" from-port="3" to-layer="3468" to-port="0" />
		<edge from-layer="3458" from-port="0" to-layer="3459" to-port="0" />
		<edge from-layer="3459" from-port="1" to-layer="3467" to-port="0" />
		<edge from-layer="3460" from-port="0" to-layer="3461" to-port="0" />
		<edge from-layer="3461" from-port="1" to-layer="3462" to-port="0" />
		<edge from-layer="3462" from-port="3" to-layer="3466" to-port="0" />
		<edge from-layer="3463" from-port="0" to-layer="3464" to-port="0" />
		<edge from-layer="3464" from-port="1" to-layer="3465" to-port="0" />
		<edge from-layer="3465" from-port="3" to-layer="3466" to-port="1" />
		<edge from-layer="3466" from-port="2" to-layer="3467" to-port="1" />
		<edge from-layer="3467" from-port="2" to-layer="3468" to-port="1" />
		<edge from-layer="3468" from-port="2" to-layer="3471" to-port="0" />
		<edge from-layer="3469" from-port="0" to-layer="3470" to-port="0" />
		<edge from-layer="3470" from-port="1" to-layer="3471" to-port="1" />
		<edge from-layer="3471" from-port="2" to-layer="3472" to-port="0" />
		<edge from-layer="3472" from-port="2" to-layer="3473" to-port="2" />
		<edge from-layer="3473" from-port="3" to-layer="3474" to-port="0" />
		<edge from-layer="3474" from-port="2" to-layer="3476" to-port="0" />
		<edge from-layer="3475" from-port="0" to-layer="3476" to-port="1" />
		<edge from-layer="3476" from-port="2" to-layer="3479" to-port="0" />
		<edge from-layer="3477" from-port="0" to-layer="3478" to-port="0" />
		<edge from-layer="3478" from-port="1" to-layer="3479" to-port="1" />
		<edge from-layer="3479" from-port="2" to-layer="3482" to-port="0" />
		<edge from-layer="3480" from-port="0" to-layer="3481" to-port="0" />
		<edge from-layer="3481" from-port="1" to-layer="3482" to-port="1" />
		<edge from-layer="3482" from-port="2" to-layer="3484" to-port="0" />
		<edge from-layer="3482" from-port="2" to-layer="3520" to-port="1" />
		<edge from-layer="3483" from-port="0" to-layer="3484" to-port="2" />
		<edge from-layer="3484" from-port="3" to-layer="3495" to-port="0" />
		<edge from-layer="3485" from-port="0" to-layer="3486" to-port="0" />
		<edge from-layer="3486" from-port="1" to-layer="3494" to-port="0" />
		<edge from-layer="3487" from-port="0" to-layer="3488" to-port="0" />
		<edge from-layer="3488" from-port="1" to-layer="3489" to-port="0" />
		<edge from-layer="3489" from-port="3" to-layer="3493" to-port="0" />
		<edge from-layer="3490" from-port="0" to-layer="3491" to-port="0" />
		<edge from-layer="3491" from-port="1" to-layer="3492" to-port="0" />
		<edge from-layer="3492" from-port="3" to-layer="3493" to-port="1" />
		<edge from-layer="3493" from-port="2" to-layer="3494" to-port="1" />
		<edge from-layer="3494" from-port="2" to-layer="3495" to-port="1" />
		<edge from-layer="3495" from-port="2" to-layer="3498" to-port="0" />
		<edge from-layer="3496" from-port="0" to-layer="3497" to-port="0" />
		<edge from-layer="3497" from-port="1" to-layer="3498" to-port="1" />
		<edge from-layer="3498" from-port="2" to-layer="3499" to-port="0" />
		<edge from-layer="3499" from-port="2" to-layer="3500" to-port="2" />
		<edge from-layer="3500" from-port="3" to-layer="3501" to-port="0" />
		<edge from-layer="3501" from-port="1" to-layer="3503" to-port="0" />
		<edge from-layer="3502" from-port="0" to-layer="3503" to-port="2" />
		<edge from-layer="3503" from-port="3" to-layer="3514" to-port="0" />
		<edge from-layer="3504" from-port="0" to-layer="3505" to-port="0" />
		<edge from-layer="3505" from-port="1" to-layer="3513" to-port="0" />
		<edge from-layer="3506" from-port="0" to-layer="3507" to-port="0" />
		<edge from-layer="3507" from-port="1" to-layer="3508" to-port="0" />
		<edge from-layer="3508" from-port="3" to-layer="3512" to-port="0" />
		<edge from-layer="3509" from-port="0" to-layer="3510" to-port="0" />
		<edge from-layer="3510" from-port="1" to-layer="3511" to-port="0" />
		<edge from-layer="3511" from-port="3" to-layer="3512" to-port="1" />
		<edge from-layer="3512" from-port="2" to-layer="3513" to-port="1" />
		<edge from-layer="3513" from-port="2" to-layer="3514" to-port="1" />
		<edge from-layer="3514" from-port="2" to-layer="3517" to-port="0" />
		<edge from-layer="3515" from-port="0" to-layer="3516" to-port="0" />
		<edge from-layer="3516" from-port="1" to-layer="3517" to-port="1" />
		<edge from-layer="3517" from-port="2" to-layer="3518" to-port="0" />
		<edge from-layer="3518" from-port="2" to-layer="3519" to-port="2" />
		<edge from-layer="3519" from-port="3" to-layer="3520" to-port="0" />
		<edge from-layer="3520" from-port="2" to-layer="3522" to-port="0" />
		<edge from-layer="3521" from-port="0" to-layer="3522" to-port="1" />
		<edge from-layer="3522" from-port="2" to-layer="3525" to-port="0" />
		<edge from-layer="3523" from-port="0" to-layer="3524" to-port="0" />
		<edge from-layer="3524" from-port="1" to-layer="3525" to-port="1" />
		<edge from-layer="3525" from-port="2" to-layer="3528" to-port="0" />
		<edge from-layer="3526" from-port="0" to-layer="3527" to-port="0" />
		<edge from-layer="3527" from-port="1" to-layer="3528" to-port="1" />
		<edge from-layer="3528" from-port="2" to-layer="3620" to-port="1" />
		<edge from-layer="3528" from-port="2" to-layer="3530" to-port="0" />
		<edge from-layer="3529" from-port="0" to-layer="3530" to-port="2" />
		<edge from-layer="3530" from-port="3" to-layer="3541" to-port="0" />
		<edge from-layer="3531" from-port="0" to-layer="3532" to-port="0" />
		<edge from-layer="3532" from-port="1" to-layer="3540" to-port="0" />
		<edge from-layer="3533" from-port="0" to-layer="3534" to-port="0" />
		<edge from-layer="3534" from-port="1" to-layer="3535" to-port="0" />
		<edge from-layer="3535" from-port="3" to-layer="3539" to-port="0" />
		<edge from-layer="3536" from-port="0" to-layer="3537" to-port="0" />
		<edge from-layer="3537" from-port="1" to-layer="3538" to-port="0" />
		<edge from-layer="3538" from-port="3" to-layer="3539" to-port="1" />
		<edge from-layer="3539" from-port="2" to-layer="3540" to-port="1" />
		<edge from-layer="3540" from-port="2" to-layer="3541" to-port="1" />
		<edge from-layer="3541" from-port="2" to-layer="3544" to-port="0" />
		<edge from-layer="3542" from-port="0" to-layer="3543" to-port="0" />
		<edge from-layer="3543" from-port="1" to-layer="3544" to-port="1" />
		<edge from-layer="3544" from-port="2" to-layer="3545" to-port="0" />
		<edge from-layer="3545" from-port="2" to-layer="3546" to-port="2" />
		<edge from-layer="3546" from-port="3" to-layer="3548" to-port="0" />
		<edge from-layer="3547" from-port="0" to-layer="3548" to-port="1" />
		<edge from-layer="3548" from-port="2" to-layer="3586" to-port="0" />
		<edge from-layer="3548" from-port="2" to-layer="3551" to-port="0" />
		<edge from-layer="3548" from-port="2" to-layer="3569" to-port="0" />
		<edge from-layer="3549" from-port="0" to-layer="3551" to-port="1" />
		<edge from-layer="3550" from-port="0" to-layer="3551" to-port="2" />
		<edge from-layer="3551" from-port="3" to-layer="3555" to-port="0" />
		<edge from-layer="3552" from-port="0" to-layer="3555" to-port="1" />
		<edge from-layer="3553" from-port="0" to-layer="3555" to-port="3" />
		<edge from-layer="3554" from-port="0" to-layer="3555" to-port="4" />
		<edge from-layer="3555" from-port="5" to-layer="3558" to-port="0" />
		<edge from-layer="3555" from-port="5" to-layer="3556" to-port="0" />
		<edge from-layer="3556" from-port="2" to-layer="3564" to-port="0" />
		<edge from-layer="3557" from-port="0" to-layer="3558" to-port="1" />
		<edge from-layer="3558" from-port="4" to-layer="3561" to-port="0" />
		<edge from-layer="3558" from-port="3" to-layer="3562" to-port="1" />
		<edge from-layer="3559" from-port="0" to-layer="3560" to-port="0" />
		<edge from-layer="3560" from-port="1" to-layer="3561" to-port="1" />
		<edge from-layer="3561" from-port="2" to-layer="3562" to-port="0" />
		<edge from-layer="3562" from-port="2" to-layer="3563" to-port="0" />
		<edge from-layer="3563" from-port="2" to-layer="3564" to-port="1" />
		<edge from-layer="3564" from-port="2" to-layer="3566" to-port="0" />
		<edge from-layer="3565" from-port="0" to-layer="3583" to-port="1" />
		<edge from-layer="3565" from-port="0" to-layer="3566" to-port="1" />
		<edge from-layer="3565" from-port="0" to-layer="3587" to-port="1" />
		<edge from-layer="3566" from-port="2" to-layer="3588" to-port="0" />
		<edge from-layer="3567" from-port="0" to-layer="3569" to-port="1" />
		<edge from-layer="3568" from-port="0" to-layer="3569" to-port="2" />
		<edge from-layer="3569" from-port="3" to-layer="3573" to-port="0" />
		<edge from-layer="3570" from-port="0" to-layer="3573" to-port="1" />
		<edge from-layer="3571" from-port="0" to-layer="3573" to-port="3" />
		<edge from-layer="3572" from-port="0" to-layer="3573" to-port="4" />
		<edge from-layer="3573" from-port="5" to-layer="3574" to-port="0" />
		<edge from-layer="3573" from-port="5" to-layer="3576" to-port="0" />
		<edge from-layer="3574" from-port="2" to-layer="3582" to-port="0" />
		<edge from-layer="3575" from-port="0" to-layer="3576" to-port="1" />
		<edge from-layer="3576" from-port="4" to-layer="3579" to-port="0" />
		<edge from-layer="3576" from-port="3" to-layer="3580" to-port="1" />
		<edge from-layer="3577" from-port="0" to-layer="3578" to-port="0" />
		<edge from-layer="3578" from-port="1" to-layer="3579" to-port="1" />
		<edge from-layer="3579" from-port="2" to-layer="3580" to-port="0" />
		<edge from-layer="3580" from-port="2" to-layer="3581" to-port="0" />
		<edge from-layer="3581" from-port="2" to-layer="3582" to-port="1" />
		<edge from-layer="3582" from-port="2" to-layer="3583" to-port="0" />
		<edge from-layer="3583" from-port="2" to-layer="3588" to-port="1" />
		<edge from-layer="3584" from-port="0" to-layer="3586" to-port="1" />
		<edge from-layer="3585" from-port="0" to-layer="3586" to-port="2" />
		<edge from-layer="3586" from-port="3" to-layer="3587" to-port="0" />
		<edge from-layer="3587" from-port="2" to-layer="3588" to-port="2" />
		<edge from-layer="3588" from-port="3" to-layer="3589" to-port="0" />
		<edge from-layer="3589" from-port="2" to-layer="3590" to-port="0" />
		<edge from-layer="3589" from-port="4" to-layer="3598" to-port="0" />
		<edge from-layer="3589" from-port="3" to-layer="3591" to-port="0" />
		<edge from-layer="3590" from-port="2" to-layer="3595" to-port="0" />
		<edge from-layer="3591" from-port="2" to-layer="3594" to-port="0" />
		<edge from-layer="3592" from-port="0" to-layer="3593" to-port="0" />
		<edge from-layer="3593" from-port="1" to-layer="3594" to-port="1" />
		<edge from-layer="3594" from-port="2" to-layer="3595" to-port="1" />
		<edge from-layer="3595" from-port="2" to-layer="3596" to-port="0" />
		<edge from-layer="3596" from-port="2" to-layer="3597" to-port="0" />
		<edge from-layer="3597" from-port="1" to-layer="3599" to-port="0" />
		<edge from-layer="3598" from-port="2" to-layer="3599" to-port="1" />
		<edge from-layer="3599" from-port="2" to-layer="3601" to-port="0" />
		<edge from-layer="3600" from-port="0" to-layer="3601" to-port="1" />
		<edge from-layer="3601" from-port="2" to-layer="3603" to-port="0" />
		<edge from-layer="3602" from-port="0" to-layer="3603" to-port="2" />
		<edge from-layer="3603" from-port="3" to-layer="3614" to-port="0" />
		<edge from-layer="3604" from-port="0" to-layer="3605" to-port="0" />
		<edge from-layer="3605" from-port="1" to-layer="3613" to-port="0" />
		<edge from-layer="3606" from-port="0" to-layer="3607" to-port="0" />
		<edge from-layer="3607" from-port="1" to-layer="3608" to-port="0" />
		<edge from-layer="3608" from-port="3" to-layer="3612" to-port="0" />
		<edge from-layer="3609" from-port="0" to-layer="3610" to-port="0" />
		<edge from-layer="3610" from-port="1" to-layer="3611" to-port="0" />
		<edge from-layer="3611" from-port="3" to-layer="3612" to-port="1" />
		<edge from-layer="3612" from-port="2" to-layer="3613" to-port="1" />
		<edge from-layer="3613" from-port="2" to-layer="3614" to-port="1" />
		<edge from-layer="3614" from-port="2" to-layer="3617" to-port="0" />
		<edge from-layer="3615" from-port="0" to-layer="3616" to-port="0" />
		<edge from-layer="3616" from-port="1" to-layer="3617" to-port="1" />
		<edge from-layer="3617" from-port="2" to-layer="3618" to-port="0" />
		<edge from-layer="3618" from-port="2" to-layer="3619" to-port="2" />
		<edge from-layer="3619" from-port="3" to-layer="3620" to-port="0" />
		<edge from-layer="3620" from-port="2" to-layer="3622" to-port="0" />
		<edge from-layer="3621" from-port="0" to-layer="3622" to-port="1" />
		<edge from-layer="3622" from-port="2" to-layer="3625" to-port="0" />
		<edge from-layer="3623" from-port="0" to-layer="3624" to-port="0" />
		<edge from-layer="3624" from-port="1" to-layer="3625" to-port="1" />
		<edge from-layer="3625" from-port="2" to-layer="3628" to-port="0" />
		<edge from-layer="3626" from-port="0" to-layer="3627" to-port="0" />
		<edge from-layer="3627" from-port="1" to-layer="3628" to-port="1" />
		<edge from-layer="3628" from-port="2" to-layer="3630" to-port="0" />
		<edge from-layer="3628" from-port="2" to-layer="3666" to-port="1" />
		<edge from-layer="3629" from-port="0" to-layer="3630" to-port="2" />
		<edge from-layer="3630" from-port="3" to-layer="3641" to-port="0" />
		<edge from-layer="3631" from-port="0" to-layer="3632" to-port="0" />
		<edge from-layer="3632" from-port="1" to-layer="3640" to-port="0" />
		<edge from-layer="3633" from-port="0" to-layer="3634" to-port="0" />
		<edge from-layer="3634" from-port="1" to-layer="3635" to-port="0" />
		<edge from-layer="3635" from-port="3" to-layer="3639" to-port="0" />
		<edge from-layer="3636" from-port="0" to-layer="3637" to-port="0" />
		<edge from-layer="3637" from-port="1" to-layer="3638" to-port="0" />
		<edge from-layer="3638" from-port="3" to-layer="3639" to-port="1" />
		<edge from-layer="3639" from-port="2" to-layer="3640" to-port="1" />
		<edge from-layer="3640" from-port="2" to-layer="3641" to-port="1" />
		<edge from-layer="3641" from-port="2" to-layer="3644" to-port="0" />
		<edge from-layer="3642" from-port="0" to-layer="3643" to-port="0" />
		<edge from-layer="3643" from-port="1" to-layer="3644" to-port="1" />
		<edge from-layer="3644" from-port="2" to-layer="3645" to-port="0" />
		<edge from-layer="3645" from-port="2" to-layer="3646" to-port="2" />
		<edge from-layer="3646" from-port="3" to-layer="3647" to-port="0" />
		<edge from-layer="3647" from-port="1" to-layer="3649" to-port="0" />
		<edge from-layer="3648" from-port="0" to-layer="3649" to-port="2" />
		<edge from-layer="3649" from-port="3" to-layer="3660" to-port="0" />
		<edge from-layer="3650" from-port="0" to-layer="3651" to-port="0" />
		<edge from-layer="3651" from-port="1" to-layer="3659" to-port="0" />
		<edge from-layer="3652" from-port="0" to-layer="3653" to-port="0" />
		<edge from-layer="3653" from-port="1" to-layer="3654" to-port="0" />
		<edge from-layer="3654" from-port="3" to-layer="3658" to-port="0" />
		<edge from-layer="3655" from-port="0" to-layer="3656" to-port="0" />
		<edge from-layer="3656" from-port="1" to-layer="3657" to-port="0" />
		<edge from-layer="3657" from-port="3" to-layer="3658" to-port="1" />
		<edge from-layer="3658" from-port="2" to-layer="3659" to-port="1" />
		<edge from-layer="3659" from-port="2" to-layer="3660" to-port="1" />
		<edge from-layer="3660" from-port="2" to-layer="3663" to-port="0" />
		<edge from-layer="3661" from-port="0" to-layer="3662" to-port="0" />
		<edge from-layer="3662" from-port="1" to-layer="3663" to-port="1" />
		<edge from-layer="3663" from-port="2" to-layer="3664" to-port="0" />
		<edge from-layer="3664" from-port="2" to-layer="3665" to-port="2" />
		<edge from-layer="3665" from-port="3" to-layer="3666" to-port="0" />
		<edge from-layer="3666" from-port="2" to-layer="3668" to-port="0" />
		<edge from-layer="3667" from-port="0" to-layer="3668" to-port="1" />
		<edge from-layer="3668" from-port="2" to-layer="3671" to-port="0" />
		<edge from-layer="3669" from-port="0" to-layer="3670" to-port="0" />
		<edge from-layer="3670" from-port="1" to-layer="3671" to-port="1" />
		<edge from-layer="3671" from-port="2" to-layer="3674" to-port="0" />
		<edge from-layer="3672" from-port="0" to-layer="3673" to-port="0" />
		<edge from-layer="3673" from-port="1" to-layer="3674" to-port="1" />
		<edge from-layer="3674" from-port="2" to-layer="3678" to-port="0" />
		<edge from-layer="3675" from-port="0" to-layer="3676" to-port="1" />
		<edge from-layer="3676" from-port="2" to-layer="3677" to-port="0" />
		<edge from-layer="3677" from-port="1" to-layer="3678" to-port="1" />
		<edge from-layer="3678" from-port="2" to-layer="3680" to-port="0" />
		<edge from-layer="3679" from-port="0" to-layer="3680" to-port="1" />
		<edge from-layer="3680" from-port="2" to-layer="3684" to-port="0" />
		<edge from-layer="3681" from-port="0" to-layer="3682" to-port="1" />
		<edge from-layer="3682" from-port="2" to-layer="3683" to-port="0" />
		<edge from-layer="3683" from-port="1" to-layer="3684" to-port="1" />
		<edge from-layer="3684" from-port="2" to-layer="3685" to-port="0" />
	</edges>
	<rt_info>
		<Runtime_version value="2025.1.0-18503-6fec06580ab-releases/2025/1" />
		<conversion_parameters>
			<framework value="pytorch" />
			<is_python_object value="True" />
		</conversion_parameters>
	</rt_info>
</net>
